<?xml version="1.0"?>
<net name="Model0" version="11">
	<layers>
		<layer id="0" name="input_features" type="Parameter" version="opset1">
			<data shape="?,128,3000" element_type="f32" />
			<output>
				<port id="0" precision="FP32" names="input_features">
					<dim>-1</dim>
					<dim>128</dim>
					<dim>3000</dim>
				</port>
			</output>
		</layer>
		<layer id="1" name="self.conv1.weight" type="Const" version="opset1">
			<data element_type="u8" shape="1280, 128, 3" offset="0" size="491520" />
			<output>
				<port id="0" precision="U8">
					<dim>1280</dim>
					<dim>128</dim>
					<dim>3</dim>
				</port>
			</output>
		</layer>
		<layer id="2" name="Convert_975443" type="Convert" version="opset1">
			<data destination_type="f16" />
			<input>
				<port id="0" precision="U8">
					<dim>1280</dim>
					<dim>128</dim>
					<dim>3</dim>
				</port>
			</input>
			<output>
				<port id="1" precision="FP16">
					<dim>1280</dim>
					<dim>128</dim>
					<dim>3</dim>
				</port>
			</output>
		</layer>
		<layer id="3" name="self.conv1.weight/zero_point" type="Const" version="opset1">
			<data element_type="u8" shape="1280, 1, 1" offset="491520" size="1280" />
			<output>
				<port id="0" precision="U8">
					<dim>1280</dim>
					<dim>1</dim>
					<dim>1</dim>
				</port>
			</output>
		</layer>
		<layer id="4" name="Convert_975446" type="Convert" version="opset1">
			<data destination_type="f16" />
			<input>
				<port id="0" precision="U8">
					<dim>1280</dim>
					<dim>1</dim>
					<dim>1</dim>
				</port>
			</input>
			<output>
				<port id="1" precision="FP16">
					<dim>1280</dim>
					<dim>1</dim>
					<dim>1</dim>
				</port>
			</output>
		</layer>
		<layer id="5" name="self.conv1.weight/zero_point/subtract" type="Subtract" version="opset1">
			<data auto_broadcast="numpy" />
			<input>
				<port id="0" precision="FP16">
					<dim>1280</dim>
					<dim>128</dim>
					<dim>3</dim>
				</port>
				<port id="1" precision="FP16">
					<dim>1280</dim>
					<dim>1</dim>
					<dim>1</dim>
				</port>
			</input>
			<output>
				<port id="2" precision="FP16">
					<dim>1280</dim>
					<dim>128</dim>
					<dim>3</dim>
				</port>
			</output>
		</layer>
		<layer id="6" name="self.conv1.weight/scale" type="Const" version="opset1">
			<data element_type="f16" shape="1280, 1, 1" offset="492800" size="2560" />
			<output>
				<port id="0" precision="FP16">
					<dim>1280</dim>
					<dim>1</dim>
					<dim>1</dim>
				</port>
			</output>
		</layer>
		<layer id="7" name="self.conv1.weight/fq_weights_1" type="Multiply" version="opset1">
			<data auto_broadcast="numpy" />
			<input>
				<port id="0" precision="FP16">
					<dim>1280</dim>
					<dim>128</dim>
					<dim>3</dim>
				</port>
				<port id="1" precision="FP16">
					<dim>1280</dim>
					<dim>1</dim>
					<dim>1</dim>
				</port>
			</input>
			<output>
				<port id="2" precision="FP16">
					<dim>1280</dim>
					<dim>128</dim>
					<dim>3</dim>
				</port>
			</output>
		</layer>
		<layer id="8" name="self.conv1.weight/fq_weights_1/convert" type="Convert" version="opset1">
			<data destination_type="f32" />
			<input>
				<port id="0" precision="FP16">
					<dim>1280</dim>
					<dim>128</dim>
					<dim>3</dim>
				</port>
			</input>
			<output>
				<port id="1" precision="FP32">
					<dim>1280</dim>
					<dim>128</dim>
					<dim>3</dim>
				</port>
			</output>
		</layer>
		<layer id="9" name="__module.conv1/aten::_convolution/Convolution" type="Convolution" version="opset1">
			<data strides="1" dilations="1" pads_begin="1" pads_end="1" auto_pad="explicit" />
			<input>
				<port id="0" precision="FP32">
					<dim>-1</dim>
					<dim>128</dim>
					<dim>3000</dim>
				</port>
				<port id="1" precision="FP32">
					<dim>1280</dim>
					<dim>128</dim>
					<dim>3</dim>
				</port>
			</input>
			<output>
				<port id="2" precision="FP32">
					<dim>-1</dim>
					<dim>1280</dim>
					<dim>3000</dim>
				</port>
			</output>
		</layer>
		<layer id="10" name="__module.conv1/aten::_convolution/Reshape" type="Const" version="opset1">
			<data element_type="f32" shape="1, 1280, 1" offset="495360" size="5120" />
			<output>
				<port id="0" precision="FP32">
					<dim>1</dim>
					<dim>1280</dim>
					<dim>1</dim>
				</port>
			</output>
		</layer>
		<layer id="11" name="__module.conv1/aten::_convolution/Add" type="Add" version="opset1">
			<data auto_broadcast="numpy" />
			<input>
				<port id="0" precision="FP32">
					<dim>-1</dim>
					<dim>1280</dim>
					<dim>3000</dim>
				</port>
				<port id="1" precision="FP32">
					<dim>1</dim>
					<dim>1280</dim>
					<dim>1</dim>
				</port>
			</input>
			<output>
				<port id="2" precision="FP32" names="131">
					<dim>-1</dim>
					<dim>1280</dim>
					<dim>3000</dim>
				</port>
			</output>
		</layer>
		<layer id="12" name="aten::gelu/Gelu" type="Gelu" version="opset7">
			<data approximation_mode="ERF" />
			<input>
				<port id="0" precision="FP32">
					<dim>-1</dim>
					<dim>1280</dim>
					<dim>3000</dim>
				</port>
			</input>
			<output>
				<port id="1" precision="FP32" names="73">
					<dim>-1</dim>
					<dim>1280</dim>
					<dim>3000</dim>
				</port>
			</output>
		</layer>
		<layer id="13" name="self.conv2.weight" type="Const" version="opset1">
			<data element_type="u8" shape="1280, 1280, 3" offset="500480" size="4915200" />
			<output>
				<port id="0" precision="U8">
					<dim>1280</dim>
					<dim>1280</dim>
					<dim>3</dim>
				</port>
			</output>
		</layer>
		<layer id="14" name="Convert_359585" type="Convert" version="opset1">
			<data destination_type="f16" />
			<input>
				<port id="0" precision="U8">
					<dim>1280</dim>
					<dim>1280</dim>
					<dim>3</dim>
				</port>
			</input>
			<output>
				<port id="1" precision="FP16">
					<dim>1280</dim>
					<dim>1280</dim>
					<dim>3</dim>
				</port>
			</output>
		</layer>
		<layer id="15" name="self.conv2.weight/zero_point" type="Const" version="opset1">
			<data element_type="u8" shape="1280, 1, 1" offset="5415680" size="1280" />
			<output>
				<port id="0" precision="U8">
					<dim>1280</dim>
					<dim>1</dim>
					<dim>1</dim>
				</port>
			</output>
		</layer>
		<layer id="16" name="Convert_359588" type="Convert" version="opset1">
			<data destination_type="f16" />
			<input>
				<port id="0" precision="U8">
					<dim>1280</dim>
					<dim>1</dim>
					<dim>1</dim>
				</port>
			</input>
			<output>
				<port id="1" precision="FP16">
					<dim>1280</dim>
					<dim>1</dim>
					<dim>1</dim>
				</port>
			</output>
		</layer>
		<layer id="17" name="self.conv2.weight/zero_point/subtract" type="Subtract" version="opset1">
			<data auto_broadcast="numpy" />
			<input>
				<port id="0" precision="FP16">
					<dim>1280</dim>
					<dim>1280</dim>
					<dim>3</dim>
				</port>
				<port id="1" precision="FP16">
					<dim>1280</dim>
					<dim>1</dim>
					<dim>1</dim>
				</port>
			</input>
			<output>
				<port id="2" precision="FP16">
					<dim>1280</dim>
					<dim>1280</dim>
					<dim>3</dim>
				</port>
			</output>
		</layer>
		<layer id="18" name="self.conv2.weight/scale" type="Const" version="opset1">
			<data element_type="f16" shape="1280, 1, 1" offset="5416960" size="2560" />
			<output>
				<port id="0" precision="FP16">
					<dim>1280</dim>
					<dim>1</dim>
					<dim>1</dim>
				</port>
			</output>
		</layer>
		<layer id="19" name="self.conv2.weight/fq_weights_1" type="Multiply" version="opset1">
			<data auto_broadcast="numpy" />
			<input>
				<port id="0" precision="FP16">
					<dim>1280</dim>
					<dim>1280</dim>
					<dim>3</dim>
				</port>
				<port id="1" precision="FP16">
					<dim>1280</dim>
					<dim>1</dim>
					<dim>1</dim>
				</port>
			</input>
			<output>
				<port id="2" precision="FP16">
					<dim>1280</dim>
					<dim>1280</dim>
					<dim>3</dim>
				</port>
			</output>
		</layer>
		<layer id="20" name="self.conv2.weight/fq_weights_1/convert" type="Convert" version="opset1">
			<data destination_type="f32" />
			<input>
				<port id="0" precision="FP16">
					<dim>1280</dim>
					<dim>1280</dim>
					<dim>3</dim>
				</port>
			</input>
			<output>
				<port id="1" precision="FP32">
					<dim>1280</dim>
					<dim>1280</dim>
					<dim>3</dim>
				</port>
			</output>
		</layer>
		<layer id="21" name="__module.conv2/aten::_convolution/Convolution" type="Convolution" version="opset1">
			<data strides="2" dilations="1" pads_begin="1" pads_end="1" auto_pad="explicit" />
			<input>
				<port id="0" precision="FP32">
					<dim>-1</dim>
					<dim>1280</dim>
					<dim>3000</dim>
				</port>
				<port id="1" precision="FP32">
					<dim>1280</dim>
					<dim>1280</dim>
					<dim>3</dim>
				</port>
			</input>
			<output>
				<port id="2" precision="FP32">
					<dim>-1</dim>
					<dim>1280</dim>
					<dim>1500</dim>
				</port>
			</output>
		</layer>
		<layer id="22" name="__module.conv2/aten::_convolution/Reshape" type="Const" version="opset1">
			<data element_type="f32" shape="1, 1280, 1" offset="5419520" size="5120" />
			<output>
				<port id="0" precision="FP32">
					<dim>1</dim>
					<dim>1280</dim>
					<dim>1</dim>
				</port>
			</output>
		</layer>
		<layer id="23" name="__module.conv2/aten::_convolution/Add" type="Add" version="opset1">
			<data auto_broadcast="numpy" />
			<input>
				<port id="0" precision="FP32">
					<dim>-1</dim>
					<dim>1280</dim>
					<dim>1500</dim>
				</port>
				<port id="1" precision="FP32">
					<dim>1</dim>
					<dim>1280</dim>
					<dim>1</dim>
				</port>
			</input>
			<output>
				<port id="2" precision="FP32" names="143">
					<dim>-1</dim>
					<dim>1280</dim>
					<dim>1500</dim>
				</port>
			</output>
		</layer>
		<layer id="24" name="aten::gelu/Gelu_1" type="Gelu" version="opset7">
			<data approximation_mode="ERF" />
			<input>
				<port id="0" precision="FP32">
					<dim>-1</dim>
					<dim>1280</dim>
					<dim>1500</dim>
				</port>
			</input>
			<output>
				<port id="1" precision="FP32" names="76,inputs_embeds.1">
					<dim>-1</dim>
					<dim>1280</dim>
					<dim>1500</dim>
				</port>
			</output>
		</layer>
		<layer id="25" name="aten::permute/Mod" type="Const" version="opset1">
			<data element_type="i64" shape="3" offset="5424640" size="24" />
			<output>
				<port id="0" precision="I64">
					<dim>3</dim>
				</port>
			</output>
		</layer>
		<layer id="26" name="aten::permute/Transpose" type="Transpose" version="opset1">
			<input>
				<port id="0" precision="FP32">
					<dim>-1</dim>
					<dim>1280</dim>
					<dim>1500</dim>
				</port>
				<port id="1" precision="I64">
					<dim>3</dim>
				</port>
			</input>
			<output>
				<port id="2" precision="FP32" names="81,inputs_embeds">
					<dim>-1</dim>
					<dim>1500</dim>
					<dim>1280</dim>
				</port>
			</output>
		</layer>
		<layer id="27" name="Constant_19940" type="Const" version="opset1">
			<data element_type="f32" shape="1, 1500, 1280" offset="5424664" size="7680000" />
			<output>
				<port id="0" precision="FP32">
					<dim>1</dim>
					<dim>1500</dim>
					<dim>1280</dim>
				</port>
			</output>
		</layer>
		<layer id="28" name="aten::add/Add" type="Add" version="opset1">
			<data auto_broadcast="numpy" />
			<input>
				<port id="0" precision="FP32">
					<dim>-1</dim>
					<dim>1500</dim>
					<dim>1280</dim>
				</port>
				<port id="1" precision="FP32">
					<dim>1</dim>
					<dim>1500</dim>
					<dim>1280</dim>
				</port>
			</input>
			<output>
				<port id="2" precision="FP32" names="83,input.1">
					<dim>-1</dim>
					<dim>1500</dim>
					<dim>1280</dim>
				</port>
			</output>
		</layer>
		<layer id="29" name="__module.layers.0.self_attn_layer_norm/aten::layer_norm/Multiply" type="Const" version="opset1">
			<data element_type="i32" shape="1" offset="13104664" size="4" />
			<output>
				<port id="0" precision="I32">
					<dim>1</dim>
				</port>
			</output>
		</layer>
		<layer id="30" name="__module.layers.0.self_attn_layer_norm/aten::layer_norm/MVN" type="MVN" version="opset6">
			<data eps="9.9999997473787516e-06" normalize_variance="true" eps_mode="INSIDE_SQRT" />
			<input>
				<port id="0" precision="FP32">
					<dim>-1</dim>
					<dim>1500</dim>
					<dim>1280</dim>
				</port>
				<port id="1" precision="I32">
					<dim>1</dim>
				</port>
			</input>
			<output>
				<port id="2" precision="FP32">
					<dim>-1</dim>
					<dim>1500</dim>
					<dim>1280</dim>
				</port>
			</output>
		</layer>
		<layer id="31" name="Constant_19941" type="Const" version="opset1">
			<data element_type="f32" shape="1, 1, 1280" offset="13104668" size="5120" />
			<output>
				<port id="0" precision="FP32">
					<dim>1</dim>
					<dim>1</dim>
					<dim>1280</dim>
				</port>
			</output>
		</layer>
		<layer id="32" name="__module.layers.0.self_attn_layer_norm/aten::layer_norm/Multiply_1" type="Multiply" version="opset1">
			<data auto_broadcast="numpy" />
			<input>
				<port id="0" precision="FP32">
					<dim>-1</dim>
					<dim>1500</dim>
					<dim>1280</dim>
				</port>
				<port id="1" precision="FP32">
					<dim>1</dim>
					<dim>1</dim>
					<dim>1280</dim>
				</port>
			</input>
			<output>
				<port id="2" precision="FP32">
					<dim>-1</dim>
					<dim>1500</dim>
					<dim>1280</dim>
				</port>
			</output>
		</layer>
		<layer id="33" name="Constant_19942" type="Const" version="opset1">
			<data element_type="f32" shape="1, 1, 1280" offset="13109788" size="5120" />
			<output>
				<port id="0" precision="FP32">
					<dim>1</dim>
					<dim>1</dim>
					<dim>1280</dim>
				</port>
			</output>
		</layer>
		<layer id="34" name="__module.layers.0.self_attn_layer_norm/aten::layer_norm/Add" type="Add" version="opset1">
			<data auto_broadcast="numpy" />
			<input>
				<port id="0" precision="FP32">
					<dim>-1</dim>
					<dim>1500</dim>
					<dim>1280</dim>
				</port>
				<port id="1" precision="FP32">
					<dim>1</dim>
					<dim>1</dim>
					<dim>1280</dim>
				</port>
			</input>
			<output>
				<port id="2" precision="FP32" names="166,hidden_states.1">
					<dim>-1</dim>
					<dim>1500</dim>
					<dim>1280</dim>
				</port>
			</output>
		</layer>
		<layer id="35" name="self.layers.0.self_attn.q_proj.weight" type="Const" version="opset1">
			<data element_type="u8" shape="1280, 1280" offset="13114908" size="1638400" />
			<output>
				<port id="0" precision="U8">
					<dim>1280</dim>
					<dim>1280</dim>
				</port>
			</output>
		</layer>
		<layer id="36" name="Convert_373907" type="Convert" version="opset1">
			<data destination_type="f16" />
			<input>
				<port id="0" precision="U8">
					<dim>1280</dim>
					<dim>1280</dim>
				</port>
			</input>
			<output>
				<port id="1" precision="FP16">
					<dim>1280</dim>
					<dim>1280</dim>
				</port>
			</output>
		</layer>
		<layer id="37" name="self.layers.0.self_attn.q_proj.weight/zero_point" type="Const" version="opset1">
			<data element_type="u8" shape="1280, 1" offset="14753308" size="1280" />
			<output>
				<port id="0" precision="U8">
					<dim>1280</dim>
					<dim>1</dim>
				</port>
			</output>
		</layer>
		<layer id="38" name="Convert_373910" type="Convert" version="opset1">
			<data destination_type="f16" />
			<input>
				<port id="0" precision="U8">
					<dim>1280</dim>
					<dim>1</dim>
				</port>
			</input>
			<output>
				<port id="1" precision="FP16">
					<dim>1280</dim>
					<dim>1</dim>
				</port>
			</output>
		</layer>
		<layer id="39" name="self.layers.0.self_attn.q_proj.weight/zero_point/subtract" type="Subtract" version="opset1">
			<data auto_broadcast="numpy" />
			<input>
				<port id="0" precision="FP16">
					<dim>1280</dim>
					<dim>1280</dim>
				</port>
				<port id="1" precision="FP16">
					<dim>1280</dim>
					<dim>1</dim>
				</port>
			</input>
			<output>
				<port id="2" precision="FP16">
					<dim>1280</dim>
					<dim>1280</dim>
				</port>
			</output>
		</layer>
		<layer id="40" name="self.layers.0.self_attn.q_proj.weight/scale" type="Const" version="opset1">
			<data element_type="f16" shape="1280, 1" offset="14754588" size="2560" />
			<output>
				<port id="0" precision="FP16">
					<dim>1280</dim>
					<dim>1</dim>
				</port>
			</output>
		</layer>
		<layer id="41" name="self.layers.0.self_attn.q_proj.weight/fq_weights_1" type="Multiply" version="opset1">
			<data auto_broadcast="numpy" />
			<input>
				<port id="0" precision="FP16">
					<dim>1280</dim>
					<dim>1280</dim>
				</port>
				<port id="1" precision="FP16">
					<dim>1280</dim>
					<dim>1</dim>
				</port>
			</input>
			<output>
				<port id="2" precision="FP16">
					<dim>1280</dim>
					<dim>1280</dim>
				</port>
			</output>
		</layer>
		<layer id="42" name="self.layers.0.self_attn.q_proj.weight/fq_weights_1/convert" type="Convert" version="opset1">
			<data destination_type="f32" />
			<input>
				<port id="0" precision="FP16">
					<dim>1280</dim>
					<dim>1280</dim>
				</port>
			</input>
			<output>
				<port id="1" precision="FP32">
					<dim>1280</dim>
					<dim>1280</dim>
				</port>
			</output>
		</layer>
		<layer id="43" name="__module.layers.0.self_attn.q_proj/aten::linear/MatMul" type="MatMul" version="opset1">
			<data transpose_a="false" transpose_b="true" />
			<input>
				<port id="0" precision="FP32">
					<dim>-1</dim>
					<dim>1500</dim>
					<dim>1280</dim>
				</port>
				<port id="1" precision="FP32">
					<dim>1280</dim>
					<dim>1280</dim>
				</port>
			</input>
			<output>
				<port id="2" precision="FP32">
					<dim>-1</dim>
					<dim>1500</dim>
					<dim>1280</dim>
				</port>
			</output>
		</layer>
		<layer id="44" name="Constant_19943" type="Const" version="opset1">
			<data element_type="f32" shape="1, 1, 1280" offset="14757148" size="5120" />
			<output>
				<port id="0" precision="FP32">
					<dim>1</dim>
					<dim>1</dim>
					<dim>1280</dim>
				</port>
			</output>
		</layer>
		<layer id="45" name="__module.layers.0.self_attn.q_proj/aten::linear/Add" type="Add" version="opset1">
			<data auto_broadcast="numpy" />
			<input>
				<port id="0" precision="FP32">
					<dim>-1</dim>
					<dim>1500</dim>
					<dim>1280</dim>
				</port>
				<port id="1" precision="FP32">
					<dim>1</dim>
					<dim>1</dim>
					<dim>1280</dim>
				</port>
			</input>
			<output>
				<port id="2" precision="FP32" names="175,tensor.1">
					<dim>-1</dim>
					<dim>1500</dim>
					<dim>1280</dim>
				</port>
			</output>
		</layer>
		<layer id="46" name="Constant_20779" type="Const" version="opset1">
			<data element_type="i64" shape="4" offset="14762268" size="32" />
			<output>
				<port id="0" precision="I64">
					<dim>4</dim>
				</port>
			</output>
		</layer>
		<layer id="47" name="__module.layers.0.self_attn/aten::view/Reshape" type="Reshape" version="opset1">
			<data special_zero="true" />
			<input>
				<port id="0" precision="FP32">
					<dim>-1</dim>
					<dim>1500</dim>
					<dim>1280</dim>
				</port>
				<port id="1" precision="I64">
					<dim>4</dim>
				</port>
			</input>
			<output>
				<port id="2" precision="FP32" names="177">
					<dim>-1</dim>
					<dim>1500</dim>
					<dim>20</dim>
					<dim>64</dim>
				</port>
			</output>
		</layer>
		<layer id="48" name="__module.layers.0.self_attn/aten::transpose/Constant" type="Const" version="opset1">
			<data element_type="i32" shape="4" offset="14762300" size="16" />
			<output>
				<port id="0" precision="I32">
					<dim>4</dim>
				</port>
			</output>
		</layer>
		<layer id="49" name="__module.layers.0.self_attn/aten::transpose/Transpose" type="Transpose" version="opset1">
			<input>
				<port id="0" precision="FP32">
					<dim>-1</dim>
					<dim>1500</dim>
					<dim>20</dim>
					<dim>64</dim>
				</port>
				<port id="1" precision="I32">
					<dim>4</dim>
				</port>
			</input>
			<output>
				<port id="2" precision="FP32" names="178">
					<dim>-1</dim>
					<dim>20</dim>
					<dim>1500</dim>
					<dim>64</dim>
				</port>
			</output>
		</layer>
		<layer id="50" name="self.layers.0.self_attn.k_proj.weight" type="Const" version="opset1">
			<data element_type="u8" shape="1280, 1280" offset="14762316" size="1638400" />
			<output>
				<port id="0" precision="U8">
					<dim>1280</dim>
					<dim>1280</dim>
				</port>
			</output>
		</layer>
		<layer id="51" name="Convert_369133" type="Convert" version="opset1">
			<data destination_type="f16" />
			<input>
				<port id="0" precision="U8">
					<dim>1280</dim>
					<dim>1280</dim>
				</port>
			</input>
			<output>
				<port id="1" precision="FP16">
					<dim>1280</dim>
					<dim>1280</dim>
				</port>
			</output>
		</layer>
		<layer id="52" name="self.layers.0.self_attn.k_proj.weight/zero_point" type="Const" version="opset1">
			<data element_type="u8" shape="1280, 1" offset="16400716" size="1280" />
			<output>
				<port id="0" precision="U8">
					<dim>1280</dim>
					<dim>1</dim>
				</port>
			</output>
		</layer>
		<layer id="53" name="Convert_369136" type="Convert" version="opset1">
			<data destination_type="f16" />
			<input>
				<port id="0" precision="U8">
					<dim>1280</dim>
					<dim>1</dim>
				</port>
			</input>
			<output>
				<port id="1" precision="FP16">
					<dim>1280</dim>
					<dim>1</dim>
				</port>
			</output>
		</layer>
		<layer id="54" name="self.layers.0.self_attn.k_proj.weight/zero_point/subtract" type="Subtract" version="opset1">
			<data auto_broadcast="numpy" />
			<input>
				<port id="0" precision="FP16">
					<dim>1280</dim>
					<dim>1280</dim>
				</port>
				<port id="1" precision="FP16">
					<dim>1280</dim>
					<dim>1</dim>
				</port>
			</input>
			<output>
				<port id="2" precision="FP16">
					<dim>1280</dim>
					<dim>1280</dim>
				</port>
			</output>
		</layer>
		<layer id="55" name="self.layers.0.self_attn.k_proj.weight/scale" type="Const" version="opset1">
			<data element_type="f16" shape="1280, 1" offset="16401996" size="2560" />
			<output>
				<port id="0" precision="FP16">
					<dim>1280</dim>
					<dim>1</dim>
				</port>
			</output>
		</layer>
		<layer id="56" name="self.layers.0.self_attn.k_proj.weight/fq_weights_1" type="Multiply" version="opset1">
			<data auto_broadcast="numpy" />
			<input>
				<port id="0" precision="FP16">
					<dim>1280</dim>
					<dim>1280</dim>
				</port>
				<port id="1" precision="FP16">
					<dim>1280</dim>
					<dim>1</dim>
				</port>
			</input>
			<output>
				<port id="2" precision="FP16">
					<dim>1280</dim>
					<dim>1280</dim>
				</port>
			</output>
		</layer>
		<layer id="57" name="self.layers.0.self_attn.k_proj.weight/fq_weights_1/convert" type="Convert" version="opset1">
			<data destination_type="f32" />
			<input>
				<port id="0" precision="FP16">
					<dim>1280</dim>
					<dim>1280</dim>
				</port>
			</input>
			<output>
				<port id="1" precision="FP32">
					<dim>1280</dim>
					<dim>1280</dim>
				</port>
			</output>
		</layer>
		<layer id="58" name="__module.layers.0.self_attn.k_proj/aten::linear/MatMul" type="MatMul" version="opset1">
			<data transpose_a="false" transpose_b="true" />
			<input>
				<port id="0" precision="FP32">
					<dim>-1</dim>
					<dim>1500</dim>
					<dim>1280</dim>
				</port>
				<port id="1" precision="FP32">
					<dim>1280</dim>
					<dim>1280</dim>
				</port>
			</input>
			<output>
				<port id="2" precision="FP32" names="181,tensor.3">
					<dim>-1</dim>
					<dim>1500</dim>
					<dim>1280</dim>
				</port>
			</output>
		</layer>
		<layer id="59" name="Constant_20780" type="Const" version="opset1">
			<data element_type="i64" shape="4" offset="14762268" size="32" />
			<output>
				<port id="0" precision="I64">
					<dim>4</dim>
				</port>
			</output>
		</layer>
		<layer id="60" name="__module.layers.0.self_attn/aten::view/Reshape_1" type="Reshape" version="opset1">
			<data special_zero="true" />
			<input>
				<port id="0" precision="FP32">
					<dim>-1</dim>
					<dim>1500</dim>
					<dim>1280</dim>
				</port>
				<port id="1" precision="I64">
					<dim>4</dim>
				</port>
			</input>
			<output>
				<port id="2" precision="FP32" names="183">
					<dim>-1</dim>
					<dim>1500</dim>
					<dim>20</dim>
					<dim>64</dim>
				</port>
			</output>
		</layer>
		<layer id="61" name="__module.layers.0.self_attn/aten::transpose/Constant_1" type="Const" version="opset1">
			<data element_type="i32" shape="4" offset="14762300" size="16" />
			<output>
				<port id="0" precision="I32">
					<dim>4</dim>
				</port>
			</output>
		</layer>
		<layer id="62" name="__module.layers.0.self_attn/aten::transpose/Transpose_1" type="Transpose" version="opset1">
			<input>
				<port id="0" precision="FP32">
					<dim>-1</dim>
					<dim>1500</dim>
					<dim>20</dim>
					<dim>64</dim>
				</port>
				<port id="1" precision="I32">
					<dim>4</dim>
				</port>
			</input>
			<output>
				<port id="2" precision="FP32" names="184">
					<dim>-1</dim>
					<dim>20</dim>
					<dim>1500</dim>
					<dim>64</dim>
				</port>
			</output>
		</layer>
		<layer id="63" name="self.layers.0.self_attn.v_proj.weight" type="Const" version="opset1">
			<data element_type="u8" shape="1280, 1280" offset="16404556" size="1638400" />
			<output>
				<port id="0" precision="U8">
					<dim>1280</dim>
					<dim>1280</dim>
				</port>
			</output>
		</layer>
		<layer id="64" name="Convert_364359" type="Convert" version="opset1">
			<data destination_type="f16" />
			<input>
				<port id="0" precision="U8">
					<dim>1280</dim>
					<dim>1280</dim>
				</port>
			</input>
			<output>
				<port id="1" precision="FP16">
					<dim>1280</dim>
					<dim>1280</dim>
				</port>
			</output>
		</layer>
		<layer id="65" name="self.layers.0.self_attn.v_proj.weight/zero_point" type="Const" version="opset1">
			<data element_type="u8" shape="1280, 1" offset="18042956" size="1280" />
			<output>
				<port id="0" precision="U8">
					<dim>1280</dim>
					<dim>1</dim>
				</port>
			</output>
		</layer>
		<layer id="66" name="Convert_364362" type="Convert" version="opset1">
			<data destination_type="f16" />
			<input>
				<port id="0" precision="U8">
					<dim>1280</dim>
					<dim>1</dim>
				</port>
			</input>
			<output>
				<port id="1" precision="FP16">
					<dim>1280</dim>
					<dim>1</dim>
				</port>
			</output>
		</layer>
		<layer id="67" name="self.layers.0.self_attn.v_proj.weight/zero_point/subtract" type="Subtract" version="opset1">
			<data auto_broadcast="numpy" />
			<input>
				<port id="0" precision="FP16">
					<dim>1280</dim>
					<dim>1280</dim>
				</port>
				<port id="1" precision="FP16">
					<dim>1280</dim>
					<dim>1</dim>
				</port>
			</input>
			<output>
				<port id="2" precision="FP16">
					<dim>1280</dim>
					<dim>1280</dim>
				</port>
			</output>
		</layer>
		<layer id="68" name="self.layers.0.self_attn.v_proj.weight/scale" type="Const" version="opset1">
			<data element_type="f16" shape="1280, 1" offset="18044236" size="2560" />
			<output>
				<port id="0" precision="FP16">
					<dim>1280</dim>
					<dim>1</dim>
				</port>
			</output>
		</layer>
		<layer id="69" name="self.layers.0.self_attn.v_proj.weight/fq_weights_1" type="Multiply" version="opset1">
			<data auto_broadcast="numpy" />
			<input>
				<port id="0" precision="FP16">
					<dim>1280</dim>
					<dim>1280</dim>
				</port>
				<port id="1" precision="FP16">
					<dim>1280</dim>
					<dim>1</dim>
				</port>
			</input>
			<output>
				<port id="2" precision="FP16">
					<dim>1280</dim>
					<dim>1280</dim>
				</port>
			</output>
		</layer>
		<layer id="70" name="self.layers.0.self_attn.v_proj.weight/fq_weights_1/convert" type="Convert" version="opset1">
			<data destination_type="f32" />
			<input>
				<port id="0" precision="FP16">
					<dim>1280</dim>
					<dim>1280</dim>
				</port>
			</input>
			<output>
				<port id="1" precision="FP32">
					<dim>1280</dim>
					<dim>1280</dim>
				</port>
			</output>
		</layer>
		<layer id="71" name="__module.layers.0.self_attn.v_proj/aten::linear/MatMul" type="MatMul" version="opset1">
			<data transpose_a="false" transpose_b="true" />
			<input>
				<port id="0" precision="FP32">
					<dim>-1</dim>
					<dim>1500</dim>
					<dim>1280</dim>
				</port>
				<port id="1" precision="FP32">
					<dim>1280</dim>
					<dim>1280</dim>
				</port>
			</input>
			<output>
				<port id="2" precision="FP32">
					<dim>-1</dim>
					<dim>1500</dim>
					<dim>1280</dim>
				</port>
			</output>
		</layer>
		<layer id="72" name="Constant_19944" type="Const" version="opset1">
			<data element_type="f32" shape="1, 1, 1280" offset="18046796" size="5120" />
			<output>
				<port id="0" precision="FP32">
					<dim>1</dim>
					<dim>1</dim>
					<dim>1280</dim>
				</port>
			</output>
		</layer>
		<layer id="73" name="__module.layers.0.self_attn.v_proj/aten::linear/Add" type="Add" version="opset1">
			<data auto_broadcast="numpy" />
			<input>
				<port id="0" precision="FP32">
					<dim>-1</dim>
					<dim>1500</dim>
					<dim>1280</dim>
				</port>
				<port id="1" precision="FP32">
					<dim>1</dim>
					<dim>1</dim>
					<dim>1280</dim>
				</port>
			</input>
			<output>
				<port id="2" precision="FP32" names="188,tensor.5">
					<dim>-1</dim>
					<dim>1500</dim>
					<dim>1280</dim>
				</port>
			</output>
		</layer>
		<layer id="74" name="Constant_20781" type="Const" version="opset1">
			<data element_type="i64" shape="4" offset="14762268" size="32" />
			<output>
				<port id="0" precision="I64">
					<dim>4</dim>
				</port>
			</output>
		</layer>
		<layer id="75" name="__module.layers.0.self_attn/aten::view/Reshape_2" type="Reshape" version="opset1">
			<data special_zero="true" />
			<input>
				<port id="0" precision="FP32">
					<dim>-1</dim>
					<dim>1500</dim>
					<dim>1280</dim>
				</port>
				<port id="1" precision="I64">
					<dim>4</dim>
				</port>
			</input>
			<output>
				<port id="2" precision="FP32" names="190">
					<dim>-1</dim>
					<dim>1500</dim>
					<dim>20</dim>
					<dim>64</dim>
				</port>
			</output>
		</layer>
		<layer id="76" name="__module.layers.0.self_attn/aten::transpose/Constant_2" type="Const" version="opset1">
			<data element_type="i32" shape="4" offset="14762300" size="16" />
			<output>
				<port id="0" precision="I32">
					<dim>4</dim>
				</port>
			</output>
		</layer>
		<layer id="77" name="__module.layers.0.self_attn/aten::transpose/Transpose_2" type="Transpose" version="opset1">
			<input>
				<port id="0" precision="FP32">
					<dim>-1</dim>
					<dim>1500</dim>
					<dim>20</dim>
					<dim>64</dim>
				</port>
				<port id="1" precision="I32">
					<dim>4</dim>
				</port>
			</input>
			<output>
				<port id="2" precision="FP32" names="191">
					<dim>-1</dim>
					<dim>20</dim>
					<dim>1500</dim>
					<dim>64</dim>
				</port>
			</output>
		</layer>
		<layer id="78" name="__module.layers.0.self_attn/aten::scaled_dot_product_attention/ScaledDotProductAttention" type="ScaledDotProductAttention" version="opset13">
			<data causal="false" />
			<input>
				<port id="0" precision="FP32">
					<dim>-1</dim>
					<dim>20</dim>
					<dim>1500</dim>
					<dim>64</dim>
				</port>
				<port id="1" precision="FP32">
					<dim>-1</dim>
					<dim>20</dim>
					<dim>1500</dim>
					<dim>64</dim>
				</port>
				<port id="2" precision="FP32">
					<dim>-1</dim>
					<dim>20</dim>
					<dim>1500</dim>
					<dim>64</dim>
				</port>
			</input>
			<output>
				<port id="3" precision="FP32" names="193,attn_output.1">
					<dim>-1</dim>
					<dim>20</dim>
					<dim>1500</dim>
					<dim>64</dim>
				</port>
			</output>
		</layer>
		<layer id="79" name="__module.layers.0.self_attn/aten::transpose/Constant_3" type="Const" version="opset1">
			<data element_type="i32" shape="4" offset="14762300" size="16" />
			<output>
				<port id="0" precision="I32">
					<dim>4</dim>
				</port>
			</output>
		</layer>
		<layer id="80" name="__module.layers.0.self_attn/aten::transpose/Transpose_3" type="Transpose" version="opset1">
			<input>
				<port id="0" precision="FP32">
					<dim>-1</dim>
					<dim>20</dim>
					<dim>1500</dim>
					<dim>64</dim>
				</port>
				<port id="1" precision="I32">
					<dim>4</dim>
				</port>
			</input>
			<output>
				<port id="2" precision="FP32" names="194,attn_output.3">
					<dim>-1</dim>
					<dim>1500</dim>
					<dim>20</dim>
					<dim>64</dim>
				</port>
			</output>
		</layer>
		<layer id="81" name="Constant_20782" type="Const" version="opset1">
			<data element_type="i64" shape="3" offset="18051916" size="24" />
			<output>
				<port id="0" precision="I64">
					<dim>3</dim>
				</port>
			</output>
		</layer>
		<layer id="82" name="__module.layers.0.self_attn/aten::reshape/Reshape" type="Reshape" version="opset1">
			<data special_zero="true" />
			<input>
				<port id="0" precision="FP32">
					<dim>-1</dim>
					<dim>1500</dim>
					<dim>20</dim>
					<dim>64</dim>
				</port>
				<port id="1" precision="I64">
					<dim>3</dim>
				</port>
			</input>
			<output>
				<port id="2" precision="FP32" names="196">
					<dim>-1</dim>
					<dim>1500</dim>
					<dim>1280</dim>
				</port>
			</output>
		</layer>
		<layer id="83" name="self.layers.0.self_attn.out_proj.weight" type="Const" version="opset1">
			<data element_type="u8" shape="1280, 1280" offset="18051940" size="1638400" />
			<output>
				<port id="0" precision="U8">
					<dim>1280</dim>
					<dim>1280</dim>
				</port>
			</output>
		</layer>
		<layer id="84" name="Convert_378681" type="Convert" version="opset1">
			<data destination_type="f16" />
			<input>
				<port id="0" precision="U8">
					<dim>1280</dim>
					<dim>1280</dim>
				</port>
			</input>
			<output>
				<port id="1" precision="FP16">
					<dim>1280</dim>
					<dim>1280</dim>
				</port>
			</output>
		</layer>
		<layer id="85" name="self.layers.0.self_attn.out_proj.weight/zero_point" type="Const" version="opset1">
			<data element_type="u8" shape="1280, 1" offset="19690340" size="1280" />
			<output>
				<port id="0" precision="U8">
					<dim>1280</dim>
					<dim>1</dim>
				</port>
			</output>
		</layer>
		<layer id="86" name="Convert_378684" type="Convert" version="opset1">
			<data destination_type="f16" />
			<input>
				<port id="0" precision="U8">
					<dim>1280</dim>
					<dim>1</dim>
				</port>
			</input>
			<output>
				<port id="1" precision="FP16">
					<dim>1280</dim>
					<dim>1</dim>
				</port>
			</output>
		</layer>
		<layer id="87" name="self.layers.0.self_attn.out_proj.weight/zero_point/subtract" type="Subtract" version="opset1">
			<data auto_broadcast="numpy" />
			<input>
				<port id="0" precision="FP16">
					<dim>1280</dim>
					<dim>1280</dim>
				</port>
				<port id="1" precision="FP16">
					<dim>1280</dim>
					<dim>1</dim>
				</port>
			</input>
			<output>
				<port id="2" precision="FP16">
					<dim>1280</dim>
					<dim>1280</dim>
				</port>
			</output>
		</layer>
		<layer id="88" name="self.layers.0.self_attn.out_proj.weight/scale" type="Const" version="opset1">
			<data element_type="f16" shape="1280, 1" offset="19691620" size="2560" />
			<output>
				<port id="0" precision="FP16">
					<dim>1280</dim>
					<dim>1</dim>
				</port>
			</output>
		</layer>
		<layer id="89" name="self.layers.0.self_attn.out_proj.weight/fq_weights_1" type="Multiply" version="opset1">
			<data auto_broadcast="numpy" />
			<input>
				<port id="0" precision="FP16">
					<dim>1280</dim>
					<dim>1280</dim>
				</port>
				<port id="1" precision="FP16">
					<dim>1280</dim>
					<dim>1</dim>
				</port>
			</input>
			<output>
				<port id="2" precision="FP16">
					<dim>1280</dim>
					<dim>1280</dim>
				</port>
			</output>
		</layer>
		<layer id="90" name="self.layers.0.self_attn.out_proj.weight/fq_weights_1/convert" type="Convert" version="opset1">
			<data destination_type="f32" />
			<input>
				<port id="0" precision="FP16">
					<dim>1280</dim>
					<dim>1280</dim>
				</port>
			</input>
			<output>
				<port id="1" precision="FP32">
					<dim>1280</dim>
					<dim>1280</dim>
				</port>
			</output>
		</layer>
		<layer id="91" name="__module.layers.0.self_attn.out_proj/aten::linear/MatMul" type="MatMul" version="opset1">
			<data transpose_a="false" transpose_b="true" />
			<input>
				<port id="0" precision="FP32">
					<dim>-1</dim>
					<dim>1500</dim>
					<dim>1280</dim>
				</port>
				<port id="1" precision="FP32">
					<dim>1280</dim>
					<dim>1280</dim>
				</port>
			</input>
			<output>
				<port id="2" precision="FP32">
					<dim>-1</dim>
					<dim>1500</dim>
					<dim>1280</dim>
				</port>
			</output>
		</layer>
		<layer id="92" name="Constant_19945" type="Const" version="opset1">
			<data element_type="f32" shape="1, 1, 1280" offset="19694180" size="5120" />
			<output>
				<port id="0" precision="FP32">
					<dim>1</dim>
					<dim>1</dim>
					<dim>1280</dim>
				</port>
			</output>
		</layer>
		<layer id="93" name="__module.layers.0.self_attn.out_proj/aten::linear/Add" type="Add" version="opset1">
			<data auto_broadcast="numpy" />
			<input>
				<port id="0" precision="FP32">
					<dim>-1</dim>
					<dim>1500</dim>
					<dim>1280</dim>
				</port>
				<port id="1" precision="FP32">
					<dim>1</dim>
					<dim>1</dim>
					<dim>1280</dim>
				</port>
			</input>
			<output>
				<port id="2" precision="FP32" names="199,input.3">
					<dim>-1</dim>
					<dim>1500</dim>
					<dim>1280</dim>
				</port>
			</output>
		</layer>
		<layer id="94" name="__module.layers.0/aten::add/Add" type="Add" version="opset1">
			<data auto_broadcast="numpy" />
			<input>
				<port id="0" precision="FP32">
					<dim>-1</dim>
					<dim>1500</dim>
					<dim>1280</dim>
				</port>
				<port id="1" precision="FP32">
					<dim>-1</dim>
					<dim>1500</dim>
					<dim>1280</dim>
				</port>
			</input>
			<output>
				<port id="2" precision="FP32" names="201,residual.3">
					<dim>-1</dim>
					<dim>1500</dim>
					<dim>1280</dim>
				</port>
			</output>
		</layer>
		<layer id="95" name="__module.layers.0.final_layer_norm/aten::layer_norm/Multiply" type="Const" version="opset1">
			<data element_type="i32" shape="1" offset="13104664" size="4" />
			<output>
				<port id="0" precision="I32">
					<dim>1</dim>
				</port>
			</output>
		</layer>
		<layer id="96" name="__module.layers.0.final_layer_norm/aten::layer_norm/MVN" type="MVN" version="opset6">
			<data eps="9.9999997473787516e-06" normalize_variance="true" eps_mode="INSIDE_SQRT" />
			<input>
				<port id="0" precision="FP32">
					<dim>-1</dim>
					<dim>1500</dim>
					<dim>1280</dim>
				</port>
				<port id="1" precision="I32">
					<dim>1</dim>
				</port>
			</input>
			<output>
				<port id="2" precision="FP32">
					<dim>-1</dim>
					<dim>1500</dim>
					<dim>1280</dim>
				</port>
			</output>
		</layer>
		<layer id="97" name="Constant_19946" type="Const" version="opset1">
			<data element_type="f32" shape="1, 1, 1280" offset="19699300" size="5120" />
			<output>
				<port id="0" precision="FP32">
					<dim>1</dim>
					<dim>1</dim>
					<dim>1280</dim>
				</port>
			</output>
		</layer>
		<layer id="98" name="__module.layers.0.final_layer_norm/aten::layer_norm/Multiply_1" type="Multiply" version="opset1">
			<data auto_broadcast="numpy" />
			<input>
				<port id="0" precision="FP32">
					<dim>-1</dim>
					<dim>1500</dim>
					<dim>1280</dim>
				</port>
				<port id="1" precision="FP32">
					<dim>1</dim>
					<dim>1</dim>
					<dim>1280</dim>
				</port>
			</input>
			<output>
				<port id="2" precision="FP32">
					<dim>-1</dim>
					<dim>1500</dim>
					<dim>1280</dim>
				</port>
			</output>
		</layer>
		<layer id="99" name="Constant_19947" type="Const" version="opset1">
			<data element_type="f32" shape="1, 1, 1280" offset="19704420" size="5120" />
			<output>
				<port id="0" precision="FP32">
					<dim>1</dim>
					<dim>1</dim>
					<dim>1280</dim>
				</port>
			</output>
		</layer>
		<layer id="100" name="__module.layers.0.final_layer_norm/aten::layer_norm/Add" type="Add" version="opset1">
			<data auto_broadcast="numpy" />
			<input>
				<port id="0" precision="FP32">
					<dim>-1</dim>
					<dim>1500</dim>
					<dim>1280</dim>
				</port>
				<port id="1" precision="FP32">
					<dim>1</dim>
					<dim>1</dim>
					<dim>1280</dim>
				</port>
			</input>
			<output>
				<port id="2" precision="FP32" names="205">
					<dim>-1</dim>
					<dim>1500</dim>
					<dim>1280</dim>
				</port>
			</output>
		</layer>
		<layer id="101" name="self.layers.0.fc1.weight" type="Const" version="opset1">
			<data element_type="u8" shape="5120, 1280" offset="19709540" size="6553600" />
			<output>
				<port id="0" precision="U8">
					<dim>5120</dim>
					<dim>1280</dim>
				</port>
			</output>
		</layer>
		<layer id="102" name="Convert_54037" type="Convert" version="opset1">
			<data destination_type="f16" />
			<input>
				<port id="0" precision="U8">
					<dim>5120</dim>
					<dim>1280</dim>
				</port>
			</input>
			<output>
				<port id="1" precision="FP16">
					<dim>5120</dim>
					<dim>1280</dim>
				</port>
			</output>
		</layer>
		<layer id="103" name="self.layers.0.fc1.weight/zero_point" type="Const" version="opset1">
			<data element_type="u8" shape="5120, 1" offset="26263140" size="5120" />
			<output>
				<port id="0" precision="U8">
					<dim>5120</dim>
					<dim>1</dim>
				</port>
			</output>
		</layer>
		<layer id="104" name="Convert_54040" type="Convert" version="opset1">
			<data destination_type="f16" />
			<input>
				<port id="0" precision="U8">
					<dim>5120</dim>
					<dim>1</dim>
				</port>
			</input>
			<output>
				<port id="1" precision="FP16">
					<dim>5120</dim>
					<dim>1</dim>
				</port>
			</output>
		</layer>
		<layer id="105" name="self.layers.0.fc1.weight/zero_point/subtract" type="Subtract" version="opset1">
			<data auto_broadcast="numpy" />
			<input>
				<port id="0" precision="FP16">
					<dim>5120</dim>
					<dim>1280</dim>
				</port>
				<port id="1" precision="FP16">
					<dim>5120</dim>
					<dim>1</dim>
				</port>
			</input>
			<output>
				<port id="2" precision="FP16">
					<dim>5120</dim>
					<dim>1280</dim>
				</port>
			</output>
		</layer>
		<layer id="106" name="self.layers.0.fc1.weight/scale" type="Const" version="opset1">
			<data element_type="f16" shape="5120, 1" offset="26268260" size="10240" />
			<output>
				<port id="0" precision="FP16">
					<dim>5120</dim>
					<dim>1</dim>
				</port>
			</output>
		</layer>
		<layer id="107" name="self.layers.0.fc1.weight/fq_weights_1" type="Multiply" version="opset1">
			<data auto_broadcast="numpy" />
			<input>
				<port id="0" precision="FP16">
					<dim>5120</dim>
					<dim>1280</dim>
				</port>
				<port id="1" precision="FP16">
					<dim>5120</dim>
					<dim>1</dim>
				</port>
			</input>
			<output>
				<port id="2" precision="FP16">
					<dim>5120</dim>
					<dim>1280</dim>
				</port>
			</output>
		</layer>
		<layer id="108" name="self.layers.0.fc1.weight/fq_weights_1/convert" type="Convert" version="opset1">
			<data destination_type="f32" />
			<input>
				<port id="0" precision="FP16">
					<dim>5120</dim>
					<dim>1280</dim>
				</port>
			</input>
			<output>
				<port id="1" precision="FP32">
					<dim>5120</dim>
					<dim>1280</dim>
				</port>
			</output>
		</layer>
		<layer id="109" name="__module.layers.0.fc1/aten::linear/MatMul" type="MatMul" version="opset1">
			<data transpose_a="false" transpose_b="true" />
			<input>
				<port id="0" precision="FP32">
					<dim>-1</dim>
					<dim>1500</dim>
					<dim>1280</dim>
				</port>
				<port id="1" precision="FP32">
					<dim>5120</dim>
					<dim>1280</dim>
				</port>
			</input>
			<output>
				<port id="2" precision="FP32">
					<dim>-1</dim>
					<dim>1500</dim>
					<dim>5120</dim>
				</port>
			</output>
		</layer>
		<layer id="110" name="Constant_19948" type="Const" version="opset1">
			<data element_type="f32" shape="1, 1, 5120" offset="26278500" size="20480" />
			<output>
				<port id="0" precision="FP32">
					<dim>1</dim>
					<dim>1</dim>
					<dim>5120</dim>
				</port>
			</output>
		</layer>
		<layer id="111" name="__module.layers.0.fc1/aten::linear/Add" type="Add" version="opset1">
			<data auto_broadcast="numpy" />
			<input>
				<port id="0" precision="FP32">
					<dim>-1</dim>
					<dim>1500</dim>
					<dim>5120</dim>
				</port>
				<port id="1" precision="FP32">
					<dim>1</dim>
					<dim>1</dim>
					<dim>5120</dim>
				</port>
			</input>
			<output>
				<port id="2" precision="FP32" names="208">
					<dim>-1</dim>
					<dim>1500</dim>
					<dim>5120</dim>
				</port>
			</output>
		</layer>
		<layer id="112" name="__module.layers.0.activation_fn/aten::gelu/Gelu" type="Gelu" version="opset7">
			<data approximation_mode="ERF" />
			<input>
				<port id="0" precision="FP32">
					<dim>-1</dim>
					<dim>1500</dim>
					<dim>5120</dim>
				</port>
			</input>
			<output>
				<port id="1" precision="FP32" names="209,input.5">
					<dim>-1</dim>
					<dim>1500</dim>
					<dim>5120</dim>
				</port>
			</output>
		</layer>
		<layer id="113" name="self.layers.0.fc2.weight" type="Const" version="opset1">
			<data element_type="u8" shape="1280, 5120" offset="26298980" size="6553600" />
			<output>
				<port id="0" precision="U8">
					<dim>1280</dim>
					<dim>5120</dim>
				</port>
			</output>
		</layer>
		<layer id="114" name="Convert_58811" type="Convert" version="opset1">
			<data destination_type="f16" />
			<input>
				<port id="0" precision="U8">
					<dim>1280</dim>
					<dim>5120</dim>
				</port>
			</input>
			<output>
				<port id="1" precision="FP16">
					<dim>1280</dim>
					<dim>5120</dim>
				</port>
			</output>
		</layer>
		<layer id="115" name="self.layers.0.fc2.weight/zero_point" type="Const" version="opset1">
			<data element_type="u8" shape="1280, 1" offset="32852580" size="1280" />
			<output>
				<port id="0" precision="U8">
					<dim>1280</dim>
					<dim>1</dim>
				</port>
			</output>
		</layer>
		<layer id="116" name="Convert_58814" type="Convert" version="opset1">
			<data destination_type="f16" />
			<input>
				<port id="0" precision="U8">
					<dim>1280</dim>
					<dim>1</dim>
				</port>
			</input>
			<output>
				<port id="1" precision="FP16">
					<dim>1280</dim>
					<dim>1</dim>
				</port>
			</output>
		</layer>
		<layer id="117" name="self.layers.0.fc2.weight/zero_point/subtract" type="Subtract" version="opset1">
			<data auto_broadcast="numpy" />
			<input>
				<port id="0" precision="FP16">
					<dim>1280</dim>
					<dim>5120</dim>
				</port>
				<port id="1" precision="FP16">
					<dim>1280</dim>
					<dim>1</dim>
				</port>
			</input>
			<output>
				<port id="2" precision="FP16">
					<dim>1280</dim>
					<dim>5120</dim>
				</port>
			</output>
		</layer>
		<layer id="118" name="self.layers.0.fc2.weight/scale" type="Const" version="opset1">
			<data element_type="f16" shape="1280, 1" offset="32853860" size="2560" />
			<output>
				<port id="0" precision="FP16">
					<dim>1280</dim>
					<dim>1</dim>
				</port>
			</output>
		</layer>
		<layer id="119" name="self.layers.0.fc2.weight/fq_weights_1" type="Multiply" version="opset1">
			<data auto_broadcast="numpy" />
			<input>
				<port id="0" precision="FP16">
					<dim>1280</dim>
					<dim>5120</dim>
				</port>
				<port id="1" precision="FP16">
					<dim>1280</dim>
					<dim>1</dim>
				</port>
			</input>
			<output>
				<port id="2" precision="FP16">
					<dim>1280</dim>
					<dim>5120</dim>
				</port>
			</output>
		</layer>
		<layer id="120" name="self.layers.0.fc2.weight/fq_weights_1/convert" type="Convert" version="opset1">
			<data destination_type="f32" />
			<input>
				<port id="0" precision="FP16">
					<dim>1280</dim>
					<dim>5120</dim>
				</port>
			</input>
			<output>
				<port id="1" precision="FP32">
					<dim>1280</dim>
					<dim>5120</dim>
				</port>
			</output>
		</layer>
		<layer id="121" name="__module.layers.0.fc2/aten::linear/MatMul" type="MatMul" version="opset1">
			<data transpose_a="false" transpose_b="true" />
			<input>
				<port id="0" precision="FP32">
					<dim>-1</dim>
					<dim>1500</dim>
					<dim>5120</dim>
				</port>
				<port id="1" precision="FP32">
					<dim>1280</dim>
					<dim>5120</dim>
				</port>
			</input>
			<output>
				<port id="2" precision="FP32">
					<dim>-1</dim>
					<dim>1500</dim>
					<dim>1280</dim>
				</port>
			</output>
		</layer>
		<layer id="122" name="Constant_19949" type="Const" version="opset1">
			<data element_type="f32" shape="1, 1, 1280" offset="32856420" size="5120" />
			<output>
				<port id="0" precision="FP32">
					<dim>1</dim>
					<dim>1</dim>
					<dim>1280</dim>
				</port>
			</output>
		</layer>
		<layer id="123" name="__module.layers.0.fc2/aten::linear/Add" type="Add" version="opset1">
			<data auto_broadcast="numpy" />
			<input>
				<port id="0" precision="FP32">
					<dim>-1</dim>
					<dim>1500</dim>
					<dim>1280</dim>
				</port>
				<port id="1" precision="FP32">
					<dim>1</dim>
					<dim>1</dim>
					<dim>1280</dim>
				</port>
			</input>
			<output>
				<port id="2" precision="FP32" names="213,input.7">
					<dim>-1</dim>
					<dim>1500</dim>
					<dim>1280</dim>
				</port>
			</output>
		</layer>
		<layer id="124" name="__module.layers.0/aten::add/Add_1" type="Add" version="opset1">
			<data auto_broadcast="numpy" />
			<input>
				<port id="0" precision="FP32">
					<dim>-1</dim>
					<dim>1500</dim>
					<dim>1280</dim>
				</port>
				<port id="1" precision="FP32">
					<dim>-1</dim>
					<dim>1500</dim>
					<dim>1280</dim>
				</port>
			</input>
			<output>
				<port id="2" precision="FP32" names="215,residual.5">
					<dim>-1</dim>
					<dim>1500</dim>
					<dim>1280</dim>
				</port>
			</output>
		</layer>
		<layer id="125" name="__module.layers.1.self_attn_layer_norm/aten::layer_norm/Multiply" type="Const" version="opset1">
			<data element_type="i32" shape="1" offset="13104664" size="4" />
			<output>
				<port id="0" precision="I32">
					<dim>1</dim>
				</port>
			</output>
		</layer>
		<layer id="126" name="__module.layers.1.self_attn_layer_norm/aten::layer_norm/MVN" type="MVN" version="opset6">
			<data eps="9.9999997473787516e-06" normalize_variance="true" eps_mode="INSIDE_SQRT" />
			<input>
				<port id="0" precision="FP32">
					<dim>-1</dim>
					<dim>1500</dim>
					<dim>1280</dim>
				</port>
				<port id="1" precision="I32">
					<dim>1</dim>
				</port>
			</input>
			<output>
				<port id="2" precision="FP32">
					<dim>-1</dim>
					<dim>1500</dim>
					<dim>1280</dim>
				</port>
			</output>
		</layer>
		<layer id="127" name="Constant_19950" type="Const" version="opset1">
			<data element_type="f32" shape="1, 1, 1280" offset="32861540" size="5120" />
			<output>
				<port id="0" precision="FP32">
					<dim>1</dim>
					<dim>1</dim>
					<dim>1280</dim>
				</port>
			</output>
		</layer>
		<layer id="128" name="__module.layers.1.self_attn_layer_norm/aten::layer_norm/Multiply_1" type="Multiply" version="opset1">
			<data auto_broadcast="numpy" />
			<input>
				<port id="0" precision="FP32">
					<dim>-1</dim>
					<dim>1500</dim>
					<dim>1280</dim>
				</port>
				<port id="1" precision="FP32">
					<dim>1</dim>
					<dim>1</dim>
					<dim>1280</dim>
				</port>
			</input>
			<output>
				<port id="2" precision="FP32">
					<dim>-1</dim>
					<dim>1500</dim>
					<dim>1280</dim>
				</port>
			</output>
		</layer>
		<layer id="129" name="Constant_19951" type="Const" version="opset1">
			<data element_type="f32" shape="1, 1, 1280" offset="32866660" size="5120" />
			<output>
				<port id="0" precision="FP32">
					<dim>1</dim>
					<dim>1</dim>
					<dim>1280</dim>
				</port>
			</output>
		</layer>
		<layer id="130" name="__module.layers.1.self_attn_layer_norm/aten::layer_norm/Add" type="Add" version="opset1">
			<data auto_broadcast="numpy" />
			<input>
				<port id="0" precision="FP32">
					<dim>-1</dim>
					<dim>1500</dim>
					<dim>1280</dim>
				</port>
				<port id="1" precision="FP32">
					<dim>1</dim>
					<dim>1</dim>
					<dim>1280</dim>
				</port>
			</input>
			<output>
				<port id="2" precision="FP32" names="238,hidden_states.7">
					<dim>-1</dim>
					<dim>1500</dim>
					<dim>1280</dim>
				</port>
			</output>
		</layer>
		<layer id="131" name="self.layers.1.self_attn.q_proj.weight" type="Const" version="opset1">
			<data element_type="u8" shape="1280, 1280" offset="32871780" size="1638400" />
			<output>
				<port id="0" precision="U8">
					<dim>1280</dim>
					<dim>1280</dim>
				</port>
			</output>
		</layer>
		<layer id="132" name="Convert_393003" type="Convert" version="opset1">
			<data destination_type="f16" />
			<input>
				<port id="0" precision="U8">
					<dim>1280</dim>
					<dim>1280</dim>
				</port>
			</input>
			<output>
				<port id="1" precision="FP16">
					<dim>1280</dim>
					<dim>1280</dim>
				</port>
			</output>
		</layer>
		<layer id="133" name="self.layers.1.self_attn.q_proj.weight/zero_point" type="Const" version="opset1">
			<data element_type="u8" shape="1280, 1" offset="34510180" size="1280" />
			<output>
				<port id="0" precision="U8">
					<dim>1280</dim>
					<dim>1</dim>
				</port>
			</output>
		</layer>
		<layer id="134" name="Convert_393006" type="Convert" version="opset1">
			<data destination_type="f16" />
			<input>
				<port id="0" precision="U8">
					<dim>1280</dim>
					<dim>1</dim>
				</port>
			</input>
			<output>
				<port id="1" precision="FP16">
					<dim>1280</dim>
					<dim>1</dim>
				</port>
			</output>
		</layer>
		<layer id="135" name="self.layers.1.self_attn.q_proj.weight/zero_point/subtract" type="Subtract" version="opset1">
			<data auto_broadcast="numpy" />
			<input>
				<port id="0" precision="FP16">
					<dim>1280</dim>
					<dim>1280</dim>
				</port>
				<port id="1" precision="FP16">
					<dim>1280</dim>
					<dim>1</dim>
				</port>
			</input>
			<output>
				<port id="2" precision="FP16">
					<dim>1280</dim>
					<dim>1280</dim>
				</port>
			</output>
		</layer>
		<layer id="136" name="self.layers.1.self_attn.q_proj.weight/scale" type="Const" version="opset1">
			<data element_type="f16" shape="1280, 1" offset="34511460" size="2560" />
			<output>
				<port id="0" precision="FP16">
					<dim>1280</dim>
					<dim>1</dim>
				</port>
			</output>
		</layer>
		<layer id="137" name="self.layers.1.self_attn.q_proj.weight/fq_weights_1" type="Multiply" version="opset1">
			<data auto_broadcast="numpy" />
			<input>
				<port id="0" precision="FP16">
					<dim>1280</dim>
					<dim>1280</dim>
				</port>
				<port id="1" precision="FP16">
					<dim>1280</dim>
					<dim>1</dim>
				</port>
			</input>
			<output>
				<port id="2" precision="FP16">
					<dim>1280</dim>
					<dim>1280</dim>
				</port>
			</output>
		</layer>
		<layer id="138" name="self.layers.1.self_attn.q_proj.weight/fq_weights_1/convert" type="Convert" version="opset1">
			<data destination_type="f32" />
			<input>
				<port id="0" precision="FP16">
					<dim>1280</dim>
					<dim>1280</dim>
				</port>
			</input>
			<output>
				<port id="1" precision="FP32">
					<dim>1280</dim>
					<dim>1280</dim>
				</port>
			</output>
		</layer>
		<layer id="139" name="__module.layers.1.self_attn.q_proj/aten::linear/MatMul" type="MatMul" version="opset1">
			<data transpose_a="false" transpose_b="true" />
			<input>
				<port id="0" precision="FP32">
					<dim>-1</dim>
					<dim>1500</dim>
					<dim>1280</dim>
				</port>
				<port id="1" precision="FP32">
					<dim>1280</dim>
					<dim>1280</dim>
				</port>
			</input>
			<output>
				<port id="2" precision="FP32">
					<dim>-1</dim>
					<dim>1500</dim>
					<dim>1280</dim>
				</port>
			</output>
		</layer>
		<layer id="140" name="Constant_19952" type="Const" version="opset1">
			<data element_type="f32" shape="1, 1, 1280" offset="34514020" size="5120" />
			<output>
				<port id="0" precision="FP32">
					<dim>1</dim>
					<dim>1</dim>
					<dim>1280</dim>
				</port>
			</output>
		</layer>
		<layer id="141" name="__module.layers.1.self_attn.q_proj/aten::linear/Add" type="Add" version="opset1">
			<data auto_broadcast="numpy" />
			<input>
				<port id="0" precision="FP32">
					<dim>-1</dim>
					<dim>1500</dim>
					<dim>1280</dim>
				</port>
				<port id="1" precision="FP32">
					<dim>1</dim>
					<dim>1</dim>
					<dim>1280</dim>
				</port>
			</input>
			<output>
				<port id="2" precision="FP32" names="247,tensor.7">
					<dim>-1</dim>
					<dim>1500</dim>
					<dim>1280</dim>
				</port>
			</output>
		</layer>
		<layer id="142" name="Constant_20783" type="Const" version="opset1">
			<data element_type="i64" shape="4" offset="14762268" size="32" />
			<output>
				<port id="0" precision="I64">
					<dim>4</dim>
				</port>
			</output>
		</layer>
		<layer id="143" name="__module.layers.1.self_attn/aten::view/Reshape" type="Reshape" version="opset1">
			<data special_zero="true" />
			<input>
				<port id="0" precision="FP32">
					<dim>-1</dim>
					<dim>1500</dim>
					<dim>1280</dim>
				</port>
				<port id="1" precision="I64">
					<dim>4</dim>
				</port>
			</input>
			<output>
				<port id="2" precision="FP32" names="249">
					<dim>-1</dim>
					<dim>1500</dim>
					<dim>20</dim>
					<dim>64</dim>
				</port>
			</output>
		</layer>
		<layer id="144" name="__module.layers.1.self_attn/aten::transpose/Constant" type="Const" version="opset1">
			<data element_type="i32" shape="4" offset="14762300" size="16" />
			<output>
				<port id="0" precision="I32">
					<dim>4</dim>
				</port>
			</output>
		</layer>
		<layer id="145" name="__module.layers.1.self_attn/aten::transpose/Transpose" type="Transpose" version="opset1">
			<input>
				<port id="0" precision="FP32">
					<dim>-1</dim>
					<dim>1500</dim>
					<dim>20</dim>
					<dim>64</dim>
				</port>
				<port id="1" precision="I32">
					<dim>4</dim>
				</port>
			</input>
			<output>
				<port id="2" precision="FP32" names="250">
					<dim>-1</dim>
					<dim>20</dim>
					<dim>1500</dim>
					<dim>64</dim>
				</port>
			</output>
		</layer>
		<layer id="146" name="self.layers.1.self_attn.k_proj.weight" type="Const" version="opset1">
			<data element_type="u8" shape="1280, 1280" offset="34519140" size="1638400" />
			<output>
				<port id="0" precision="U8">
					<dim>1280</dim>
					<dim>1280</dim>
				</port>
			</output>
		</layer>
		<layer id="147" name="Convert_388229" type="Convert" version="opset1">
			<data destination_type="f16" />
			<input>
				<port id="0" precision="U8">
					<dim>1280</dim>
					<dim>1280</dim>
				</port>
			</input>
			<output>
				<port id="1" precision="FP16">
					<dim>1280</dim>
					<dim>1280</dim>
				</port>
			</output>
		</layer>
		<layer id="148" name="self.layers.1.self_attn.k_proj.weight/zero_point" type="Const" version="opset1">
			<data element_type="u8" shape="1280, 1" offset="36157540" size="1280" />
			<output>
				<port id="0" precision="U8">
					<dim>1280</dim>
					<dim>1</dim>
				</port>
			</output>
		</layer>
		<layer id="149" name="Convert_388232" type="Convert" version="opset1">
			<data destination_type="f16" />
			<input>
				<port id="0" precision="U8">
					<dim>1280</dim>
					<dim>1</dim>
				</port>
			</input>
			<output>
				<port id="1" precision="FP16">
					<dim>1280</dim>
					<dim>1</dim>
				</port>
			</output>
		</layer>
		<layer id="150" name="self.layers.1.self_attn.k_proj.weight/zero_point/subtract" type="Subtract" version="opset1">
			<data auto_broadcast="numpy" />
			<input>
				<port id="0" precision="FP16">
					<dim>1280</dim>
					<dim>1280</dim>
				</port>
				<port id="1" precision="FP16">
					<dim>1280</dim>
					<dim>1</dim>
				</port>
			</input>
			<output>
				<port id="2" precision="FP16">
					<dim>1280</dim>
					<dim>1280</dim>
				</port>
			</output>
		</layer>
		<layer id="151" name="self.layers.1.self_attn.k_proj.weight/scale" type="Const" version="opset1">
			<data element_type="f16" shape="1280, 1" offset="36158820" size="2560" />
			<output>
				<port id="0" precision="FP16">
					<dim>1280</dim>
					<dim>1</dim>
				</port>
			</output>
		</layer>
		<layer id="152" name="self.layers.1.self_attn.k_proj.weight/fq_weights_1" type="Multiply" version="opset1">
			<data auto_broadcast="numpy" />
			<input>
				<port id="0" precision="FP16">
					<dim>1280</dim>
					<dim>1280</dim>
				</port>
				<port id="1" precision="FP16">
					<dim>1280</dim>
					<dim>1</dim>
				</port>
			</input>
			<output>
				<port id="2" precision="FP16">
					<dim>1280</dim>
					<dim>1280</dim>
				</port>
			</output>
		</layer>
		<layer id="153" name="self.layers.1.self_attn.k_proj.weight/fq_weights_1/convert" type="Convert" version="opset1">
			<data destination_type="f32" />
			<input>
				<port id="0" precision="FP16">
					<dim>1280</dim>
					<dim>1280</dim>
				</port>
			</input>
			<output>
				<port id="1" precision="FP32">
					<dim>1280</dim>
					<dim>1280</dim>
				</port>
			</output>
		</layer>
		<layer id="154" name="__module.layers.1.self_attn.k_proj/aten::linear/MatMul" type="MatMul" version="opset1">
			<data transpose_a="false" transpose_b="true" />
			<input>
				<port id="0" precision="FP32">
					<dim>-1</dim>
					<dim>1500</dim>
					<dim>1280</dim>
				</port>
				<port id="1" precision="FP32">
					<dim>1280</dim>
					<dim>1280</dim>
				</port>
			</input>
			<output>
				<port id="2" precision="FP32" names="253,tensor.9">
					<dim>-1</dim>
					<dim>1500</dim>
					<dim>1280</dim>
				</port>
			</output>
		</layer>
		<layer id="155" name="Constant_20784" type="Const" version="opset1">
			<data element_type="i64" shape="4" offset="14762268" size="32" />
			<output>
				<port id="0" precision="I64">
					<dim>4</dim>
				</port>
			</output>
		</layer>
		<layer id="156" name="__module.layers.1.self_attn/aten::view/Reshape_1" type="Reshape" version="opset1">
			<data special_zero="true" />
			<input>
				<port id="0" precision="FP32">
					<dim>-1</dim>
					<dim>1500</dim>
					<dim>1280</dim>
				</port>
				<port id="1" precision="I64">
					<dim>4</dim>
				</port>
			</input>
			<output>
				<port id="2" precision="FP32" names="255">
					<dim>-1</dim>
					<dim>1500</dim>
					<dim>20</dim>
					<dim>64</dim>
				</port>
			</output>
		</layer>
		<layer id="157" name="__module.layers.1.self_attn/aten::transpose/Constant_1" type="Const" version="opset1">
			<data element_type="i32" shape="4" offset="14762300" size="16" />
			<output>
				<port id="0" precision="I32">
					<dim>4</dim>
				</port>
			</output>
		</layer>
		<layer id="158" name="__module.layers.1.self_attn/aten::transpose/Transpose_1" type="Transpose" version="opset1">
			<input>
				<port id="0" precision="FP32">
					<dim>-1</dim>
					<dim>1500</dim>
					<dim>20</dim>
					<dim>64</dim>
				</port>
				<port id="1" precision="I32">
					<dim>4</dim>
				</port>
			</input>
			<output>
				<port id="2" precision="FP32" names="256">
					<dim>-1</dim>
					<dim>20</dim>
					<dim>1500</dim>
					<dim>64</dim>
				</port>
			</output>
		</layer>
		<layer id="159" name="self.layers.1.self_attn.v_proj.weight" type="Const" version="opset1">
			<data element_type="u8" shape="1280, 1280" offset="36161380" size="1638400" />
			<output>
				<port id="0" precision="U8">
					<dim>1280</dim>
					<dim>1280</dim>
				</port>
			</output>
		</layer>
		<layer id="160" name="Convert_383455" type="Convert" version="opset1">
			<data destination_type="f16" />
			<input>
				<port id="0" precision="U8">
					<dim>1280</dim>
					<dim>1280</dim>
				</port>
			</input>
			<output>
				<port id="1" precision="FP16">
					<dim>1280</dim>
					<dim>1280</dim>
				</port>
			</output>
		</layer>
		<layer id="161" name="self.layers.1.self_attn.v_proj.weight/zero_point" type="Const" version="opset1">
			<data element_type="u8" shape="1280, 1" offset="37799780" size="1280" />
			<output>
				<port id="0" precision="U8">
					<dim>1280</dim>
					<dim>1</dim>
				</port>
			</output>
		</layer>
		<layer id="162" name="Convert_383458" type="Convert" version="opset1">
			<data destination_type="f16" />
			<input>
				<port id="0" precision="U8">
					<dim>1280</dim>
					<dim>1</dim>
				</port>
			</input>
			<output>
				<port id="1" precision="FP16">
					<dim>1280</dim>
					<dim>1</dim>
				</port>
			</output>
		</layer>
		<layer id="163" name="self.layers.1.self_attn.v_proj.weight/zero_point/subtract" type="Subtract" version="opset1">
			<data auto_broadcast="numpy" />
			<input>
				<port id="0" precision="FP16">
					<dim>1280</dim>
					<dim>1280</dim>
				</port>
				<port id="1" precision="FP16">
					<dim>1280</dim>
					<dim>1</dim>
				</port>
			</input>
			<output>
				<port id="2" precision="FP16">
					<dim>1280</dim>
					<dim>1280</dim>
				</port>
			</output>
		</layer>
		<layer id="164" name="self.layers.1.self_attn.v_proj.weight/scale" type="Const" version="opset1">
			<data element_type="f16" shape="1280, 1" offset="37801060" size="2560" />
			<output>
				<port id="0" precision="FP16">
					<dim>1280</dim>
					<dim>1</dim>
				</port>
			</output>
		</layer>
		<layer id="165" name="self.layers.1.self_attn.v_proj.weight/fq_weights_1" type="Multiply" version="opset1">
			<data auto_broadcast="numpy" />
			<input>
				<port id="0" precision="FP16">
					<dim>1280</dim>
					<dim>1280</dim>
				</port>
				<port id="1" precision="FP16">
					<dim>1280</dim>
					<dim>1</dim>
				</port>
			</input>
			<output>
				<port id="2" precision="FP16">
					<dim>1280</dim>
					<dim>1280</dim>
				</port>
			</output>
		</layer>
		<layer id="166" name="self.layers.1.self_attn.v_proj.weight/fq_weights_1/convert" type="Convert" version="opset1">
			<data destination_type="f32" />
			<input>
				<port id="0" precision="FP16">
					<dim>1280</dim>
					<dim>1280</dim>
				</port>
			</input>
			<output>
				<port id="1" precision="FP32">
					<dim>1280</dim>
					<dim>1280</dim>
				</port>
			</output>
		</layer>
		<layer id="167" name="__module.layers.1.self_attn.v_proj/aten::linear/MatMul" type="MatMul" version="opset1">
			<data transpose_a="false" transpose_b="true" />
			<input>
				<port id="0" precision="FP32">
					<dim>-1</dim>
					<dim>1500</dim>
					<dim>1280</dim>
				</port>
				<port id="1" precision="FP32">
					<dim>1280</dim>
					<dim>1280</dim>
				</port>
			</input>
			<output>
				<port id="2" precision="FP32">
					<dim>-1</dim>
					<dim>1500</dim>
					<dim>1280</dim>
				</port>
			</output>
		</layer>
		<layer id="168" name="Constant_19953" type="Const" version="opset1">
			<data element_type="f32" shape="1, 1, 1280" offset="37803620" size="5120" />
			<output>
				<port id="0" precision="FP32">
					<dim>1</dim>
					<dim>1</dim>
					<dim>1280</dim>
				</port>
			</output>
		</layer>
		<layer id="169" name="__module.layers.1.self_attn.v_proj/aten::linear/Add" type="Add" version="opset1">
			<data auto_broadcast="numpy" />
			<input>
				<port id="0" precision="FP32">
					<dim>-1</dim>
					<dim>1500</dim>
					<dim>1280</dim>
				</port>
				<port id="1" precision="FP32">
					<dim>1</dim>
					<dim>1</dim>
					<dim>1280</dim>
				</port>
			</input>
			<output>
				<port id="2" precision="FP32" names="260,tensor.11">
					<dim>-1</dim>
					<dim>1500</dim>
					<dim>1280</dim>
				</port>
			</output>
		</layer>
		<layer id="170" name="Constant_20785" type="Const" version="opset1">
			<data element_type="i64" shape="4" offset="14762268" size="32" />
			<output>
				<port id="0" precision="I64">
					<dim>4</dim>
				</port>
			</output>
		</layer>
		<layer id="171" name="__module.layers.1.self_attn/aten::view/Reshape_2" type="Reshape" version="opset1">
			<data special_zero="true" />
			<input>
				<port id="0" precision="FP32">
					<dim>-1</dim>
					<dim>1500</dim>
					<dim>1280</dim>
				</port>
				<port id="1" precision="I64">
					<dim>4</dim>
				</port>
			</input>
			<output>
				<port id="2" precision="FP32" names="262">
					<dim>-1</dim>
					<dim>1500</dim>
					<dim>20</dim>
					<dim>64</dim>
				</port>
			</output>
		</layer>
		<layer id="172" name="__module.layers.1.self_attn/aten::transpose/Constant_2" type="Const" version="opset1">
			<data element_type="i32" shape="4" offset="14762300" size="16" />
			<output>
				<port id="0" precision="I32">
					<dim>4</dim>
				</port>
			</output>
		</layer>
		<layer id="173" name="__module.layers.1.self_attn/aten::transpose/Transpose_2" type="Transpose" version="opset1">
			<input>
				<port id="0" precision="FP32">
					<dim>-1</dim>
					<dim>1500</dim>
					<dim>20</dim>
					<dim>64</dim>
				</port>
				<port id="1" precision="I32">
					<dim>4</dim>
				</port>
			</input>
			<output>
				<port id="2" precision="FP32" names="263">
					<dim>-1</dim>
					<dim>20</dim>
					<dim>1500</dim>
					<dim>64</dim>
				</port>
			</output>
		</layer>
		<layer id="174" name="__module.layers.1.self_attn/aten::scaled_dot_product_attention/ScaledDotProductAttention" type="ScaledDotProductAttention" version="opset13">
			<data causal="false" />
			<input>
				<port id="0" precision="FP32">
					<dim>-1</dim>
					<dim>20</dim>
					<dim>1500</dim>
					<dim>64</dim>
				</port>
				<port id="1" precision="FP32">
					<dim>-1</dim>
					<dim>20</dim>
					<dim>1500</dim>
					<dim>64</dim>
				</port>
				<port id="2" precision="FP32">
					<dim>-1</dim>
					<dim>20</dim>
					<dim>1500</dim>
					<dim>64</dim>
				</port>
			</input>
			<output>
				<port id="3" precision="FP32" names="265,attn_output.5">
					<dim>-1</dim>
					<dim>20</dim>
					<dim>1500</dim>
					<dim>64</dim>
				</port>
			</output>
		</layer>
		<layer id="175" name="__module.layers.1.self_attn/aten::transpose/Constant_3" type="Const" version="opset1">
			<data element_type="i32" shape="4" offset="14762300" size="16" />
			<output>
				<port id="0" precision="I32">
					<dim>4</dim>
				</port>
			</output>
		</layer>
		<layer id="176" name="__module.layers.1.self_attn/aten::transpose/Transpose_3" type="Transpose" version="opset1">
			<input>
				<port id="0" precision="FP32">
					<dim>-1</dim>
					<dim>20</dim>
					<dim>1500</dim>
					<dim>64</dim>
				</port>
				<port id="1" precision="I32">
					<dim>4</dim>
				</port>
			</input>
			<output>
				<port id="2" precision="FP32" names="266,attn_output.7">
					<dim>-1</dim>
					<dim>1500</dim>
					<dim>20</dim>
					<dim>64</dim>
				</port>
			</output>
		</layer>
		<layer id="177" name="Constant_20786" type="Const" version="opset1">
			<data element_type="i64" shape="3" offset="18051916" size="24" />
			<output>
				<port id="0" precision="I64">
					<dim>3</dim>
				</port>
			</output>
		</layer>
		<layer id="178" name="__module.layers.1.self_attn/aten::reshape/Reshape" type="Reshape" version="opset1">
			<data special_zero="true" />
			<input>
				<port id="0" precision="FP32">
					<dim>-1</dim>
					<dim>1500</dim>
					<dim>20</dim>
					<dim>64</dim>
				</port>
				<port id="1" precision="I64">
					<dim>3</dim>
				</port>
			</input>
			<output>
				<port id="2" precision="FP32" names="268">
					<dim>-1</dim>
					<dim>1500</dim>
					<dim>1280</dim>
				</port>
			</output>
		</layer>
		<layer id="179" name="self.layers.1.self_attn.out_proj.weight" type="Const" version="opset1">
			<data element_type="u8" shape="1280, 1280" offset="37808740" size="1638400" />
			<output>
				<port id="0" precision="U8">
					<dim>1280</dim>
					<dim>1280</dim>
				</port>
			</output>
		</layer>
		<layer id="180" name="Convert_397777" type="Convert" version="opset1">
			<data destination_type="f16" />
			<input>
				<port id="0" precision="U8">
					<dim>1280</dim>
					<dim>1280</dim>
				</port>
			</input>
			<output>
				<port id="1" precision="FP16">
					<dim>1280</dim>
					<dim>1280</dim>
				</port>
			</output>
		</layer>
		<layer id="181" name="self.layers.1.self_attn.out_proj.weight/zero_point" type="Const" version="opset1">
			<data element_type="u8" shape="1280, 1" offset="39447140" size="1280" />
			<output>
				<port id="0" precision="U8">
					<dim>1280</dim>
					<dim>1</dim>
				</port>
			</output>
		</layer>
		<layer id="182" name="Convert_397780" type="Convert" version="opset1">
			<data destination_type="f16" />
			<input>
				<port id="0" precision="U8">
					<dim>1280</dim>
					<dim>1</dim>
				</port>
			</input>
			<output>
				<port id="1" precision="FP16">
					<dim>1280</dim>
					<dim>1</dim>
				</port>
			</output>
		</layer>
		<layer id="183" name="self.layers.1.self_attn.out_proj.weight/zero_point/subtract" type="Subtract" version="opset1">
			<data auto_broadcast="numpy" />
			<input>
				<port id="0" precision="FP16">
					<dim>1280</dim>
					<dim>1280</dim>
				</port>
				<port id="1" precision="FP16">
					<dim>1280</dim>
					<dim>1</dim>
				</port>
			</input>
			<output>
				<port id="2" precision="FP16">
					<dim>1280</dim>
					<dim>1280</dim>
				</port>
			</output>
		</layer>
		<layer id="184" name="self.layers.1.self_attn.out_proj.weight/scale" type="Const" version="opset1">
			<data element_type="f16" shape="1280, 1" offset="39448420" size="2560" />
			<output>
				<port id="0" precision="FP16">
					<dim>1280</dim>
					<dim>1</dim>
				</port>
			</output>
		</layer>
		<layer id="185" name="self.layers.1.self_attn.out_proj.weight/fq_weights_1" type="Multiply" version="opset1">
			<data auto_broadcast="numpy" />
			<input>
				<port id="0" precision="FP16">
					<dim>1280</dim>
					<dim>1280</dim>
				</port>
				<port id="1" precision="FP16">
					<dim>1280</dim>
					<dim>1</dim>
				</port>
			</input>
			<output>
				<port id="2" precision="FP16">
					<dim>1280</dim>
					<dim>1280</dim>
				</port>
			</output>
		</layer>
		<layer id="186" name="self.layers.1.self_attn.out_proj.weight/fq_weights_1/convert" type="Convert" version="opset1">
			<data destination_type="f32" />
			<input>
				<port id="0" precision="FP16">
					<dim>1280</dim>
					<dim>1280</dim>
				</port>
			</input>
			<output>
				<port id="1" precision="FP32">
					<dim>1280</dim>
					<dim>1280</dim>
				</port>
			</output>
		</layer>
		<layer id="187" name="__module.layers.1.self_attn.out_proj/aten::linear/MatMul" type="MatMul" version="opset1">
			<data transpose_a="false" transpose_b="true" />
			<input>
				<port id="0" precision="FP32">
					<dim>-1</dim>
					<dim>1500</dim>
					<dim>1280</dim>
				</port>
				<port id="1" precision="FP32">
					<dim>1280</dim>
					<dim>1280</dim>
				</port>
			</input>
			<output>
				<port id="2" precision="FP32">
					<dim>-1</dim>
					<dim>1500</dim>
					<dim>1280</dim>
				</port>
			</output>
		</layer>
		<layer id="188" name="Constant_19954" type="Const" version="opset1">
			<data element_type="f32" shape="1, 1, 1280" offset="39450980" size="5120" />
			<output>
				<port id="0" precision="FP32">
					<dim>1</dim>
					<dim>1</dim>
					<dim>1280</dim>
				</port>
			</output>
		</layer>
		<layer id="189" name="__module.layers.1.self_attn.out_proj/aten::linear/Add" type="Add" version="opset1">
			<data auto_broadcast="numpy" />
			<input>
				<port id="0" precision="FP32">
					<dim>-1</dim>
					<dim>1500</dim>
					<dim>1280</dim>
				</port>
				<port id="1" precision="FP32">
					<dim>1</dim>
					<dim>1</dim>
					<dim>1280</dim>
				</port>
			</input>
			<output>
				<port id="2" precision="FP32" names="271,input.9">
					<dim>-1</dim>
					<dim>1500</dim>
					<dim>1280</dim>
				</port>
			</output>
		</layer>
		<layer id="190" name="__module.layers.1/aten::add/Add" type="Add" version="opset1">
			<data auto_broadcast="numpy" />
			<input>
				<port id="0" precision="FP32">
					<dim>-1</dim>
					<dim>1500</dim>
					<dim>1280</dim>
				</port>
				<port id="1" precision="FP32">
					<dim>-1</dim>
					<dim>1500</dim>
					<dim>1280</dim>
				</port>
			</input>
			<output>
				<port id="2" precision="FP32" names="273,residual.7">
					<dim>-1</dim>
					<dim>1500</dim>
					<dim>1280</dim>
				</port>
			</output>
		</layer>
		<layer id="191" name="__module.layers.1.final_layer_norm/aten::layer_norm/Multiply" type="Const" version="opset1">
			<data element_type="i32" shape="1" offset="13104664" size="4" />
			<output>
				<port id="0" precision="I32">
					<dim>1</dim>
				</port>
			</output>
		</layer>
		<layer id="192" name="__module.layers.1.final_layer_norm/aten::layer_norm/MVN" type="MVN" version="opset6">
			<data eps="9.9999997473787516e-06" normalize_variance="true" eps_mode="INSIDE_SQRT" />
			<input>
				<port id="0" precision="FP32">
					<dim>-1</dim>
					<dim>1500</dim>
					<dim>1280</dim>
				</port>
				<port id="1" precision="I32">
					<dim>1</dim>
				</port>
			</input>
			<output>
				<port id="2" precision="FP32">
					<dim>-1</dim>
					<dim>1500</dim>
					<dim>1280</dim>
				</port>
			</output>
		</layer>
		<layer id="193" name="Constant_19955" type="Const" version="opset1">
			<data element_type="f32" shape="1, 1, 1280" offset="39456100" size="5120" />
			<output>
				<port id="0" precision="FP32">
					<dim>1</dim>
					<dim>1</dim>
					<dim>1280</dim>
				</port>
			</output>
		</layer>
		<layer id="194" name="__module.layers.1.final_layer_norm/aten::layer_norm/Multiply_1" type="Multiply" version="opset1">
			<data auto_broadcast="numpy" />
			<input>
				<port id="0" precision="FP32">
					<dim>-1</dim>
					<dim>1500</dim>
					<dim>1280</dim>
				</port>
				<port id="1" precision="FP32">
					<dim>1</dim>
					<dim>1</dim>
					<dim>1280</dim>
				</port>
			</input>
			<output>
				<port id="2" precision="FP32">
					<dim>-1</dim>
					<dim>1500</dim>
					<dim>1280</dim>
				</port>
			</output>
		</layer>
		<layer id="195" name="Constant_19956" type="Const" version="opset1">
			<data element_type="f32" shape="1, 1, 1280" offset="39461220" size="5120" />
			<output>
				<port id="0" precision="FP32">
					<dim>1</dim>
					<dim>1</dim>
					<dim>1280</dim>
				</port>
			</output>
		</layer>
		<layer id="196" name="__module.layers.1.final_layer_norm/aten::layer_norm/Add" type="Add" version="opset1">
			<data auto_broadcast="numpy" />
			<input>
				<port id="0" precision="FP32">
					<dim>-1</dim>
					<dim>1500</dim>
					<dim>1280</dim>
				</port>
				<port id="1" precision="FP32">
					<dim>1</dim>
					<dim>1</dim>
					<dim>1280</dim>
				</port>
			</input>
			<output>
				<port id="2" precision="FP32" names="277">
					<dim>-1</dim>
					<dim>1500</dim>
					<dim>1280</dim>
				</port>
			</output>
		</layer>
		<layer id="197" name="self.layers.1.fc1.weight" type="Const" version="opset1">
			<data element_type="u8" shape="5120, 1280" offset="39466340" size="6553600" />
			<output>
				<port id="0" precision="U8">
					<dim>5120</dim>
					<dim>1280</dim>
				</port>
			</output>
		</layer>
		<layer id="198" name="Convert_63585" type="Convert" version="opset1">
			<data destination_type="f16" />
			<input>
				<port id="0" precision="U8">
					<dim>5120</dim>
					<dim>1280</dim>
				</port>
			</input>
			<output>
				<port id="1" precision="FP16">
					<dim>5120</dim>
					<dim>1280</dim>
				</port>
			</output>
		</layer>
		<layer id="199" name="self.layers.1.fc1.weight/zero_point" type="Const" version="opset1">
			<data element_type="u8" shape="5120, 1" offset="46019940" size="5120" />
			<output>
				<port id="0" precision="U8">
					<dim>5120</dim>
					<dim>1</dim>
				</port>
			</output>
		</layer>
		<layer id="200" name="Convert_63588" type="Convert" version="opset1">
			<data destination_type="f16" />
			<input>
				<port id="0" precision="U8">
					<dim>5120</dim>
					<dim>1</dim>
				</port>
			</input>
			<output>
				<port id="1" precision="FP16">
					<dim>5120</dim>
					<dim>1</dim>
				</port>
			</output>
		</layer>
		<layer id="201" name="self.layers.1.fc1.weight/zero_point/subtract" type="Subtract" version="opset1">
			<data auto_broadcast="numpy" />
			<input>
				<port id="0" precision="FP16">
					<dim>5120</dim>
					<dim>1280</dim>
				</port>
				<port id="1" precision="FP16">
					<dim>5120</dim>
					<dim>1</dim>
				</port>
			</input>
			<output>
				<port id="2" precision="FP16">
					<dim>5120</dim>
					<dim>1280</dim>
				</port>
			</output>
		</layer>
		<layer id="202" name="self.layers.1.fc1.weight/scale" type="Const" version="opset1">
			<data element_type="f16" shape="5120, 1" offset="46025060" size="10240" />
			<output>
				<port id="0" precision="FP16">
					<dim>5120</dim>
					<dim>1</dim>
				</port>
			</output>
		</layer>
		<layer id="203" name="self.layers.1.fc1.weight/fq_weights_1" type="Multiply" version="opset1">
			<data auto_broadcast="numpy" />
			<input>
				<port id="0" precision="FP16">
					<dim>5120</dim>
					<dim>1280</dim>
				</port>
				<port id="1" precision="FP16">
					<dim>5120</dim>
					<dim>1</dim>
				</port>
			</input>
			<output>
				<port id="2" precision="FP16">
					<dim>5120</dim>
					<dim>1280</dim>
				</port>
			</output>
		</layer>
		<layer id="204" name="self.layers.1.fc1.weight/fq_weights_1/convert" type="Convert" version="opset1">
			<data destination_type="f32" />
			<input>
				<port id="0" precision="FP16">
					<dim>5120</dim>
					<dim>1280</dim>
				</port>
			</input>
			<output>
				<port id="1" precision="FP32">
					<dim>5120</dim>
					<dim>1280</dim>
				</port>
			</output>
		</layer>
		<layer id="205" name="__module.layers.1.fc1/aten::linear/MatMul" type="MatMul" version="opset1">
			<data transpose_a="false" transpose_b="true" />
			<input>
				<port id="0" precision="FP32">
					<dim>-1</dim>
					<dim>1500</dim>
					<dim>1280</dim>
				</port>
				<port id="1" precision="FP32">
					<dim>5120</dim>
					<dim>1280</dim>
				</port>
			</input>
			<output>
				<port id="2" precision="FP32">
					<dim>-1</dim>
					<dim>1500</dim>
					<dim>5120</dim>
				</port>
			</output>
		</layer>
		<layer id="206" name="Constant_19957" type="Const" version="opset1">
			<data element_type="f32" shape="1, 1, 5120" offset="46035300" size="20480" />
			<output>
				<port id="0" precision="FP32">
					<dim>1</dim>
					<dim>1</dim>
					<dim>5120</dim>
				</port>
			</output>
		</layer>
		<layer id="207" name="__module.layers.1.fc1/aten::linear/Add" type="Add" version="opset1">
			<data auto_broadcast="numpy" />
			<input>
				<port id="0" precision="FP32">
					<dim>-1</dim>
					<dim>1500</dim>
					<dim>5120</dim>
				</port>
				<port id="1" precision="FP32">
					<dim>1</dim>
					<dim>1</dim>
					<dim>5120</dim>
				</port>
			</input>
			<output>
				<port id="2" precision="FP32" names="280">
					<dim>-1</dim>
					<dim>1500</dim>
					<dim>5120</dim>
				</port>
			</output>
		</layer>
		<layer id="208" name="__module.layers.1.activation_fn/aten::gelu/Gelu" type="Gelu" version="opset7">
			<data approximation_mode="ERF" />
			<input>
				<port id="0" precision="FP32">
					<dim>-1</dim>
					<dim>1500</dim>
					<dim>5120</dim>
				</port>
			</input>
			<output>
				<port id="1" precision="FP32" names="281,input.11">
					<dim>-1</dim>
					<dim>1500</dim>
					<dim>5120</dim>
				</port>
			</output>
		</layer>
		<layer id="209" name="self.layers.1.fc2.weight" type="Const" version="opset1">
			<data element_type="u8" shape="1280, 5120" offset="46055780" size="6553600" />
			<output>
				<port id="0" precision="U8">
					<dim>1280</dim>
					<dim>5120</dim>
				</port>
			</output>
		</layer>
		<layer id="210" name="Convert_68359" type="Convert" version="opset1">
			<data destination_type="f16" />
			<input>
				<port id="0" precision="U8">
					<dim>1280</dim>
					<dim>5120</dim>
				</port>
			</input>
			<output>
				<port id="1" precision="FP16">
					<dim>1280</dim>
					<dim>5120</dim>
				</port>
			</output>
		</layer>
		<layer id="211" name="self.layers.1.fc2.weight/zero_point" type="Const" version="opset1">
			<data element_type="u8" shape="1280, 1" offset="52609380" size="1280" />
			<output>
				<port id="0" precision="U8">
					<dim>1280</dim>
					<dim>1</dim>
				</port>
			</output>
		</layer>
		<layer id="212" name="Convert_68362" type="Convert" version="opset1">
			<data destination_type="f16" />
			<input>
				<port id="0" precision="U8">
					<dim>1280</dim>
					<dim>1</dim>
				</port>
			</input>
			<output>
				<port id="1" precision="FP16">
					<dim>1280</dim>
					<dim>1</dim>
				</port>
			</output>
		</layer>
		<layer id="213" name="self.layers.1.fc2.weight/zero_point/subtract" type="Subtract" version="opset1">
			<data auto_broadcast="numpy" />
			<input>
				<port id="0" precision="FP16">
					<dim>1280</dim>
					<dim>5120</dim>
				</port>
				<port id="1" precision="FP16">
					<dim>1280</dim>
					<dim>1</dim>
				</port>
			</input>
			<output>
				<port id="2" precision="FP16">
					<dim>1280</dim>
					<dim>5120</dim>
				</port>
			</output>
		</layer>
		<layer id="214" name="self.layers.1.fc2.weight/scale" type="Const" version="opset1">
			<data element_type="f16" shape="1280, 1" offset="52610660" size="2560" />
			<output>
				<port id="0" precision="FP16">
					<dim>1280</dim>
					<dim>1</dim>
				</port>
			</output>
		</layer>
		<layer id="215" name="self.layers.1.fc2.weight/fq_weights_1" type="Multiply" version="opset1">
			<data auto_broadcast="numpy" />
			<input>
				<port id="0" precision="FP16">
					<dim>1280</dim>
					<dim>5120</dim>
				</port>
				<port id="1" precision="FP16">
					<dim>1280</dim>
					<dim>1</dim>
				</port>
			</input>
			<output>
				<port id="2" precision="FP16">
					<dim>1280</dim>
					<dim>5120</dim>
				</port>
			</output>
		</layer>
		<layer id="216" name="self.layers.1.fc2.weight/fq_weights_1/convert" type="Convert" version="opset1">
			<data destination_type="f32" />
			<input>
				<port id="0" precision="FP16">
					<dim>1280</dim>
					<dim>5120</dim>
				</port>
			</input>
			<output>
				<port id="1" precision="FP32">
					<dim>1280</dim>
					<dim>5120</dim>
				</port>
			</output>
		</layer>
		<layer id="217" name="__module.layers.1.fc2/aten::linear/MatMul" type="MatMul" version="opset1">
			<data transpose_a="false" transpose_b="true" />
			<input>
				<port id="0" precision="FP32">
					<dim>-1</dim>
					<dim>1500</dim>
					<dim>5120</dim>
				</port>
				<port id="1" precision="FP32">
					<dim>1280</dim>
					<dim>5120</dim>
				</port>
			</input>
			<output>
				<port id="2" precision="FP32">
					<dim>-1</dim>
					<dim>1500</dim>
					<dim>1280</dim>
				</port>
			</output>
		</layer>
		<layer id="218" name="Constant_19958" type="Const" version="opset1">
			<data element_type="f32" shape="1, 1, 1280" offset="52613220" size="5120" />
			<output>
				<port id="0" precision="FP32">
					<dim>1</dim>
					<dim>1</dim>
					<dim>1280</dim>
				</port>
			</output>
		</layer>
		<layer id="219" name="__module.layers.1.fc2/aten::linear/Add" type="Add" version="opset1">
			<data auto_broadcast="numpy" />
			<input>
				<port id="0" precision="FP32">
					<dim>-1</dim>
					<dim>1500</dim>
					<dim>1280</dim>
				</port>
				<port id="1" precision="FP32">
					<dim>1</dim>
					<dim>1</dim>
					<dim>1280</dim>
				</port>
			</input>
			<output>
				<port id="2" precision="FP32" names="285,input.13">
					<dim>-1</dim>
					<dim>1500</dim>
					<dim>1280</dim>
				</port>
			</output>
		</layer>
		<layer id="220" name="__module.layers.1/aten::add/Add_1" type="Add" version="opset1">
			<data auto_broadcast="numpy" />
			<input>
				<port id="0" precision="FP32">
					<dim>-1</dim>
					<dim>1500</dim>
					<dim>1280</dim>
				</port>
				<port id="1" precision="FP32">
					<dim>-1</dim>
					<dim>1500</dim>
					<dim>1280</dim>
				</port>
			</input>
			<output>
				<port id="2" precision="FP32" names="287,residual.9">
					<dim>-1</dim>
					<dim>1500</dim>
					<dim>1280</dim>
				</port>
			</output>
		</layer>
		<layer id="221" name="__module.layers.2.self_attn_layer_norm/aten::layer_norm/Multiply" type="Const" version="opset1">
			<data element_type="i32" shape="1" offset="13104664" size="4" />
			<output>
				<port id="0" precision="I32">
					<dim>1</dim>
				</port>
			</output>
		</layer>
		<layer id="222" name="__module.layers.2.self_attn_layer_norm/aten::layer_norm/MVN" type="MVN" version="opset6">
			<data eps="9.9999997473787516e-06" normalize_variance="true" eps_mode="INSIDE_SQRT" />
			<input>
				<port id="0" precision="FP32">
					<dim>-1</dim>
					<dim>1500</dim>
					<dim>1280</dim>
				</port>
				<port id="1" precision="I32">
					<dim>1</dim>
				</port>
			</input>
			<output>
				<port id="2" precision="FP32">
					<dim>-1</dim>
					<dim>1500</dim>
					<dim>1280</dim>
				</port>
			</output>
		</layer>
		<layer id="223" name="Constant_19959" type="Const" version="opset1">
			<data element_type="f32" shape="1, 1, 1280" offset="52618340" size="5120" />
			<output>
				<port id="0" precision="FP32">
					<dim>1</dim>
					<dim>1</dim>
					<dim>1280</dim>
				</port>
			</output>
		</layer>
		<layer id="224" name="__module.layers.2.self_attn_layer_norm/aten::layer_norm/Multiply_1" type="Multiply" version="opset1">
			<data auto_broadcast="numpy" />
			<input>
				<port id="0" precision="FP32">
					<dim>-1</dim>
					<dim>1500</dim>
					<dim>1280</dim>
				</port>
				<port id="1" precision="FP32">
					<dim>1</dim>
					<dim>1</dim>
					<dim>1280</dim>
				</port>
			</input>
			<output>
				<port id="2" precision="FP32">
					<dim>-1</dim>
					<dim>1500</dim>
					<dim>1280</dim>
				</port>
			</output>
		</layer>
		<layer id="225" name="Constant_19960" type="Const" version="opset1">
			<data element_type="f32" shape="1, 1, 1280" offset="52623460" size="5120" />
			<output>
				<port id="0" precision="FP32">
					<dim>1</dim>
					<dim>1</dim>
					<dim>1280</dim>
				</port>
			</output>
		</layer>
		<layer id="226" name="__module.layers.2.self_attn_layer_norm/aten::layer_norm/Add" type="Add" version="opset1">
			<data auto_broadcast="numpy" />
			<input>
				<port id="0" precision="FP32">
					<dim>-1</dim>
					<dim>1500</dim>
					<dim>1280</dim>
				</port>
				<port id="1" precision="FP32">
					<dim>1</dim>
					<dim>1</dim>
					<dim>1280</dim>
				</port>
			</input>
			<output>
				<port id="2" precision="FP32" names="310,hidden_states.13">
					<dim>-1</dim>
					<dim>1500</dim>
					<dim>1280</dim>
				</port>
			</output>
		</layer>
		<layer id="227" name="self.layers.2.self_attn.q_proj.weight" type="Const" version="opset1">
			<data element_type="u8" shape="1280, 1280" offset="52628580" size="1638400" />
			<output>
				<port id="0" precision="U8">
					<dim>1280</dim>
					<dim>1280</dim>
				</port>
			</output>
		</layer>
		<layer id="228" name="Convert_412099" type="Convert" version="opset1">
			<data destination_type="f16" />
			<input>
				<port id="0" precision="U8">
					<dim>1280</dim>
					<dim>1280</dim>
				</port>
			</input>
			<output>
				<port id="1" precision="FP16">
					<dim>1280</dim>
					<dim>1280</dim>
				</port>
			</output>
		</layer>
		<layer id="229" name="self.layers.2.self_attn.q_proj.weight/zero_point" type="Const" version="opset1">
			<data element_type="u8" shape="1280, 1" offset="54266980" size="1280" />
			<output>
				<port id="0" precision="U8">
					<dim>1280</dim>
					<dim>1</dim>
				</port>
			</output>
		</layer>
		<layer id="230" name="Convert_412102" type="Convert" version="opset1">
			<data destination_type="f16" />
			<input>
				<port id="0" precision="U8">
					<dim>1280</dim>
					<dim>1</dim>
				</port>
			</input>
			<output>
				<port id="1" precision="FP16">
					<dim>1280</dim>
					<dim>1</dim>
				</port>
			</output>
		</layer>
		<layer id="231" name="self.layers.2.self_attn.q_proj.weight/zero_point/subtract" type="Subtract" version="opset1">
			<data auto_broadcast="numpy" />
			<input>
				<port id="0" precision="FP16">
					<dim>1280</dim>
					<dim>1280</dim>
				</port>
				<port id="1" precision="FP16">
					<dim>1280</dim>
					<dim>1</dim>
				</port>
			</input>
			<output>
				<port id="2" precision="FP16">
					<dim>1280</dim>
					<dim>1280</dim>
				</port>
			</output>
		</layer>
		<layer id="232" name="self.layers.2.self_attn.q_proj.weight/scale" type="Const" version="opset1">
			<data element_type="f16" shape="1280, 1" offset="54268260" size="2560" />
			<output>
				<port id="0" precision="FP16">
					<dim>1280</dim>
					<dim>1</dim>
				</port>
			</output>
		</layer>
		<layer id="233" name="self.layers.2.self_attn.q_proj.weight/fq_weights_1" type="Multiply" version="opset1">
			<data auto_broadcast="numpy" />
			<input>
				<port id="0" precision="FP16">
					<dim>1280</dim>
					<dim>1280</dim>
				</port>
				<port id="1" precision="FP16">
					<dim>1280</dim>
					<dim>1</dim>
				</port>
			</input>
			<output>
				<port id="2" precision="FP16">
					<dim>1280</dim>
					<dim>1280</dim>
				</port>
			</output>
		</layer>
		<layer id="234" name="self.layers.2.self_attn.q_proj.weight/fq_weights_1/convert" type="Convert" version="opset1">
			<data destination_type="f32" />
			<input>
				<port id="0" precision="FP16">
					<dim>1280</dim>
					<dim>1280</dim>
				</port>
			</input>
			<output>
				<port id="1" precision="FP32">
					<dim>1280</dim>
					<dim>1280</dim>
				</port>
			</output>
		</layer>
		<layer id="235" name="__module.layers.2.self_attn.q_proj/aten::linear/MatMul" type="MatMul" version="opset1">
			<data transpose_a="false" transpose_b="true" />
			<input>
				<port id="0" precision="FP32">
					<dim>-1</dim>
					<dim>1500</dim>
					<dim>1280</dim>
				</port>
				<port id="1" precision="FP32">
					<dim>1280</dim>
					<dim>1280</dim>
				</port>
			</input>
			<output>
				<port id="2" precision="FP32">
					<dim>-1</dim>
					<dim>1500</dim>
					<dim>1280</dim>
				</port>
			</output>
		</layer>
		<layer id="236" name="Constant_19961" type="Const" version="opset1">
			<data element_type="f32" shape="1, 1, 1280" offset="54270820" size="5120" />
			<output>
				<port id="0" precision="FP32">
					<dim>1</dim>
					<dim>1</dim>
					<dim>1280</dim>
				</port>
			</output>
		</layer>
		<layer id="237" name="__module.layers.2.self_attn.q_proj/aten::linear/Add" type="Add" version="opset1">
			<data auto_broadcast="numpy" />
			<input>
				<port id="0" precision="FP32">
					<dim>-1</dim>
					<dim>1500</dim>
					<dim>1280</dim>
				</port>
				<port id="1" precision="FP32">
					<dim>1</dim>
					<dim>1</dim>
					<dim>1280</dim>
				</port>
			</input>
			<output>
				<port id="2" precision="FP32" names="319,tensor.13">
					<dim>-1</dim>
					<dim>1500</dim>
					<dim>1280</dim>
				</port>
			</output>
		</layer>
		<layer id="238" name="Constant_20787" type="Const" version="opset1">
			<data element_type="i64" shape="4" offset="14762268" size="32" />
			<output>
				<port id="0" precision="I64">
					<dim>4</dim>
				</port>
			</output>
		</layer>
		<layer id="239" name="__module.layers.2.self_attn/aten::view/Reshape" type="Reshape" version="opset1">
			<data special_zero="true" />
			<input>
				<port id="0" precision="FP32">
					<dim>-1</dim>
					<dim>1500</dim>
					<dim>1280</dim>
				</port>
				<port id="1" precision="I64">
					<dim>4</dim>
				</port>
			</input>
			<output>
				<port id="2" precision="FP32" names="321">
					<dim>-1</dim>
					<dim>1500</dim>
					<dim>20</dim>
					<dim>64</dim>
				</port>
			</output>
		</layer>
		<layer id="240" name="__module.layers.2.self_attn/aten::transpose/Constant" type="Const" version="opset1">
			<data element_type="i32" shape="4" offset="14762300" size="16" />
			<output>
				<port id="0" precision="I32">
					<dim>4</dim>
				</port>
			</output>
		</layer>
		<layer id="241" name="__module.layers.2.self_attn/aten::transpose/Transpose" type="Transpose" version="opset1">
			<input>
				<port id="0" precision="FP32">
					<dim>-1</dim>
					<dim>1500</dim>
					<dim>20</dim>
					<dim>64</dim>
				</port>
				<port id="1" precision="I32">
					<dim>4</dim>
				</port>
			</input>
			<output>
				<port id="2" precision="FP32" names="322">
					<dim>-1</dim>
					<dim>20</dim>
					<dim>1500</dim>
					<dim>64</dim>
				</port>
			</output>
		</layer>
		<layer id="242" name="self.layers.2.self_attn.k_proj.weight" type="Const" version="opset1">
			<data element_type="u8" shape="1280, 1280" offset="54275940" size="1638400" />
			<output>
				<port id="0" precision="U8">
					<dim>1280</dim>
					<dim>1280</dim>
				</port>
			</output>
		</layer>
		<layer id="243" name="Convert_407325" type="Convert" version="opset1">
			<data destination_type="f16" />
			<input>
				<port id="0" precision="U8">
					<dim>1280</dim>
					<dim>1280</dim>
				</port>
			</input>
			<output>
				<port id="1" precision="FP16">
					<dim>1280</dim>
					<dim>1280</dim>
				</port>
			</output>
		</layer>
		<layer id="244" name="self.layers.2.self_attn.k_proj.weight/zero_point" type="Const" version="opset1">
			<data element_type="u8" shape="1280, 1" offset="55914340" size="1280" />
			<output>
				<port id="0" precision="U8">
					<dim>1280</dim>
					<dim>1</dim>
				</port>
			</output>
		</layer>
		<layer id="245" name="Convert_407328" type="Convert" version="opset1">
			<data destination_type="f16" />
			<input>
				<port id="0" precision="U8">
					<dim>1280</dim>
					<dim>1</dim>
				</port>
			</input>
			<output>
				<port id="1" precision="FP16">
					<dim>1280</dim>
					<dim>1</dim>
				</port>
			</output>
		</layer>
		<layer id="246" name="self.layers.2.self_attn.k_proj.weight/zero_point/subtract" type="Subtract" version="opset1">
			<data auto_broadcast="numpy" />
			<input>
				<port id="0" precision="FP16">
					<dim>1280</dim>
					<dim>1280</dim>
				</port>
				<port id="1" precision="FP16">
					<dim>1280</dim>
					<dim>1</dim>
				</port>
			</input>
			<output>
				<port id="2" precision="FP16">
					<dim>1280</dim>
					<dim>1280</dim>
				</port>
			</output>
		</layer>
		<layer id="247" name="self.layers.2.self_attn.k_proj.weight/scale" type="Const" version="opset1">
			<data element_type="f16" shape="1280, 1" offset="55915620" size="2560" />
			<output>
				<port id="0" precision="FP16">
					<dim>1280</dim>
					<dim>1</dim>
				</port>
			</output>
		</layer>
		<layer id="248" name="self.layers.2.self_attn.k_proj.weight/fq_weights_1" type="Multiply" version="opset1">
			<data auto_broadcast="numpy" />
			<input>
				<port id="0" precision="FP16">
					<dim>1280</dim>
					<dim>1280</dim>
				</port>
				<port id="1" precision="FP16">
					<dim>1280</dim>
					<dim>1</dim>
				</port>
			</input>
			<output>
				<port id="2" precision="FP16">
					<dim>1280</dim>
					<dim>1280</dim>
				</port>
			</output>
		</layer>
		<layer id="249" name="self.layers.2.self_attn.k_proj.weight/fq_weights_1/convert" type="Convert" version="opset1">
			<data destination_type="f32" />
			<input>
				<port id="0" precision="FP16">
					<dim>1280</dim>
					<dim>1280</dim>
				</port>
			</input>
			<output>
				<port id="1" precision="FP32">
					<dim>1280</dim>
					<dim>1280</dim>
				</port>
			</output>
		</layer>
		<layer id="250" name="__module.layers.2.self_attn.k_proj/aten::linear/MatMul" type="MatMul" version="opset1">
			<data transpose_a="false" transpose_b="true" />
			<input>
				<port id="0" precision="FP32">
					<dim>-1</dim>
					<dim>1500</dim>
					<dim>1280</dim>
				</port>
				<port id="1" precision="FP32">
					<dim>1280</dim>
					<dim>1280</dim>
				</port>
			</input>
			<output>
				<port id="2" precision="FP32" names="325,tensor.15">
					<dim>-1</dim>
					<dim>1500</dim>
					<dim>1280</dim>
				</port>
			</output>
		</layer>
		<layer id="251" name="Constant_20788" type="Const" version="opset1">
			<data element_type="i64" shape="4" offset="14762268" size="32" />
			<output>
				<port id="0" precision="I64">
					<dim>4</dim>
				</port>
			</output>
		</layer>
		<layer id="252" name="__module.layers.2.self_attn/aten::view/Reshape_1" type="Reshape" version="opset1">
			<data special_zero="true" />
			<input>
				<port id="0" precision="FP32">
					<dim>-1</dim>
					<dim>1500</dim>
					<dim>1280</dim>
				</port>
				<port id="1" precision="I64">
					<dim>4</dim>
				</port>
			</input>
			<output>
				<port id="2" precision="FP32" names="327">
					<dim>-1</dim>
					<dim>1500</dim>
					<dim>20</dim>
					<dim>64</dim>
				</port>
			</output>
		</layer>
		<layer id="253" name="__module.layers.2.self_attn/aten::transpose/Constant_1" type="Const" version="opset1">
			<data element_type="i32" shape="4" offset="14762300" size="16" />
			<output>
				<port id="0" precision="I32">
					<dim>4</dim>
				</port>
			</output>
		</layer>
		<layer id="254" name="__module.layers.2.self_attn/aten::transpose/Transpose_1" type="Transpose" version="opset1">
			<input>
				<port id="0" precision="FP32">
					<dim>-1</dim>
					<dim>1500</dim>
					<dim>20</dim>
					<dim>64</dim>
				</port>
				<port id="1" precision="I32">
					<dim>4</dim>
				</port>
			</input>
			<output>
				<port id="2" precision="FP32" names="328">
					<dim>-1</dim>
					<dim>20</dim>
					<dim>1500</dim>
					<dim>64</dim>
				</port>
			</output>
		</layer>
		<layer id="255" name="self.layers.2.self_attn.v_proj.weight" type="Const" version="opset1">
			<data element_type="u8" shape="1280, 1280" offset="55918180" size="1638400" />
			<output>
				<port id="0" precision="U8">
					<dim>1280</dim>
					<dim>1280</dim>
				</port>
			</output>
		</layer>
		<layer id="256" name="Convert_402551" type="Convert" version="opset1">
			<data destination_type="f16" />
			<input>
				<port id="0" precision="U8">
					<dim>1280</dim>
					<dim>1280</dim>
				</port>
			</input>
			<output>
				<port id="1" precision="FP16">
					<dim>1280</dim>
					<dim>1280</dim>
				</port>
			</output>
		</layer>
		<layer id="257" name="self.layers.2.self_attn.v_proj.weight/zero_point" type="Const" version="opset1">
			<data element_type="u8" shape="1280, 1" offset="57556580" size="1280" />
			<output>
				<port id="0" precision="U8">
					<dim>1280</dim>
					<dim>1</dim>
				</port>
			</output>
		</layer>
		<layer id="258" name="Convert_402554" type="Convert" version="opset1">
			<data destination_type="f16" />
			<input>
				<port id="0" precision="U8">
					<dim>1280</dim>
					<dim>1</dim>
				</port>
			</input>
			<output>
				<port id="1" precision="FP16">
					<dim>1280</dim>
					<dim>1</dim>
				</port>
			</output>
		</layer>
		<layer id="259" name="self.layers.2.self_attn.v_proj.weight/zero_point/subtract" type="Subtract" version="opset1">
			<data auto_broadcast="numpy" />
			<input>
				<port id="0" precision="FP16">
					<dim>1280</dim>
					<dim>1280</dim>
				</port>
				<port id="1" precision="FP16">
					<dim>1280</dim>
					<dim>1</dim>
				</port>
			</input>
			<output>
				<port id="2" precision="FP16">
					<dim>1280</dim>
					<dim>1280</dim>
				</port>
			</output>
		</layer>
		<layer id="260" name="self.layers.2.self_attn.v_proj.weight/scale" type="Const" version="opset1">
			<data element_type="f16" shape="1280, 1" offset="57557860" size="2560" />
			<output>
				<port id="0" precision="FP16">
					<dim>1280</dim>
					<dim>1</dim>
				</port>
			</output>
		</layer>
		<layer id="261" name="self.layers.2.self_attn.v_proj.weight/fq_weights_1" type="Multiply" version="opset1">
			<data auto_broadcast="numpy" />
			<input>
				<port id="0" precision="FP16">
					<dim>1280</dim>
					<dim>1280</dim>
				</port>
				<port id="1" precision="FP16">
					<dim>1280</dim>
					<dim>1</dim>
				</port>
			</input>
			<output>
				<port id="2" precision="FP16">
					<dim>1280</dim>
					<dim>1280</dim>
				</port>
			</output>
		</layer>
		<layer id="262" name="self.layers.2.self_attn.v_proj.weight/fq_weights_1/convert" type="Convert" version="opset1">
			<data destination_type="f32" />
			<input>
				<port id="0" precision="FP16">
					<dim>1280</dim>
					<dim>1280</dim>
				</port>
			</input>
			<output>
				<port id="1" precision="FP32">
					<dim>1280</dim>
					<dim>1280</dim>
				</port>
			</output>
		</layer>
		<layer id="263" name="__module.layers.2.self_attn.v_proj/aten::linear/MatMul" type="MatMul" version="opset1">
			<data transpose_a="false" transpose_b="true" />
			<input>
				<port id="0" precision="FP32">
					<dim>-1</dim>
					<dim>1500</dim>
					<dim>1280</dim>
				</port>
				<port id="1" precision="FP32">
					<dim>1280</dim>
					<dim>1280</dim>
				</port>
			</input>
			<output>
				<port id="2" precision="FP32">
					<dim>-1</dim>
					<dim>1500</dim>
					<dim>1280</dim>
				</port>
			</output>
		</layer>
		<layer id="264" name="Constant_19962" type="Const" version="opset1">
			<data element_type="f32" shape="1, 1, 1280" offset="57560420" size="5120" />
			<output>
				<port id="0" precision="FP32">
					<dim>1</dim>
					<dim>1</dim>
					<dim>1280</dim>
				</port>
			</output>
		</layer>
		<layer id="265" name="__module.layers.2.self_attn.v_proj/aten::linear/Add" type="Add" version="opset1">
			<data auto_broadcast="numpy" />
			<input>
				<port id="0" precision="FP32">
					<dim>-1</dim>
					<dim>1500</dim>
					<dim>1280</dim>
				</port>
				<port id="1" precision="FP32">
					<dim>1</dim>
					<dim>1</dim>
					<dim>1280</dim>
				</port>
			</input>
			<output>
				<port id="2" precision="FP32" names="332,tensor.17">
					<dim>-1</dim>
					<dim>1500</dim>
					<dim>1280</dim>
				</port>
			</output>
		</layer>
		<layer id="266" name="Constant_20789" type="Const" version="opset1">
			<data element_type="i64" shape="4" offset="14762268" size="32" />
			<output>
				<port id="0" precision="I64">
					<dim>4</dim>
				</port>
			</output>
		</layer>
		<layer id="267" name="__module.layers.2.self_attn/aten::view/Reshape_2" type="Reshape" version="opset1">
			<data special_zero="true" />
			<input>
				<port id="0" precision="FP32">
					<dim>-1</dim>
					<dim>1500</dim>
					<dim>1280</dim>
				</port>
				<port id="1" precision="I64">
					<dim>4</dim>
				</port>
			</input>
			<output>
				<port id="2" precision="FP32" names="334">
					<dim>-1</dim>
					<dim>1500</dim>
					<dim>20</dim>
					<dim>64</dim>
				</port>
			</output>
		</layer>
		<layer id="268" name="__module.layers.2.self_attn/aten::transpose/Constant_2" type="Const" version="opset1">
			<data element_type="i32" shape="4" offset="14762300" size="16" />
			<output>
				<port id="0" precision="I32">
					<dim>4</dim>
				</port>
			</output>
		</layer>
		<layer id="269" name="__module.layers.2.self_attn/aten::transpose/Transpose_2" type="Transpose" version="opset1">
			<input>
				<port id="0" precision="FP32">
					<dim>-1</dim>
					<dim>1500</dim>
					<dim>20</dim>
					<dim>64</dim>
				</port>
				<port id="1" precision="I32">
					<dim>4</dim>
				</port>
			</input>
			<output>
				<port id="2" precision="FP32" names="335">
					<dim>-1</dim>
					<dim>20</dim>
					<dim>1500</dim>
					<dim>64</dim>
				</port>
			</output>
		</layer>
		<layer id="270" name="__module.layers.2.self_attn/aten::scaled_dot_product_attention/ScaledDotProductAttention" type="ScaledDotProductAttention" version="opset13">
			<data causal="false" />
			<input>
				<port id="0" precision="FP32">
					<dim>-1</dim>
					<dim>20</dim>
					<dim>1500</dim>
					<dim>64</dim>
				</port>
				<port id="1" precision="FP32">
					<dim>-1</dim>
					<dim>20</dim>
					<dim>1500</dim>
					<dim>64</dim>
				</port>
				<port id="2" precision="FP32">
					<dim>-1</dim>
					<dim>20</dim>
					<dim>1500</dim>
					<dim>64</dim>
				</port>
			</input>
			<output>
				<port id="3" precision="FP32" names="337,attn_output.9">
					<dim>-1</dim>
					<dim>20</dim>
					<dim>1500</dim>
					<dim>64</dim>
				</port>
			</output>
		</layer>
		<layer id="271" name="__module.layers.2.self_attn/aten::transpose/Constant_3" type="Const" version="opset1">
			<data element_type="i32" shape="4" offset="14762300" size="16" />
			<output>
				<port id="0" precision="I32">
					<dim>4</dim>
				</port>
			</output>
		</layer>
		<layer id="272" name="__module.layers.2.self_attn/aten::transpose/Transpose_3" type="Transpose" version="opset1">
			<input>
				<port id="0" precision="FP32">
					<dim>-1</dim>
					<dim>20</dim>
					<dim>1500</dim>
					<dim>64</dim>
				</port>
				<port id="1" precision="I32">
					<dim>4</dim>
				</port>
			</input>
			<output>
				<port id="2" precision="FP32" names="338,attn_output.11">
					<dim>-1</dim>
					<dim>1500</dim>
					<dim>20</dim>
					<dim>64</dim>
				</port>
			</output>
		</layer>
		<layer id="273" name="Constant_20790" type="Const" version="opset1">
			<data element_type="i64" shape="3" offset="18051916" size="24" />
			<output>
				<port id="0" precision="I64">
					<dim>3</dim>
				</port>
			</output>
		</layer>
		<layer id="274" name="__module.layers.2.self_attn/aten::reshape/Reshape" type="Reshape" version="opset1">
			<data special_zero="true" />
			<input>
				<port id="0" precision="FP32">
					<dim>-1</dim>
					<dim>1500</dim>
					<dim>20</dim>
					<dim>64</dim>
				</port>
				<port id="1" precision="I64">
					<dim>3</dim>
				</port>
			</input>
			<output>
				<port id="2" precision="FP32" names="340">
					<dim>-1</dim>
					<dim>1500</dim>
					<dim>1280</dim>
				</port>
			</output>
		</layer>
		<layer id="275" name="self.layers.2.self_attn.out_proj.weight" type="Const" version="opset1">
			<data element_type="u8" shape="1280, 1280" offset="57565540" size="1638400" />
			<output>
				<port id="0" precision="U8">
					<dim>1280</dim>
					<dim>1280</dim>
				</port>
			</output>
		</layer>
		<layer id="276" name="Convert_416873" type="Convert" version="opset1">
			<data destination_type="f16" />
			<input>
				<port id="0" precision="U8">
					<dim>1280</dim>
					<dim>1280</dim>
				</port>
			</input>
			<output>
				<port id="1" precision="FP16">
					<dim>1280</dim>
					<dim>1280</dim>
				</port>
			</output>
		</layer>
		<layer id="277" name="self.layers.2.self_attn.out_proj.weight/zero_point" type="Const" version="opset1">
			<data element_type="u8" shape="1280, 1" offset="59203940" size="1280" />
			<output>
				<port id="0" precision="U8">
					<dim>1280</dim>
					<dim>1</dim>
				</port>
			</output>
		</layer>
		<layer id="278" name="Convert_416876" type="Convert" version="opset1">
			<data destination_type="f16" />
			<input>
				<port id="0" precision="U8">
					<dim>1280</dim>
					<dim>1</dim>
				</port>
			</input>
			<output>
				<port id="1" precision="FP16">
					<dim>1280</dim>
					<dim>1</dim>
				</port>
			</output>
		</layer>
		<layer id="279" name="self.layers.2.self_attn.out_proj.weight/zero_point/subtract" type="Subtract" version="opset1">
			<data auto_broadcast="numpy" />
			<input>
				<port id="0" precision="FP16">
					<dim>1280</dim>
					<dim>1280</dim>
				</port>
				<port id="1" precision="FP16">
					<dim>1280</dim>
					<dim>1</dim>
				</port>
			</input>
			<output>
				<port id="2" precision="FP16">
					<dim>1280</dim>
					<dim>1280</dim>
				</port>
			</output>
		</layer>
		<layer id="280" name="self.layers.2.self_attn.out_proj.weight/scale" type="Const" version="opset1">
			<data element_type="f16" shape="1280, 1" offset="59205220" size="2560" />
			<output>
				<port id="0" precision="FP16">
					<dim>1280</dim>
					<dim>1</dim>
				</port>
			</output>
		</layer>
		<layer id="281" name="self.layers.2.self_attn.out_proj.weight/fq_weights_1" type="Multiply" version="opset1">
			<data auto_broadcast="numpy" />
			<input>
				<port id="0" precision="FP16">
					<dim>1280</dim>
					<dim>1280</dim>
				</port>
				<port id="1" precision="FP16">
					<dim>1280</dim>
					<dim>1</dim>
				</port>
			</input>
			<output>
				<port id="2" precision="FP16">
					<dim>1280</dim>
					<dim>1280</dim>
				</port>
			</output>
		</layer>
		<layer id="282" name="self.layers.2.self_attn.out_proj.weight/fq_weights_1/convert" type="Convert" version="opset1">
			<data destination_type="f32" />
			<input>
				<port id="0" precision="FP16">
					<dim>1280</dim>
					<dim>1280</dim>
				</port>
			</input>
			<output>
				<port id="1" precision="FP32">
					<dim>1280</dim>
					<dim>1280</dim>
				</port>
			</output>
		</layer>
		<layer id="283" name="__module.layers.2.self_attn.out_proj/aten::linear/MatMul" type="MatMul" version="opset1">
			<data transpose_a="false" transpose_b="true" />
			<input>
				<port id="0" precision="FP32">
					<dim>-1</dim>
					<dim>1500</dim>
					<dim>1280</dim>
				</port>
				<port id="1" precision="FP32">
					<dim>1280</dim>
					<dim>1280</dim>
				</port>
			</input>
			<output>
				<port id="2" precision="FP32">
					<dim>-1</dim>
					<dim>1500</dim>
					<dim>1280</dim>
				</port>
			</output>
		</layer>
		<layer id="284" name="Constant_19963" type="Const" version="opset1">
			<data element_type="f32" shape="1, 1, 1280" offset="59207780" size="5120" />
			<output>
				<port id="0" precision="FP32">
					<dim>1</dim>
					<dim>1</dim>
					<dim>1280</dim>
				</port>
			</output>
		</layer>
		<layer id="285" name="__module.layers.2.self_attn.out_proj/aten::linear/Add" type="Add" version="opset1">
			<data auto_broadcast="numpy" />
			<input>
				<port id="0" precision="FP32">
					<dim>-1</dim>
					<dim>1500</dim>
					<dim>1280</dim>
				</port>
				<port id="1" precision="FP32">
					<dim>1</dim>
					<dim>1</dim>
					<dim>1280</dim>
				</port>
			</input>
			<output>
				<port id="2" precision="FP32" names="343,input.15">
					<dim>-1</dim>
					<dim>1500</dim>
					<dim>1280</dim>
				</port>
			</output>
		</layer>
		<layer id="286" name="__module.layers.2/aten::add/Add" type="Add" version="opset1">
			<data auto_broadcast="numpy" />
			<input>
				<port id="0" precision="FP32">
					<dim>-1</dim>
					<dim>1500</dim>
					<dim>1280</dim>
				</port>
				<port id="1" precision="FP32">
					<dim>-1</dim>
					<dim>1500</dim>
					<dim>1280</dim>
				</port>
			</input>
			<output>
				<port id="2" precision="FP32" names="345,residual.11">
					<dim>-1</dim>
					<dim>1500</dim>
					<dim>1280</dim>
				</port>
			</output>
		</layer>
		<layer id="287" name="__module.layers.2.final_layer_norm/aten::layer_norm/Multiply" type="Const" version="opset1">
			<data element_type="i32" shape="1" offset="13104664" size="4" />
			<output>
				<port id="0" precision="I32">
					<dim>1</dim>
				</port>
			</output>
		</layer>
		<layer id="288" name="__module.layers.2.final_layer_norm/aten::layer_norm/MVN" type="MVN" version="opset6">
			<data eps="9.9999997473787516e-06" normalize_variance="true" eps_mode="INSIDE_SQRT" />
			<input>
				<port id="0" precision="FP32">
					<dim>-1</dim>
					<dim>1500</dim>
					<dim>1280</dim>
				</port>
				<port id="1" precision="I32">
					<dim>1</dim>
				</port>
			</input>
			<output>
				<port id="2" precision="FP32">
					<dim>-1</dim>
					<dim>1500</dim>
					<dim>1280</dim>
				</port>
			</output>
		</layer>
		<layer id="289" name="Constant_19964" type="Const" version="opset1">
			<data element_type="f32" shape="1, 1, 1280" offset="59212900" size="5120" />
			<output>
				<port id="0" precision="FP32">
					<dim>1</dim>
					<dim>1</dim>
					<dim>1280</dim>
				</port>
			</output>
		</layer>
		<layer id="290" name="__module.layers.2.final_layer_norm/aten::layer_norm/Multiply_1" type="Multiply" version="opset1">
			<data auto_broadcast="numpy" />
			<input>
				<port id="0" precision="FP32">
					<dim>-1</dim>
					<dim>1500</dim>
					<dim>1280</dim>
				</port>
				<port id="1" precision="FP32">
					<dim>1</dim>
					<dim>1</dim>
					<dim>1280</dim>
				</port>
			</input>
			<output>
				<port id="2" precision="FP32">
					<dim>-1</dim>
					<dim>1500</dim>
					<dim>1280</dim>
				</port>
			</output>
		</layer>
		<layer id="291" name="Constant_19965" type="Const" version="opset1">
			<data element_type="f32" shape="1, 1, 1280" offset="59218020" size="5120" />
			<output>
				<port id="0" precision="FP32">
					<dim>1</dim>
					<dim>1</dim>
					<dim>1280</dim>
				</port>
			</output>
		</layer>
		<layer id="292" name="__module.layers.2.final_layer_norm/aten::layer_norm/Add" type="Add" version="opset1">
			<data auto_broadcast="numpy" />
			<input>
				<port id="0" precision="FP32">
					<dim>-1</dim>
					<dim>1500</dim>
					<dim>1280</dim>
				</port>
				<port id="1" precision="FP32">
					<dim>1</dim>
					<dim>1</dim>
					<dim>1280</dim>
				</port>
			</input>
			<output>
				<port id="2" precision="FP32" names="349">
					<dim>-1</dim>
					<dim>1500</dim>
					<dim>1280</dim>
				</port>
			</output>
		</layer>
		<layer id="293" name="self.layers.2.fc1.weight" type="Const" version="opset1">
			<data element_type="u8" shape="5120, 1280" offset="59223140" size="6553600" />
			<output>
				<port id="0" precision="U8">
					<dim>5120</dim>
					<dim>1280</dim>
				</port>
			</output>
		</layer>
		<layer id="294" name="Convert_73133" type="Convert" version="opset1">
			<data destination_type="f16" />
			<input>
				<port id="0" precision="U8">
					<dim>5120</dim>
					<dim>1280</dim>
				</port>
			</input>
			<output>
				<port id="1" precision="FP16">
					<dim>5120</dim>
					<dim>1280</dim>
				</port>
			</output>
		</layer>
		<layer id="295" name="self.layers.2.fc1.weight/zero_point" type="Const" version="opset1">
			<data element_type="u8" shape="5120, 1" offset="65776740" size="5120" />
			<output>
				<port id="0" precision="U8">
					<dim>5120</dim>
					<dim>1</dim>
				</port>
			</output>
		</layer>
		<layer id="296" name="Convert_73136" type="Convert" version="opset1">
			<data destination_type="f16" />
			<input>
				<port id="0" precision="U8">
					<dim>5120</dim>
					<dim>1</dim>
				</port>
			</input>
			<output>
				<port id="1" precision="FP16">
					<dim>5120</dim>
					<dim>1</dim>
				</port>
			</output>
		</layer>
		<layer id="297" name="self.layers.2.fc1.weight/zero_point/subtract" type="Subtract" version="opset1">
			<data auto_broadcast="numpy" />
			<input>
				<port id="0" precision="FP16">
					<dim>5120</dim>
					<dim>1280</dim>
				</port>
				<port id="1" precision="FP16">
					<dim>5120</dim>
					<dim>1</dim>
				</port>
			</input>
			<output>
				<port id="2" precision="FP16">
					<dim>5120</dim>
					<dim>1280</dim>
				</port>
			</output>
		</layer>
		<layer id="298" name="self.layers.2.fc1.weight/scale" type="Const" version="opset1">
			<data element_type="f16" shape="5120, 1" offset="65781860" size="10240" />
			<output>
				<port id="0" precision="FP16">
					<dim>5120</dim>
					<dim>1</dim>
				</port>
			</output>
		</layer>
		<layer id="299" name="self.layers.2.fc1.weight/fq_weights_1" type="Multiply" version="opset1">
			<data auto_broadcast="numpy" />
			<input>
				<port id="0" precision="FP16">
					<dim>5120</dim>
					<dim>1280</dim>
				</port>
				<port id="1" precision="FP16">
					<dim>5120</dim>
					<dim>1</dim>
				</port>
			</input>
			<output>
				<port id="2" precision="FP16">
					<dim>5120</dim>
					<dim>1280</dim>
				</port>
			</output>
		</layer>
		<layer id="300" name="self.layers.2.fc1.weight/fq_weights_1/convert" type="Convert" version="opset1">
			<data destination_type="f32" />
			<input>
				<port id="0" precision="FP16">
					<dim>5120</dim>
					<dim>1280</dim>
				</port>
			</input>
			<output>
				<port id="1" precision="FP32">
					<dim>5120</dim>
					<dim>1280</dim>
				</port>
			</output>
		</layer>
		<layer id="301" name="__module.layers.2.fc1/aten::linear/MatMul" type="MatMul" version="opset1">
			<data transpose_a="false" transpose_b="true" />
			<input>
				<port id="0" precision="FP32">
					<dim>-1</dim>
					<dim>1500</dim>
					<dim>1280</dim>
				</port>
				<port id="1" precision="FP32">
					<dim>5120</dim>
					<dim>1280</dim>
				</port>
			</input>
			<output>
				<port id="2" precision="FP32">
					<dim>-1</dim>
					<dim>1500</dim>
					<dim>5120</dim>
				</port>
			</output>
		</layer>
		<layer id="302" name="Constant_19966" type="Const" version="opset1">
			<data element_type="f32" shape="1, 1, 5120" offset="65792100" size="20480" />
			<output>
				<port id="0" precision="FP32">
					<dim>1</dim>
					<dim>1</dim>
					<dim>5120</dim>
				</port>
			</output>
		</layer>
		<layer id="303" name="__module.layers.2.fc1/aten::linear/Add" type="Add" version="opset1">
			<data auto_broadcast="numpy" />
			<input>
				<port id="0" precision="FP32">
					<dim>-1</dim>
					<dim>1500</dim>
					<dim>5120</dim>
				</port>
				<port id="1" precision="FP32">
					<dim>1</dim>
					<dim>1</dim>
					<dim>5120</dim>
				</port>
			</input>
			<output>
				<port id="2" precision="FP32" names="352">
					<dim>-1</dim>
					<dim>1500</dim>
					<dim>5120</dim>
				</port>
			</output>
		</layer>
		<layer id="304" name="__module.layers.2.activation_fn/aten::gelu/Gelu" type="Gelu" version="opset7">
			<data approximation_mode="ERF" />
			<input>
				<port id="0" precision="FP32">
					<dim>-1</dim>
					<dim>1500</dim>
					<dim>5120</dim>
				</port>
			</input>
			<output>
				<port id="1" precision="FP32" names="353,input.17">
					<dim>-1</dim>
					<dim>1500</dim>
					<dim>5120</dim>
				</port>
			</output>
		</layer>
		<layer id="305" name="self.layers.2.fc2.weight" type="Const" version="opset1">
			<data element_type="u8" shape="1280, 5120" offset="65812580" size="6553600" />
			<output>
				<port id="0" precision="U8">
					<dim>1280</dim>
					<dim>5120</dim>
				</port>
			</output>
		</layer>
		<layer id="306" name="Convert_77907" type="Convert" version="opset1">
			<data destination_type="f16" />
			<input>
				<port id="0" precision="U8">
					<dim>1280</dim>
					<dim>5120</dim>
				</port>
			</input>
			<output>
				<port id="1" precision="FP16">
					<dim>1280</dim>
					<dim>5120</dim>
				</port>
			</output>
		</layer>
		<layer id="307" name="self.layers.2.fc2.weight/zero_point" type="Const" version="opset1">
			<data element_type="u8" shape="1280, 1" offset="72366180" size="1280" />
			<output>
				<port id="0" precision="U8">
					<dim>1280</dim>
					<dim>1</dim>
				</port>
			</output>
		</layer>
		<layer id="308" name="Convert_77910" type="Convert" version="opset1">
			<data destination_type="f16" />
			<input>
				<port id="0" precision="U8">
					<dim>1280</dim>
					<dim>1</dim>
				</port>
			</input>
			<output>
				<port id="1" precision="FP16">
					<dim>1280</dim>
					<dim>1</dim>
				</port>
			</output>
		</layer>
		<layer id="309" name="self.layers.2.fc2.weight/zero_point/subtract" type="Subtract" version="opset1">
			<data auto_broadcast="numpy" />
			<input>
				<port id="0" precision="FP16">
					<dim>1280</dim>
					<dim>5120</dim>
				</port>
				<port id="1" precision="FP16">
					<dim>1280</dim>
					<dim>1</dim>
				</port>
			</input>
			<output>
				<port id="2" precision="FP16">
					<dim>1280</dim>
					<dim>5120</dim>
				</port>
			</output>
		</layer>
		<layer id="310" name="self.layers.2.fc2.weight/scale" type="Const" version="opset1">
			<data element_type="f16" shape="1280, 1" offset="72367460" size="2560" />
			<output>
				<port id="0" precision="FP16">
					<dim>1280</dim>
					<dim>1</dim>
				</port>
			</output>
		</layer>
		<layer id="311" name="self.layers.2.fc2.weight/fq_weights_1" type="Multiply" version="opset1">
			<data auto_broadcast="numpy" />
			<input>
				<port id="0" precision="FP16">
					<dim>1280</dim>
					<dim>5120</dim>
				</port>
				<port id="1" precision="FP16">
					<dim>1280</dim>
					<dim>1</dim>
				</port>
			</input>
			<output>
				<port id="2" precision="FP16">
					<dim>1280</dim>
					<dim>5120</dim>
				</port>
			</output>
		</layer>
		<layer id="312" name="self.layers.2.fc2.weight/fq_weights_1/convert" type="Convert" version="opset1">
			<data destination_type="f32" />
			<input>
				<port id="0" precision="FP16">
					<dim>1280</dim>
					<dim>5120</dim>
				</port>
			</input>
			<output>
				<port id="1" precision="FP32">
					<dim>1280</dim>
					<dim>5120</dim>
				</port>
			</output>
		</layer>
		<layer id="313" name="__module.layers.2.fc2/aten::linear/MatMul" type="MatMul" version="opset1">
			<data transpose_a="false" transpose_b="true" />
			<input>
				<port id="0" precision="FP32">
					<dim>-1</dim>
					<dim>1500</dim>
					<dim>5120</dim>
				</port>
				<port id="1" precision="FP32">
					<dim>1280</dim>
					<dim>5120</dim>
				</port>
			</input>
			<output>
				<port id="2" precision="FP32">
					<dim>-1</dim>
					<dim>1500</dim>
					<dim>1280</dim>
				</port>
			</output>
		</layer>
		<layer id="314" name="Constant_19967" type="Const" version="opset1">
			<data element_type="f32" shape="1, 1, 1280" offset="72370020" size="5120" />
			<output>
				<port id="0" precision="FP32">
					<dim>1</dim>
					<dim>1</dim>
					<dim>1280</dim>
				</port>
			</output>
		</layer>
		<layer id="315" name="__module.layers.2.fc2/aten::linear/Add" type="Add" version="opset1">
			<data auto_broadcast="numpy" />
			<input>
				<port id="0" precision="FP32">
					<dim>-1</dim>
					<dim>1500</dim>
					<dim>1280</dim>
				</port>
				<port id="1" precision="FP32">
					<dim>1</dim>
					<dim>1</dim>
					<dim>1280</dim>
				</port>
			</input>
			<output>
				<port id="2" precision="FP32" names="357,input.19">
					<dim>-1</dim>
					<dim>1500</dim>
					<dim>1280</dim>
				</port>
			</output>
		</layer>
		<layer id="316" name="__module.layers.2/aten::add/Add_1" type="Add" version="opset1">
			<data auto_broadcast="numpy" />
			<input>
				<port id="0" precision="FP32">
					<dim>-1</dim>
					<dim>1500</dim>
					<dim>1280</dim>
				</port>
				<port id="1" precision="FP32">
					<dim>-1</dim>
					<dim>1500</dim>
					<dim>1280</dim>
				</port>
			</input>
			<output>
				<port id="2" precision="FP32" names="359,residual.13">
					<dim>-1</dim>
					<dim>1500</dim>
					<dim>1280</dim>
				</port>
			</output>
		</layer>
		<layer id="317" name="__module.layers.3.self_attn_layer_norm/aten::layer_norm/Multiply" type="Const" version="opset1">
			<data element_type="i32" shape="1" offset="13104664" size="4" />
			<output>
				<port id="0" precision="I32">
					<dim>1</dim>
				</port>
			</output>
		</layer>
		<layer id="318" name="__module.layers.3.self_attn_layer_norm/aten::layer_norm/MVN" type="MVN" version="opset6">
			<data eps="9.9999997473787516e-06" normalize_variance="true" eps_mode="INSIDE_SQRT" />
			<input>
				<port id="0" precision="FP32">
					<dim>-1</dim>
					<dim>1500</dim>
					<dim>1280</dim>
				</port>
				<port id="1" precision="I32">
					<dim>1</dim>
				</port>
			</input>
			<output>
				<port id="2" precision="FP32">
					<dim>-1</dim>
					<dim>1500</dim>
					<dim>1280</dim>
				</port>
			</output>
		</layer>
		<layer id="319" name="Constant_19968" type="Const" version="opset1">
			<data element_type="f32" shape="1, 1, 1280" offset="72375140" size="5120" />
			<output>
				<port id="0" precision="FP32">
					<dim>1</dim>
					<dim>1</dim>
					<dim>1280</dim>
				</port>
			</output>
		</layer>
		<layer id="320" name="__module.layers.3.self_attn_layer_norm/aten::layer_norm/Multiply_1" type="Multiply" version="opset1">
			<data auto_broadcast="numpy" />
			<input>
				<port id="0" precision="FP32">
					<dim>-1</dim>
					<dim>1500</dim>
					<dim>1280</dim>
				</port>
				<port id="1" precision="FP32">
					<dim>1</dim>
					<dim>1</dim>
					<dim>1280</dim>
				</port>
			</input>
			<output>
				<port id="2" precision="FP32">
					<dim>-1</dim>
					<dim>1500</dim>
					<dim>1280</dim>
				</port>
			</output>
		</layer>
		<layer id="321" name="Constant_19969" type="Const" version="opset1">
			<data element_type="f32" shape="1, 1, 1280" offset="72380260" size="5120" />
			<output>
				<port id="0" precision="FP32">
					<dim>1</dim>
					<dim>1</dim>
					<dim>1280</dim>
				</port>
			</output>
		</layer>
		<layer id="322" name="__module.layers.3.self_attn_layer_norm/aten::layer_norm/Add" type="Add" version="opset1">
			<data auto_broadcast="numpy" />
			<input>
				<port id="0" precision="FP32">
					<dim>-1</dim>
					<dim>1500</dim>
					<dim>1280</dim>
				</port>
				<port id="1" precision="FP32">
					<dim>1</dim>
					<dim>1</dim>
					<dim>1280</dim>
				</port>
			</input>
			<output>
				<port id="2" precision="FP32" names="382,hidden_states.19">
					<dim>-1</dim>
					<dim>1500</dim>
					<dim>1280</dim>
				</port>
			</output>
		</layer>
		<layer id="323" name="self.layers.3.self_attn.q_proj.weight" type="Const" version="opset1">
			<data element_type="u8" shape="1280, 1280" offset="72385380" size="1638400" />
			<output>
				<port id="0" precision="U8">
					<dim>1280</dim>
					<dim>1280</dim>
				</port>
			</output>
		</layer>
		<layer id="324" name="Convert_431195" type="Convert" version="opset1">
			<data destination_type="f16" />
			<input>
				<port id="0" precision="U8">
					<dim>1280</dim>
					<dim>1280</dim>
				</port>
			</input>
			<output>
				<port id="1" precision="FP16">
					<dim>1280</dim>
					<dim>1280</dim>
				</port>
			</output>
		</layer>
		<layer id="325" name="self.layers.3.self_attn.q_proj.weight/zero_point" type="Const" version="opset1">
			<data element_type="u8" shape="1280, 1" offset="74023780" size="1280" />
			<output>
				<port id="0" precision="U8">
					<dim>1280</dim>
					<dim>1</dim>
				</port>
			</output>
		</layer>
		<layer id="326" name="Convert_431198" type="Convert" version="opset1">
			<data destination_type="f16" />
			<input>
				<port id="0" precision="U8">
					<dim>1280</dim>
					<dim>1</dim>
				</port>
			</input>
			<output>
				<port id="1" precision="FP16">
					<dim>1280</dim>
					<dim>1</dim>
				</port>
			</output>
		</layer>
		<layer id="327" name="self.layers.3.self_attn.q_proj.weight/zero_point/subtract" type="Subtract" version="opset1">
			<data auto_broadcast="numpy" />
			<input>
				<port id="0" precision="FP16">
					<dim>1280</dim>
					<dim>1280</dim>
				</port>
				<port id="1" precision="FP16">
					<dim>1280</dim>
					<dim>1</dim>
				</port>
			</input>
			<output>
				<port id="2" precision="FP16">
					<dim>1280</dim>
					<dim>1280</dim>
				</port>
			</output>
		</layer>
		<layer id="328" name="self.layers.3.self_attn.q_proj.weight/scale" type="Const" version="opset1">
			<data element_type="f16" shape="1280, 1" offset="74025060" size="2560" />
			<output>
				<port id="0" precision="FP16">
					<dim>1280</dim>
					<dim>1</dim>
				</port>
			</output>
		</layer>
		<layer id="329" name="self.layers.3.self_attn.q_proj.weight/fq_weights_1" type="Multiply" version="opset1">
			<data auto_broadcast="numpy" />
			<input>
				<port id="0" precision="FP16">
					<dim>1280</dim>
					<dim>1280</dim>
				</port>
				<port id="1" precision="FP16">
					<dim>1280</dim>
					<dim>1</dim>
				</port>
			</input>
			<output>
				<port id="2" precision="FP16">
					<dim>1280</dim>
					<dim>1280</dim>
				</port>
			</output>
		</layer>
		<layer id="330" name="self.layers.3.self_attn.q_proj.weight/fq_weights_1/convert" type="Convert" version="opset1">
			<data destination_type="f32" />
			<input>
				<port id="0" precision="FP16">
					<dim>1280</dim>
					<dim>1280</dim>
				</port>
			</input>
			<output>
				<port id="1" precision="FP32">
					<dim>1280</dim>
					<dim>1280</dim>
				</port>
			</output>
		</layer>
		<layer id="331" name="__module.layers.3.self_attn.q_proj/aten::linear/MatMul" type="MatMul" version="opset1">
			<data transpose_a="false" transpose_b="true" />
			<input>
				<port id="0" precision="FP32">
					<dim>-1</dim>
					<dim>1500</dim>
					<dim>1280</dim>
				</port>
				<port id="1" precision="FP32">
					<dim>1280</dim>
					<dim>1280</dim>
				</port>
			</input>
			<output>
				<port id="2" precision="FP32">
					<dim>-1</dim>
					<dim>1500</dim>
					<dim>1280</dim>
				</port>
			</output>
		</layer>
		<layer id="332" name="Constant_19970" type="Const" version="opset1">
			<data element_type="f32" shape="1, 1, 1280" offset="74027620" size="5120" />
			<output>
				<port id="0" precision="FP32">
					<dim>1</dim>
					<dim>1</dim>
					<dim>1280</dim>
				</port>
			</output>
		</layer>
		<layer id="333" name="__module.layers.3.self_attn.q_proj/aten::linear/Add" type="Add" version="opset1">
			<data auto_broadcast="numpy" />
			<input>
				<port id="0" precision="FP32">
					<dim>-1</dim>
					<dim>1500</dim>
					<dim>1280</dim>
				</port>
				<port id="1" precision="FP32">
					<dim>1</dim>
					<dim>1</dim>
					<dim>1280</dim>
				</port>
			</input>
			<output>
				<port id="2" precision="FP32" names="391,tensor.19">
					<dim>-1</dim>
					<dim>1500</dim>
					<dim>1280</dim>
				</port>
			</output>
		</layer>
		<layer id="334" name="Constant_20791" type="Const" version="opset1">
			<data element_type="i64" shape="4" offset="14762268" size="32" />
			<output>
				<port id="0" precision="I64">
					<dim>4</dim>
				</port>
			</output>
		</layer>
		<layer id="335" name="__module.layers.3.self_attn/aten::view/Reshape" type="Reshape" version="opset1">
			<data special_zero="true" />
			<input>
				<port id="0" precision="FP32">
					<dim>-1</dim>
					<dim>1500</dim>
					<dim>1280</dim>
				</port>
				<port id="1" precision="I64">
					<dim>4</dim>
				</port>
			</input>
			<output>
				<port id="2" precision="FP32" names="393">
					<dim>-1</dim>
					<dim>1500</dim>
					<dim>20</dim>
					<dim>64</dim>
				</port>
			</output>
		</layer>
		<layer id="336" name="__module.layers.3.self_attn/aten::transpose/Constant" type="Const" version="opset1">
			<data element_type="i32" shape="4" offset="14762300" size="16" />
			<output>
				<port id="0" precision="I32">
					<dim>4</dim>
				</port>
			</output>
		</layer>
		<layer id="337" name="__module.layers.3.self_attn/aten::transpose/Transpose" type="Transpose" version="opset1">
			<input>
				<port id="0" precision="FP32">
					<dim>-1</dim>
					<dim>1500</dim>
					<dim>20</dim>
					<dim>64</dim>
				</port>
				<port id="1" precision="I32">
					<dim>4</dim>
				</port>
			</input>
			<output>
				<port id="2" precision="FP32" names="394">
					<dim>-1</dim>
					<dim>20</dim>
					<dim>1500</dim>
					<dim>64</dim>
				</port>
			</output>
		</layer>
		<layer id="338" name="self.layers.3.self_attn.k_proj.weight" type="Const" version="opset1">
			<data element_type="u8" shape="1280, 1280" offset="74032740" size="1638400" />
			<output>
				<port id="0" precision="U8">
					<dim>1280</dim>
					<dim>1280</dim>
				</port>
			</output>
		</layer>
		<layer id="339" name="Convert_426421" type="Convert" version="opset1">
			<data destination_type="f16" />
			<input>
				<port id="0" precision="U8">
					<dim>1280</dim>
					<dim>1280</dim>
				</port>
			</input>
			<output>
				<port id="1" precision="FP16">
					<dim>1280</dim>
					<dim>1280</dim>
				</port>
			</output>
		</layer>
		<layer id="340" name="self.layers.3.self_attn.k_proj.weight/zero_point" type="Const" version="opset1">
			<data element_type="u8" shape="1280, 1" offset="75671140" size="1280" />
			<output>
				<port id="0" precision="U8">
					<dim>1280</dim>
					<dim>1</dim>
				</port>
			</output>
		</layer>
		<layer id="341" name="Convert_426424" type="Convert" version="opset1">
			<data destination_type="f16" />
			<input>
				<port id="0" precision="U8">
					<dim>1280</dim>
					<dim>1</dim>
				</port>
			</input>
			<output>
				<port id="1" precision="FP16">
					<dim>1280</dim>
					<dim>1</dim>
				</port>
			</output>
		</layer>
		<layer id="342" name="self.layers.3.self_attn.k_proj.weight/zero_point/subtract" type="Subtract" version="opset1">
			<data auto_broadcast="numpy" />
			<input>
				<port id="0" precision="FP16">
					<dim>1280</dim>
					<dim>1280</dim>
				</port>
				<port id="1" precision="FP16">
					<dim>1280</dim>
					<dim>1</dim>
				</port>
			</input>
			<output>
				<port id="2" precision="FP16">
					<dim>1280</dim>
					<dim>1280</dim>
				</port>
			</output>
		</layer>
		<layer id="343" name="self.layers.3.self_attn.k_proj.weight/scale" type="Const" version="opset1">
			<data element_type="f16" shape="1280, 1" offset="75672420" size="2560" />
			<output>
				<port id="0" precision="FP16">
					<dim>1280</dim>
					<dim>1</dim>
				</port>
			</output>
		</layer>
		<layer id="344" name="self.layers.3.self_attn.k_proj.weight/fq_weights_1" type="Multiply" version="opset1">
			<data auto_broadcast="numpy" />
			<input>
				<port id="0" precision="FP16">
					<dim>1280</dim>
					<dim>1280</dim>
				</port>
				<port id="1" precision="FP16">
					<dim>1280</dim>
					<dim>1</dim>
				</port>
			</input>
			<output>
				<port id="2" precision="FP16">
					<dim>1280</dim>
					<dim>1280</dim>
				</port>
			</output>
		</layer>
		<layer id="345" name="self.layers.3.self_attn.k_proj.weight/fq_weights_1/convert" type="Convert" version="opset1">
			<data destination_type="f32" />
			<input>
				<port id="0" precision="FP16">
					<dim>1280</dim>
					<dim>1280</dim>
				</port>
			</input>
			<output>
				<port id="1" precision="FP32">
					<dim>1280</dim>
					<dim>1280</dim>
				</port>
			</output>
		</layer>
		<layer id="346" name="__module.layers.3.self_attn.k_proj/aten::linear/MatMul" type="MatMul" version="opset1">
			<data transpose_a="false" transpose_b="true" />
			<input>
				<port id="0" precision="FP32">
					<dim>-1</dim>
					<dim>1500</dim>
					<dim>1280</dim>
				</port>
				<port id="1" precision="FP32">
					<dim>1280</dim>
					<dim>1280</dim>
				</port>
			</input>
			<output>
				<port id="2" precision="FP32" names="397,tensor.21">
					<dim>-1</dim>
					<dim>1500</dim>
					<dim>1280</dim>
				</port>
			</output>
		</layer>
		<layer id="347" name="Constant_20792" type="Const" version="opset1">
			<data element_type="i64" shape="4" offset="14762268" size="32" />
			<output>
				<port id="0" precision="I64">
					<dim>4</dim>
				</port>
			</output>
		</layer>
		<layer id="348" name="__module.layers.3.self_attn/aten::view/Reshape_1" type="Reshape" version="opset1">
			<data special_zero="true" />
			<input>
				<port id="0" precision="FP32">
					<dim>-1</dim>
					<dim>1500</dim>
					<dim>1280</dim>
				</port>
				<port id="1" precision="I64">
					<dim>4</dim>
				</port>
			</input>
			<output>
				<port id="2" precision="FP32" names="399">
					<dim>-1</dim>
					<dim>1500</dim>
					<dim>20</dim>
					<dim>64</dim>
				</port>
			</output>
		</layer>
		<layer id="349" name="__module.layers.3.self_attn/aten::transpose/Constant_1" type="Const" version="opset1">
			<data element_type="i32" shape="4" offset="14762300" size="16" />
			<output>
				<port id="0" precision="I32">
					<dim>4</dim>
				</port>
			</output>
		</layer>
		<layer id="350" name="__module.layers.3.self_attn/aten::transpose/Transpose_1" type="Transpose" version="opset1">
			<input>
				<port id="0" precision="FP32">
					<dim>-1</dim>
					<dim>1500</dim>
					<dim>20</dim>
					<dim>64</dim>
				</port>
				<port id="1" precision="I32">
					<dim>4</dim>
				</port>
			</input>
			<output>
				<port id="2" precision="FP32" names="400">
					<dim>-1</dim>
					<dim>20</dim>
					<dim>1500</dim>
					<dim>64</dim>
				</port>
			</output>
		</layer>
		<layer id="351" name="self.layers.3.self_attn.v_proj.weight" type="Const" version="opset1">
			<data element_type="u8" shape="1280, 1280" offset="75674980" size="1638400" />
			<output>
				<port id="0" precision="U8">
					<dim>1280</dim>
					<dim>1280</dim>
				</port>
			</output>
		</layer>
		<layer id="352" name="Convert_421647" type="Convert" version="opset1">
			<data destination_type="f16" />
			<input>
				<port id="0" precision="U8">
					<dim>1280</dim>
					<dim>1280</dim>
				</port>
			</input>
			<output>
				<port id="1" precision="FP16">
					<dim>1280</dim>
					<dim>1280</dim>
				</port>
			</output>
		</layer>
		<layer id="353" name="self.layers.3.self_attn.v_proj.weight/zero_point" type="Const" version="opset1">
			<data element_type="u8" shape="1280, 1" offset="77313380" size="1280" />
			<output>
				<port id="0" precision="U8">
					<dim>1280</dim>
					<dim>1</dim>
				</port>
			</output>
		</layer>
		<layer id="354" name="Convert_421650" type="Convert" version="opset1">
			<data destination_type="f16" />
			<input>
				<port id="0" precision="U8">
					<dim>1280</dim>
					<dim>1</dim>
				</port>
			</input>
			<output>
				<port id="1" precision="FP16">
					<dim>1280</dim>
					<dim>1</dim>
				</port>
			</output>
		</layer>
		<layer id="355" name="self.layers.3.self_attn.v_proj.weight/zero_point/subtract" type="Subtract" version="opset1">
			<data auto_broadcast="numpy" />
			<input>
				<port id="0" precision="FP16">
					<dim>1280</dim>
					<dim>1280</dim>
				</port>
				<port id="1" precision="FP16">
					<dim>1280</dim>
					<dim>1</dim>
				</port>
			</input>
			<output>
				<port id="2" precision="FP16">
					<dim>1280</dim>
					<dim>1280</dim>
				</port>
			</output>
		</layer>
		<layer id="356" name="self.layers.3.self_attn.v_proj.weight/scale" type="Const" version="opset1">
			<data element_type="f16" shape="1280, 1" offset="77314660" size="2560" />
			<output>
				<port id="0" precision="FP16">
					<dim>1280</dim>
					<dim>1</dim>
				</port>
			</output>
		</layer>
		<layer id="357" name="self.layers.3.self_attn.v_proj.weight/fq_weights_1" type="Multiply" version="opset1">
			<data auto_broadcast="numpy" />
			<input>
				<port id="0" precision="FP16">
					<dim>1280</dim>
					<dim>1280</dim>
				</port>
				<port id="1" precision="FP16">
					<dim>1280</dim>
					<dim>1</dim>
				</port>
			</input>
			<output>
				<port id="2" precision="FP16">
					<dim>1280</dim>
					<dim>1280</dim>
				</port>
			</output>
		</layer>
		<layer id="358" name="self.layers.3.self_attn.v_proj.weight/fq_weights_1/convert" type="Convert" version="opset1">
			<data destination_type="f32" />
			<input>
				<port id="0" precision="FP16">
					<dim>1280</dim>
					<dim>1280</dim>
				</port>
			</input>
			<output>
				<port id="1" precision="FP32">
					<dim>1280</dim>
					<dim>1280</dim>
				</port>
			</output>
		</layer>
		<layer id="359" name="__module.layers.3.self_attn.v_proj/aten::linear/MatMul" type="MatMul" version="opset1">
			<data transpose_a="false" transpose_b="true" />
			<input>
				<port id="0" precision="FP32">
					<dim>-1</dim>
					<dim>1500</dim>
					<dim>1280</dim>
				</port>
				<port id="1" precision="FP32">
					<dim>1280</dim>
					<dim>1280</dim>
				</port>
			</input>
			<output>
				<port id="2" precision="FP32">
					<dim>-1</dim>
					<dim>1500</dim>
					<dim>1280</dim>
				</port>
			</output>
		</layer>
		<layer id="360" name="Constant_19971" type="Const" version="opset1">
			<data element_type="f32" shape="1, 1, 1280" offset="77317220" size="5120" />
			<output>
				<port id="0" precision="FP32">
					<dim>1</dim>
					<dim>1</dim>
					<dim>1280</dim>
				</port>
			</output>
		</layer>
		<layer id="361" name="__module.layers.3.self_attn.v_proj/aten::linear/Add" type="Add" version="opset1">
			<data auto_broadcast="numpy" />
			<input>
				<port id="0" precision="FP32">
					<dim>-1</dim>
					<dim>1500</dim>
					<dim>1280</dim>
				</port>
				<port id="1" precision="FP32">
					<dim>1</dim>
					<dim>1</dim>
					<dim>1280</dim>
				</port>
			</input>
			<output>
				<port id="2" precision="FP32" names="404,tensor.23">
					<dim>-1</dim>
					<dim>1500</dim>
					<dim>1280</dim>
				</port>
			</output>
		</layer>
		<layer id="362" name="Constant_20793" type="Const" version="opset1">
			<data element_type="i64" shape="4" offset="14762268" size="32" />
			<output>
				<port id="0" precision="I64">
					<dim>4</dim>
				</port>
			</output>
		</layer>
		<layer id="363" name="__module.layers.3.self_attn/aten::view/Reshape_2" type="Reshape" version="opset1">
			<data special_zero="true" />
			<input>
				<port id="0" precision="FP32">
					<dim>-1</dim>
					<dim>1500</dim>
					<dim>1280</dim>
				</port>
				<port id="1" precision="I64">
					<dim>4</dim>
				</port>
			</input>
			<output>
				<port id="2" precision="FP32" names="406">
					<dim>-1</dim>
					<dim>1500</dim>
					<dim>20</dim>
					<dim>64</dim>
				</port>
			</output>
		</layer>
		<layer id="364" name="__module.layers.3.self_attn/aten::transpose/Constant_2" type="Const" version="opset1">
			<data element_type="i32" shape="4" offset="14762300" size="16" />
			<output>
				<port id="0" precision="I32">
					<dim>4</dim>
				</port>
			</output>
		</layer>
		<layer id="365" name="__module.layers.3.self_attn/aten::transpose/Transpose_2" type="Transpose" version="opset1">
			<input>
				<port id="0" precision="FP32">
					<dim>-1</dim>
					<dim>1500</dim>
					<dim>20</dim>
					<dim>64</dim>
				</port>
				<port id="1" precision="I32">
					<dim>4</dim>
				</port>
			</input>
			<output>
				<port id="2" precision="FP32" names="407">
					<dim>-1</dim>
					<dim>20</dim>
					<dim>1500</dim>
					<dim>64</dim>
				</port>
			</output>
		</layer>
		<layer id="366" name="__module.layers.3.self_attn/aten::scaled_dot_product_attention/ScaledDotProductAttention" type="ScaledDotProductAttention" version="opset13">
			<data causal="false" />
			<input>
				<port id="0" precision="FP32">
					<dim>-1</dim>
					<dim>20</dim>
					<dim>1500</dim>
					<dim>64</dim>
				</port>
				<port id="1" precision="FP32">
					<dim>-1</dim>
					<dim>20</dim>
					<dim>1500</dim>
					<dim>64</dim>
				</port>
				<port id="2" precision="FP32">
					<dim>-1</dim>
					<dim>20</dim>
					<dim>1500</dim>
					<dim>64</dim>
				</port>
			</input>
			<output>
				<port id="3" precision="FP32" names="409,attn_output.13">
					<dim>-1</dim>
					<dim>20</dim>
					<dim>1500</dim>
					<dim>64</dim>
				</port>
			</output>
		</layer>
		<layer id="367" name="__module.layers.3.self_attn/aten::transpose/Constant_3" type="Const" version="opset1">
			<data element_type="i32" shape="4" offset="14762300" size="16" />
			<output>
				<port id="0" precision="I32">
					<dim>4</dim>
				</port>
			</output>
		</layer>
		<layer id="368" name="__module.layers.3.self_attn/aten::transpose/Transpose_3" type="Transpose" version="opset1">
			<input>
				<port id="0" precision="FP32">
					<dim>-1</dim>
					<dim>20</dim>
					<dim>1500</dim>
					<dim>64</dim>
				</port>
				<port id="1" precision="I32">
					<dim>4</dim>
				</port>
			</input>
			<output>
				<port id="2" precision="FP32" names="410,attn_output.15">
					<dim>-1</dim>
					<dim>1500</dim>
					<dim>20</dim>
					<dim>64</dim>
				</port>
			</output>
		</layer>
		<layer id="369" name="Constant_20794" type="Const" version="opset1">
			<data element_type="i64" shape="3" offset="18051916" size="24" />
			<output>
				<port id="0" precision="I64">
					<dim>3</dim>
				</port>
			</output>
		</layer>
		<layer id="370" name="__module.layers.3.self_attn/aten::reshape/Reshape" type="Reshape" version="opset1">
			<data special_zero="true" />
			<input>
				<port id="0" precision="FP32">
					<dim>-1</dim>
					<dim>1500</dim>
					<dim>20</dim>
					<dim>64</dim>
				</port>
				<port id="1" precision="I64">
					<dim>3</dim>
				</port>
			</input>
			<output>
				<port id="2" precision="FP32" names="412">
					<dim>-1</dim>
					<dim>1500</dim>
					<dim>1280</dim>
				</port>
			</output>
		</layer>
		<layer id="371" name="self.layers.3.self_attn.out_proj.weight" type="Const" version="opset1">
			<data element_type="u8" shape="1280, 1280" offset="77322340" size="1638400" />
			<output>
				<port id="0" precision="U8">
					<dim>1280</dim>
					<dim>1280</dim>
				</port>
			</output>
		</layer>
		<layer id="372" name="Convert_435969" type="Convert" version="opset1">
			<data destination_type="f16" />
			<input>
				<port id="0" precision="U8">
					<dim>1280</dim>
					<dim>1280</dim>
				</port>
			</input>
			<output>
				<port id="1" precision="FP16">
					<dim>1280</dim>
					<dim>1280</dim>
				</port>
			</output>
		</layer>
		<layer id="373" name="self.layers.3.self_attn.out_proj.weight/zero_point" type="Const" version="opset1">
			<data element_type="u8" shape="1280, 1" offset="78960740" size="1280" />
			<output>
				<port id="0" precision="U8">
					<dim>1280</dim>
					<dim>1</dim>
				</port>
			</output>
		</layer>
		<layer id="374" name="Convert_435972" type="Convert" version="opset1">
			<data destination_type="f16" />
			<input>
				<port id="0" precision="U8">
					<dim>1280</dim>
					<dim>1</dim>
				</port>
			</input>
			<output>
				<port id="1" precision="FP16">
					<dim>1280</dim>
					<dim>1</dim>
				</port>
			</output>
		</layer>
		<layer id="375" name="self.layers.3.self_attn.out_proj.weight/zero_point/subtract" type="Subtract" version="opset1">
			<data auto_broadcast="numpy" />
			<input>
				<port id="0" precision="FP16">
					<dim>1280</dim>
					<dim>1280</dim>
				</port>
				<port id="1" precision="FP16">
					<dim>1280</dim>
					<dim>1</dim>
				</port>
			</input>
			<output>
				<port id="2" precision="FP16">
					<dim>1280</dim>
					<dim>1280</dim>
				</port>
			</output>
		</layer>
		<layer id="376" name="self.layers.3.self_attn.out_proj.weight/scale" type="Const" version="opset1">
			<data element_type="f16" shape="1280, 1" offset="78962020" size="2560" />
			<output>
				<port id="0" precision="FP16">
					<dim>1280</dim>
					<dim>1</dim>
				</port>
			</output>
		</layer>
		<layer id="377" name="self.layers.3.self_attn.out_proj.weight/fq_weights_1" type="Multiply" version="opset1">
			<data auto_broadcast="numpy" />
			<input>
				<port id="0" precision="FP16">
					<dim>1280</dim>
					<dim>1280</dim>
				</port>
				<port id="1" precision="FP16">
					<dim>1280</dim>
					<dim>1</dim>
				</port>
			</input>
			<output>
				<port id="2" precision="FP16">
					<dim>1280</dim>
					<dim>1280</dim>
				</port>
			</output>
		</layer>
		<layer id="378" name="self.layers.3.self_attn.out_proj.weight/fq_weights_1/convert" type="Convert" version="opset1">
			<data destination_type="f32" />
			<input>
				<port id="0" precision="FP16">
					<dim>1280</dim>
					<dim>1280</dim>
				</port>
			</input>
			<output>
				<port id="1" precision="FP32">
					<dim>1280</dim>
					<dim>1280</dim>
				</port>
			</output>
		</layer>
		<layer id="379" name="__module.layers.3.self_attn.out_proj/aten::linear/MatMul" type="MatMul" version="opset1">
			<data transpose_a="false" transpose_b="true" />
			<input>
				<port id="0" precision="FP32">
…
		<edge from-layer="2448" from-port="0" to-layer="2449" to-port="1" />
		<edge from-layer="2449" from-port="2" to-layer="2478" to-port="0" />
		<edge from-layer="2450" from-port="0" to-layer="2451" to-port="0" />
		<edge from-layer="2451" from-port="1" to-layer="2454" to-port="0" />
		<edge from-layer="2452" from-port="0" to-layer="2453" to-port="0" />
		<edge from-layer="2453" from-port="1" to-layer="2454" to-port="1" />
		<edge from-layer="2454" from-port="2" to-layer="2456" to-port="0" />
		<edge from-layer="2455" from-port="0" to-layer="2456" to-port="1" />
		<edge from-layer="2456" from-port="2" to-layer="2457" to-port="0" />
		<edge from-layer="2457" from-port="1" to-layer="2458" to-port="1" />
		<edge from-layer="2458" from-port="2" to-layer="2460" to-port="0" />
		<edge from-layer="2459" from-port="0" to-layer="2460" to-port="1" />
		<edge from-layer="2460" from-port="2" to-layer="2462" to-port="0" />
		<edge from-layer="2461" from-port="0" to-layer="2462" to-port="1" />
		<edge from-layer="2462" from-port="2" to-layer="2478" to-port="1" />
		<edge from-layer="2463" from-port="0" to-layer="2464" to-port="0" />
		<edge from-layer="2464" from-port="1" to-layer="2467" to-port="0" />
		<edge from-layer="2465" from-port="0" to-layer="2466" to-port="0" />
		<edge from-layer="2466" from-port="1" to-layer="2467" to-port="1" />
		<edge from-layer="2467" from-port="2" to-layer="2469" to-port="0" />
		<edge from-layer="2468" from-port="0" to-layer="2469" to-port="1" />
		<edge from-layer="2469" from-port="2" to-layer="2470" to-port="0" />
		<edge from-layer="2470" from-port="1" to-layer="2471" to-port="1" />
		<edge from-layer="2471" from-port="2" to-layer="2473" to-port="0" />
		<edge from-layer="2472" from-port="0" to-layer="2473" to-port="1" />
		<edge from-layer="2473" from-port="2" to-layer="2475" to-port="0" />
		<edge from-layer="2474" from-port="0" to-layer="2475" to-port="1" />
		<edge from-layer="2475" from-port="2" to-layer="2477" to-port="0" />
		<edge from-layer="2476" from-port="0" to-layer="2477" to-port="1" />
		<edge from-layer="2477" from-port="2" to-layer="2478" to-port="2" />
		<edge from-layer="2478" from-port="3" to-layer="2480" to-port="0" />
		<edge from-layer="2479" from-port="0" to-layer="2480" to-port="1" />
		<edge from-layer="2480" from-port="2" to-layer="2482" to-port="0" />
		<edge from-layer="2481" from-port="0" to-layer="2482" to-port="1" />
		<edge from-layer="2482" from-port="2" to-layer="2491" to-port="0" />
		<edge from-layer="2483" from-port="0" to-layer="2484" to-port="0" />
		<edge from-layer="2484" from-port="1" to-layer="2487" to-port="0" />
		<edge from-layer="2485" from-port="0" to-layer="2486" to-port="0" />
		<edge from-layer="2486" from-port="1" to-layer="2487" to-port="1" />
		<edge from-layer="2487" from-port="2" to-layer="2489" to-port="0" />
		<edge from-layer="2488" from-port="0" to-layer="2489" to-port="1" />
		<edge from-layer="2489" from-port="2" to-layer="2490" to-port="0" />
		<edge from-layer="2490" from-port="1" to-layer="2491" to-port="1" />
		<edge from-layer="2491" from-port="2" to-layer="2493" to-port="0" />
		<edge from-layer="2492" from-port="0" to-layer="2493" to-port="1" />
		<edge from-layer="2493" from-port="2" to-layer="2494" to-port="1" />
		<edge from-layer="2494" from-port="2" to-layer="2496" to-port="0" />
		<edge from-layer="2494" from-port="2" to-layer="2524" to-port="0" />
		<edge from-layer="2495" from-port="0" to-layer="2496" to-port="1" />
		<edge from-layer="2496" from-port="2" to-layer="2498" to-port="0" />
		<edge from-layer="2497" from-port="0" to-layer="2498" to-port="1" />
		<edge from-layer="2498" from-port="2" to-layer="2500" to-port="0" />
		<edge from-layer="2499" from-port="0" to-layer="2500" to-port="1" />
		<edge from-layer="2500" from-port="2" to-layer="2509" to-port="0" />
		<edge from-layer="2501" from-port="0" to-layer="2502" to-port="0" />
		<edge from-layer="2502" from-port="1" to-layer="2505" to-port="0" />
		<edge from-layer="2503" from-port="0" to-layer="2504" to-port="0" />
		<edge from-layer="2504" from-port="1" to-layer="2505" to-port="1" />
		<edge from-layer="2505" from-port="2" to-layer="2507" to-port="0" />
		<edge from-layer="2506" from-port="0" to-layer="2507" to-port="1" />
		<edge from-layer="2507" from-port="2" to-layer="2508" to-port="0" />
		<edge from-layer="2508" from-port="1" to-layer="2509" to-port="1" />
		<edge from-layer="2509" from-port="2" to-layer="2511" to-port="0" />
		<edge from-layer="2510" from-port="0" to-layer="2511" to-port="1" />
		<edge from-layer="2511" from-port="2" to-layer="2512" to-port="0" />
		<edge from-layer="2512" from-port="1" to-layer="2521" to-port="0" />
		<edge from-layer="2513" from-port="0" to-layer="2514" to-port="0" />
		<edge from-layer="2514" from-port="1" to-layer="2517" to-port="0" />
		<edge from-layer="2515" from-port="0" to-layer="2516" to-port="0" />
		<edge from-layer="2516" from-port="1" to-layer="2517" to-port="1" />
		<edge from-layer="2517" from-port="2" to-layer="2519" to-port="0" />
		<edge from-layer="2518" from-port="0" to-layer="2519" to-port="1" />
		<edge from-layer="2519" from-port="2" to-layer="2520" to-port="0" />
		<edge from-layer="2520" from-port="1" to-layer="2521" to-port="1" />
		<edge from-layer="2521" from-port="2" to-layer="2523" to-port="0" />
		<edge from-layer="2522" from-port="0" to-layer="2523" to-port="1" />
		<edge from-layer="2523" from-port="2" to-layer="2524" to-port="1" />
		<edge from-layer="2524" from-port="2" to-layer="2526" to-port="0" />
		<edge from-layer="2524" from-port="2" to-layer="2590" to-port="0" />
		<edge from-layer="2525" from-port="0" to-layer="2526" to-port="1" />
		<edge from-layer="2526" from-port="2" to-layer="2528" to-port="0" />
		<edge from-layer="2527" from-port="0" to-layer="2528" to-port="1" />
		<edge from-layer="2528" from-port="2" to-layer="2530" to-port="0" />
		<edge from-layer="2529" from-port="0" to-layer="2530" to-port="1" />
		<edge from-layer="2530" from-port="2" to-layer="2554" to-port="0" />
		<edge from-layer="2530" from-port="2" to-layer="2539" to-port="0" />
		<edge from-layer="2530" from-port="2" to-layer="2567" to-port="0" />
		<edge from-layer="2531" from-port="0" to-layer="2532" to-port="0" />
		<edge from-layer="2532" from-port="1" to-layer="2535" to-port="0" />
		<edge from-layer="2533" from-port="0" to-layer="2534" to-port="0" />
		<edge from-layer="2534" from-port="1" to-layer="2535" to-port="1" />
		<edge from-layer="2535" from-port="2" to-layer="2537" to-port="0" />
		<edge from-layer="2536" from-port="0" to-layer="2537" to-port="1" />
		<edge from-layer="2537" from-port="2" to-layer="2538" to-port="0" />
		<edge from-layer="2538" from-port="1" to-layer="2539" to-port="1" />
		<edge from-layer="2539" from-port="2" to-layer="2541" to-port="0" />
		<edge from-layer="2540" from-port="0" to-layer="2541" to-port="1" />
		<edge from-layer="2541" from-port="2" to-layer="2543" to-port="0" />
		<edge from-layer="2542" from-port="0" to-layer="2543" to-port="1" />
		<edge from-layer="2543" from-port="2" to-layer="2545" to-port="0" />
		<edge from-layer="2544" from-port="0" to-layer="2545" to-port="1" />
		<edge from-layer="2545" from-port="2" to-layer="2574" to-port="0" />
		<edge from-layer="2546" from-port="0" to-layer="2547" to-port="0" />
		<edge from-layer="2547" from-port="1" to-layer="2550" to-port="0" />
		<edge from-layer="2548" from-port="0" to-layer="2549" to-port="0" />
		<edge from-layer="2549" from-port="1" to-layer="2550" to-port="1" />
		<edge from-layer="2550" from-port="2" to-layer="2552" to-port="0" />
		<edge from-layer="2551" from-port="0" to-layer="2552" to-port="1" />
		<edge from-layer="2552" from-port="2" to-layer="2553" to-port="0" />
		<edge from-layer="2553" from-port="1" to-layer="2554" to-port="1" />
		<edge from-layer="2554" from-port="2" to-layer="2556" to-port="0" />
		<edge from-layer="2555" from-port="0" to-layer="2556" to-port="1" />
		<edge from-layer="2556" from-port="2" to-layer="2558" to-port="0" />
		<edge from-layer="2557" from-port="0" to-layer="2558" to-port="1" />
		<edge from-layer="2558" from-port="2" to-layer="2574" to-port="1" />
		<edge from-layer="2559" from-port="0" to-layer="2560" to-port="0" />
		<edge from-layer="2560" from-port="1" to-layer="2563" to-port="0" />
		<edge from-layer="2561" from-port="0" to-layer="2562" to-port="0" />
		<edge from-layer="2562" from-port="1" to-layer="2563" to-port="1" />
		<edge from-layer="2563" from-port="2" to-layer="2565" to-port="0" />
		<edge from-layer="2564" from-port="0" to-layer="2565" to-port="1" />
		<edge from-layer="2565" from-port="2" to-layer="2566" to-port="0" />
		<edge from-layer="2566" from-port="1" to-layer="2567" to-port="1" />
		<edge from-layer="2567" from-port="2" to-layer="2569" to-port="0" />
		<edge from-layer="2568" from-port="0" to-layer="2569" to-port="1" />
		<edge from-layer="2569" from-port="2" to-layer="2571" to-port="0" />
		<edge from-layer="2570" from-port="0" to-layer="2571" to-port="1" />
		<edge from-layer="2571" from-port="2" to-layer="2573" to-port="0" />
		<edge from-layer="2572" from-port="0" to-layer="2573" to-port="1" />
		<edge from-layer="2573" from-port="2" to-layer="2574" to-port="2" />
		<edge from-layer="2574" from-port="3" to-layer="2576" to-port="0" />
		<edge from-layer="2575" from-port="0" to-layer="2576" to-port="1" />
		<edge from-layer="2576" from-port="2" to-layer="2578" to-port="0" />
		<edge from-layer="2577" from-port="0" to-layer="2578" to-port="1" />
		<edge from-layer="2578" from-port="2" to-layer="2587" to-port="0" />
		<edge from-layer="2579" from-port="0" to-layer="2580" to-port="0" />
		<edge from-layer="2580" from-port="1" to-layer="2583" to-port="0" />
		<edge from-layer="2581" from-port="0" to-layer="2582" to-port="0" />
		<edge from-layer="2582" from-port="1" to-layer="2583" to-port="1" />
		<edge from-layer="2583" from-port="2" to-layer="2585" to-port="0" />
		<edge from-layer="2584" from-port="0" to-layer="2585" to-port="1" />
		<edge from-layer="2585" from-port="2" to-layer="2586" to-port="0" />
		<edge from-layer="2586" from-port="1" to-layer="2587" to-port="1" />
		<edge from-layer="2587" from-port="2" to-layer="2589" to-port="0" />
		<edge from-layer="2588" from-port="0" to-layer="2589" to-port="1" />
		<edge from-layer="2589" from-port="2" to-layer="2590" to-port="1" />
		<edge from-layer="2590" from-port="2" to-layer="2592" to-port="0" />
		<edge from-layer="2590" from-port="2" to-layer="2620" to-port="0" />
		<edge from-layer="2591" from-port="0" to-layer="2592" to-port="1" />
		<edge from-layer="2592" from-port="2" to-layer="2594" to-port="0" />
		<edge from-layer="2593" from-port="0" to-layer="2594" to-port="1" />
		<edge from-layer="2594" from-port="2" to-layer="2596" to-port="0" />
		<edge from-layer="2595" from-port="0" to-layer="2596" to-port="1" />
		<edge from-layer="2596" from-port="2" to-layer="2605" to-port="0" />
		<edge from-layer="2597" from-port="0" to-layer="2598" to-port="0" />
		<edge from-layer="2598" from-port="1" to-layer="2601" to-port="0" />
		<edge from-layer="2599" from-port="0" to-layer="2600" to-port="0" />
		<edge from-layer="2600" from-port="1" to-layer="2601" to-port="1" />
		<edge from-layer="2601" from-port="2" to-layer="2603" to-port="0" />
		<edge from-layer="2602" from-port="0" to-layer="2603" to-port="1" />
		<edge from-layer="2603" from-port="2" to-layer="2604" to-port="0" />
		<edge from-layer="2604" from-port="1" to-layer="2605" to-port="1" />
		<edge from-layer="2605" from-port="2" to-layer="2607" to-port="0" />
		<edge from-layer="2606" from-port="0" to-layer="2607" to-port="1" />
		<edge from-layer="2607" from-port="2" to-layer="2608" to-port="0" />
		<edge from-layer="2608" from-port="1" to-layer="2617" to-port="0" />
		<edge from-layer="2609" from-port="0" to-layer="2610" to-port="0" />
		<edge from-layer="2610" from-port="1" to-layer="2613" to-port="0" />
		<edge from-layer="2611" from-port="0" to-layer="2612" to-port="0" />
		<edge from-layer="2612" from-port="1" to-layer="2613" to-port="1" />
		<edge from-layer="2613" from-port="2" to-layer="2615" to-port="0" />
		<edge from-layer="2614" from-port="0" to-layer="2615" to-port="1" />
		<edge from-layer="2615" from-port="2" to-layer="2616" to-port="0" />
		<edge from-layer="2616" from-port="1" to-layer="2617" to-port="1" />
		<edge from-layer="2617" from-port="2" to-layer="2619" to-port="0" />
		<edge from-layer="2618" from-port="0" to-layer="2619" to-port="1" />
		<edge from-layer="2619" from-port="2" to-layer="2620" to-port="1" />
		<edge from-layer="2620" from-port="2" to-layer="2622" to-port="0" />
		<edge from-layer="2620" from-port="2" to-layer="2686" to-port="0" />
		<edge from-layer="2621" from-port="0" to-layer="2622" to-port="1" />
		<edge from-layer="2622" from-port="2" to-layer="2624" to-port="0" />
		<edge from-layer="2623" from-port="0" to-layer="2624" to-port="1" />
		<edge from-layer="2624" from-port="2" to-layer="2626" to-port="0" />
		<edge from-layer="2625" from-port="0" to-layer="2626" to-port="1" />
		<edge from-layer="2626" from-port="2" to-layer="2635" to-port="0" />
		<edge from-layer="2626" from-port="2" to-layer="2663" to-port="0" />
		<edge from-layer="2626" from-port="2" to-layer="2650" to-port="0" />
		<edge from-layer="2627" from-port="0" to-layer="2628" to-port="0" />
		<edge from-layer="2628" from-port="1" to-layer="2631" to-port="0" />
		<edge from-layer="2629" from-port="0" to-layer="2630" to-port="0" />
		<edge from-layer="2630" from-port="1" to-layer="2631" to-port="1" />
		<edge from-layer="2631" from-port="2" to-layer="2633" to-port="0" />
		<edge from-layer="2632" from-port="0" to-layer="2633" to-port="1" />
		<edge from-layer="2633" from-port="2" to-layer="2634" to-port="0" />
		<edge from-layer="2634" from-port="1" to-layer="2635" to-port="1" />
		<edge from-layer="2635" from-port="2" to-layer="2637" to-port="0" />
		<edge from-layer="2636" from-port="0" to-layer="2637" to-port="1" />
		<edge from-layer="2637" from-port="2" to-layer="2639" to-port="0" />
		<edge from-layer="2638" from-port="0" to-layer="2639" to-port="1" />
		<edge from-layer="2639" from-port="2" to-layer="2641" to-port="0" />
		<edge from-layer="2640" from-port="0" to-layer="2641" to-port="1" />
		<edge from-layer="2641" from-port="2" to-layer="2670" to-port="0" />
		<edge from-layer="2642" from-port="0" to-layer="2643" to-port="0" />
		<edge from-layer="2643" from-port="1" to-layer="2646" to-port="0" />
		<edge from-layer="2644" from-port="0" to-layer="2645" to-port="0" />
		<edge from-layer="2645" from-port="1" to-layer="2646" to-port="1" />
		<edge from-layer="2646" from-port="2" to-layer="2648" to-port="0" />
		<edge from-layer="2647" from-port="0" to-layer="2648" to-port="1" />
		<edge from-layer="2648" from-port="2" to-layer="2649" to-port="0" />
		<edge from-layer="2649" from-port="1" to-layer="2650" to-port="1" />
		<edge from-layer="2650" from-port="2" to-layer="2652" to-port="0" />
		<edge from-layer="2651" from-port="0" to-layer="2652" to-port="1" />
		<edge from-layer="2652" from-port="2" to-layer="2654" to-port="0" />
		<edge from-layer="2653" from-port="0" to-layer="2654" to-port="1" />
		<edge from-layer="2654" from-port="2" to-layer="2670" to-port="1" />
		<edge from-layer="2655" from-port="0" to-layer="2656" to-port="0" />
		<edge from-layer="2656" from-port="1" to-layer="2659" to-port="0" />
		<edge from-layer="2657" from-port="0" to-layer="2658" to-port="0" />
		<edge from-layer="2658" from-port="1" to-layer="2659" to-port="1" />
		<edge from-layer="2659" from-port="2" to-layer="2661" to-port="0" />
		<edge from-layer="2660" from-port="0" to-layer="2661" to-port="1" />
		<edge from-layer="2661" from-port="2" to-layer="2662" to-port="0" />
		<edge from-layer="2662" from-port="1" to-layer="2663" to-port="1" />
		<edge from-layer="2663" from-port="2" to-layer="2665" to-port="0" />
		<edge from-layer="2664" from-port="0" to-layer="2665" to-port="1" />
		<edge from-layer="2665" from-port="2" to-layer="2667" to-port="0" />
		<edge from-layer="2666" from-port="0" to-layer="2667" to-port="1" />
		<edge from-layer="2667" from-port="2" to-layer="2669" to-port="0" />
		<edge from-layer="2668" from-port="0" to-layer="2669" to-port="1" />
		<edge from-layer="2669" from-port="2" to-layer="2670" to-port="2" />
		<edge from-layer="2670" from-port="3" to-layer="2672" to-port="0" />
		<edge from-layer="2671" from-port="0" to-layer="2672" to-port="1" />
		<edge from-layer="2672" from-port="2" to-layer="2674" to-port="0" />
		<edge from-layer="2673" from-port="0" to-layer="2674" to-port="1" />
		<edge from-layer="2674" from-port="2" to-layer="2683" to-port="0" />
		<edge from-layer="2675" from-port="0" to-layer="2676" to-port="0" />
		<edge from-layer="2676" from-port="1" to-layer="2679" to-port="0" />
		<edge from-layer="2677" from-port="0" to-layer="2678" to-port="0" />
		<edge from-layer="2678" from-port="1" to-layer="2679" to-port="1" />
		<edge from-layer="2679" from-port="2" to-layer="2681" to-port="0" />
		<edge from-layer="2680" from-port="0" to-layer="2681" to-port="1" />
		<edge from-layer="2681" from-port="2" to-layer="2682" to-port="0" />
		<edge from-layer="2682" from-port="1" to-layer="2683" to-port="1" />
		<edge from-layer="2683" from-port="2" to-layer="2685" to-port="0" />
		<edge from-layer="2684" from-port="0" to-layer="2685" to-port="1" />
		<edge from-layer="2685" from-port="2" to-layer="2686" to-port="1" />
		<edge from-layer="2686" from-port="2" to-layer="2688" to-port="0" />
		<edge from-layer="2686" from-port="2" to-layer="2716" to-port="0" />
		<edge from-layer="2687" from-port="0" to-layer="2688" to-port="1" />
		<edge from-layer="2688" from-port="2" to-layer="2690" to-port="0" />
		<edge from-layer="2689" from-port="0" to-layer="2690" to-port="1" />
		<edge from-layer="2690" from-port="2" to-layer="2692" to-port="0" />
		<edge from-layer="2691" from-port="0" to-layer="2692" to-port="1" />
		<edge from-layer="2692" from-port="2" to-layer="2701" to-port="0" />
		<edge from-layer="2693" from-port="0" to-layer="2694" to-port="0" />
		<edge from-layer="2694" from-port="1" to-layer="2697" to-port="0" />
		<edge from-layer="2695" from-port="0" to-layer="2696" to-port="0" />
		<edge from-layer="2696" from-port="1" to-layer="2697" to-port="1" />
		<edge from-layer="2697" from-port="2" to-layer="2699" to-port="0" />
		<edge from-layer="2698" from-port="0" to-layer="2699" to-port="1" />
		<edge from-layer="2699" from-port="2" to-layer="2700" to-port="0" />
		<edge from-layer="2700" from-port="1" to-layer="2701" to-port="1" />
		<edge from-layer="2701" from-port="2" to-layer="2703" to-port="0" />
		<edge from-layer="2702" from-port="0" to-layer="2703" to-port="1" />
		<edge from-layer="2703" from-port="2" to-layer="2704" to-port="0" />
		<edge from-layer="2704" from-port="1" to-layer="2713" to-port="0" />
		<edge from-layer="2705" from-port="0" to-layer="2706" to-port="0" />
		<edge from-layer="2706" from-port="1" to-layer="2709" to-port="0" />
		<edge from-layer="2707" from-port="0" to-layer="2708" to-port="0" />
		<edge from-layer="2708" from-port="1" to-layer="2709" to-port="1" />
		<edge from-layer="2709" from-port="2" to-layer="2711" to-port="0" />
		<edge from-layer="2710" from-port="0" to-layer="2711" to-port="1" />
		<edge from-layer="2711" from-port="2" to-layer="2712" to-port="0" />
		<edge from-layer="2712" from-port="1" to-layer="2713" to-port="1" />
		<edge from-layer="2713" from-port="2" to-layer="2715" to-port="0" />
		<edge from-layer="2714" from-port="0" to-layer="2715" to-port="1" />
		<edge from-layer="2715" from-port="2" to-layer="2716" to-port="1" />
		<edge from-layer="2716" from-port="2" to-layer="2718" to-port="0" />
		<edge from-layer="2716" from-port="2" to-layer="2782" to-port="0" />
		<edge from-layer="2717" from-port="0" to-layer="2718" to-port="1" />
		<edge from-layer="2718" from-port="2" to-layer="2720" to-port="0" />
		<edge from-layer="2719" from-port="0" to-layer="2720" to-port="1" />
		<edge from-layer="2720" from-port="2" to-layer="2722" to-port="0" />
		<edge from-layer="2721" from-port="0" to-layer="2722" to-port="1" />
		<edge from-layer="2722" from-port="2" to-layer="2731" to-port="0" />
		<edge from-layer="2722" from-port="2" to-layer="2746" to-port="0" />
		<edge from-layer="2722" from-port="2" to-layer="2759" to-port="0" />
		<edge from-layer="2723" from-port="0" to-layer="2724" to-port="0" />
		<edge from-layer="2724" from-port="1" to-layer="2727" to-port="0" />
		<edge from-layer="2725" from-port="0" to-layer="2726" to-port="0" />
		<edge from-layer="2726" from-port="1" to-layer="2727" to-port="1" />
		<edge from-layer="2727" from-port="2" to-layer="2729" to-port="0" />
		<edge from-layer="2728" from-port="0" to-layer="2729" to-port="1" />
		<edge from-layer="2729" from-port="2" to-layer="2730" to-port="0" />
		<edge from-layer="2730" from-port="1" to-layer="2731" to-port="1" />
		<edge from-layer="2731" from-port="2" to-layer="2733" to-port="0" />
		<edge from-layer="2732" from-port="0" to-layer="2733" to-port="1" />
		<edge from-layer="2733" from-port="2" to-layer="2735" to-port="0" />
		<edge from-layer="2734" from-port="0" to-layer="2735" to-port="1" />
		<edge from-layer="2735" from-port="2" to-layer="2737" to-port="0" />
		<edge from-layer="2736" from-port="0" to-layer="2737" to-port="1" />
		<edge from-layer="2737" from-port="2" to-layer="2766" to-port="0" />
		<edge from-layer="2738" from-port="0" to-layer="2739" to-port="0" />
		<edge from-layer="2739" from-port="1" to-layer="2742" to-port="0" />
		<edge from-layer="2740" from-port="0" to-layer="2741" to-port="0" />
		<edge from-layer="2741" from-port="1" to-layer="2742" to-port="1" />
		<edge from-layer="2742" from-port="2" to-layer="2744" to-port="0" />
		<edge from-layer="2743" from-port="0" to-layer="2744" to-port="1" />
		<edge from-layer="2744" from-port="2" to-layer="2745" to-port="0" />
		<edge from-layer="2745" from-port="1" to-layer="2746" to-port="1" />
		<edge from-layer="2746" from-port="2" to-layer="2748" to-port="0" />
		<edge from-layer="2747" from-port="0" to-layer="2748" to-port="1" />
		<edge from-layer="2748" from-port="2" to-layer="2750" to-port="0" />
		<edge from-layer="2749" from-port="0" to-layer="2750" to-port="1" />
		<edge from-layer="2750" from-port="2" to-layer="2766" to-port="1" />
		<edge from-layer="2751" from-port="0" to-layer="2752" to-port="0" />
		<edge from-layer="2752" from-port="1" to-layer="2755" to-port="0" />
		<edge from-layer="2753" from-port="0" to-layer="2754" to-port="0" />
		<edge from-layer="2754" from-port="1" to-layer="2755" to-port="1" />
		<edge from-layer="2755" from-port="2" to-layer="2757" to-port="0" />
		<edge from-layer="2756" from-port="0" to-layer="2757" to-port="1" />
		<edge from-layer="2757" from-port="2" to-layer="2758" to-port="0" />
		<edge from-layer="2758" from-port="1" to-layer="2759" to-port="1" />
		<edge from-layer="2759" from-port="2" to-layer="2761" to-port="0" />
		<edge from-layer="2760" from-port="0" to-layer="2761" to-port="1" />
		<edge from-layer="2761" from-port="2" to-layer="2763" to-port="0" />
		<edge from-layer="2762" from-port="0" to-layer="2763" to-port="1" />
		<edge from-layer="2763" from-port="2" to-layer="2765" to-port="0" />
		<edge from-layer="2764" from-port="0" to-layer="2765" to-port="1" />
		<edge from-layer="2765" from-port="2" to-layer="2766" to-port="2" />
		<edge from-layer="2766" from-port="3" to-layer="2768" to-port="0" />
		<edge from-layer="2767" from-port="0" to-layer="2768" to-port="1" />
		<edge from-layer="2768" from-port="2" to-layer="2770" to-port="0" />
		<edge from-layer="2769" from-port="0" to-layer="2770" to-port="1" />
		<edge from-layer="2770" from-port="2" to-layer="2779" to-port="0" />
		<edge from-layer="2771" from-port="0" to-layer="2772" to-port="0" />
		<edge from-layer="2772" from-port="1" to-layer="2775" to-port="0" />
		<edge from-layer="2773" from-port="0" to-layer="2774" to-port="0" />
		<edge from-layer="2774" from-port="1" to-layer="2775" to-port="1" />
		<edge from-layer="2775" from-port="2" to-layer="2777" to-port="0" />
		<edge from-layer="2776" from-port="0" to-layer="2777" to-port="1" />
		<edge from-layer="2777" from-port="2" to-layer="2778" to-port="0" />
		<edge from-layer="2778" from-port="1" to-layer="2779" to-port="1" />
		<edge from-layer="2779" from-port="2" to-layer="2781" to-port="0" />
		<edge from-layer="2780" from-port="0" to-layer="2781" to-port="1" />
		<edge from-layer="2781" from-port="2" to-layer="2782" to-port="1" />
		<edge from-layer="2782" from-port="2" to-layer="2784" to-port="0" />
		<edge from-layer="2782" from-port="2" to-layer="2812" to-port="0" />
		<edge from-layer="2783" from-port="0" to-layer="2784" to-port="1" />
		<edge from-layer="2784" from-port="2" to-layer="2786" to-port="0" />
		<edge from-layer="2785" from-port="0" to-layer="2786" to-port="1" />
		<edge from-layer="2786" from-port="2" to-layer="2788" to-port="0" />
		<edge from-layer="2787" from-port="0" to-layer="2788" to-port="1" />
		<edge from-layer="2788" from-port="2" to-layer="2797" to-port="0" />
		<edge from-layer="2789" from-port="0" to-layer="2790" to-port="0" />
		<edge from-layer="2790" from-port="1" to-layer="2793" to-port="0" />
		<edge from-layer="2791" from-port="0" to-layer="2792" to-port="0" />
		<edge from-layer="2792" from-port="1" to-layer="2793" to-port="1" />
		<edge from-layer="2793" from-port="2" to-layer="2795" to-port="0" />
		<edge from-layer="2794" from-port="0" to-layer="2795" to-port="1" />
		<edge from-layer="2795" from-port="2" to-layer="2796" to-port="0" />
		<edge from-layer="2796" from-port="1" to-layer="2797" to-port="1" />
		<edge from-layer="2797" from-port="2" to-layer="2799" to-port="0" />
		<edge from-layer="2798" from-port="0" to-layer="2799" to-port="1" />
		<edge from-layer="2799" from-port="2" to-layer="2800" to-port="0" />
		<edge from-layer="2800" from-port="1" to-layer="2809" to-port="0" />
		<edge from-layer="2801" from-port="0" to-layer="2802" to-port="0" />
		<edge from-layer="2802" from-port="1" to-layer="2805" to-port="0" />
		<edge from-layer="2803" from-port="0" to-layer="2804" to-port="0" />
		<edge from-layer="2804" from-port="1" to-layer="2805" to-port="1" />
		<edge from-layer="2805" from-port="2" to-layer="2807" to-port="0" />
		<edge from-layer="2806" from-port="0" to-layer="2807" to-port="1" />
		<edge from-layer="2807" from-port="2" to-layer="2808" to-port="0" />
		<edge from-layer="2808" from-port="1" to-layer="2809" to-port="1" />
		<edge from-layer="2809" from-port="2" to-layer="2811" to-port="0" />
		<edge from-layer="2810" from-port="0" to-layer="2811" to-port="1" />
		<edge from-layer="2811" from-port="2" to-layer="2812" to-port="1" />
		<edge from-layer="2812" from-port="2" to-layer="2814" to-port="0" />
		<edge from-layer="2812" from-port="2" to-layer="2878" to-port="0" />
		<edge from-layer="2813" from-port="0" to-layer="2814" to-port="1" />
		<edge from-layer="2814" from-port="2" to-layer="2816" to-port="0" />
		<edge from-layer="2815" from-port="0" to-layer="2816" to-port="1" />
		<edge from-layer="2816" from-port="2" to-layer="2818" to-port="0" />
		<edge from-layer="2817" from-port="0" to-layer="2818" to-port="1" />
		<edge from-layer="2818" from-port="2" to-layer="2827" to-port="0" />
		<edge from-layer="2818" from-port="2" to-layer="2842" to-port="0" />
		<edge from-layer="2818" from-port="2" to-layer="2855" to-port="0" />
		<edge from-layer="2819" from-port="0" to-layer="2820" to-port="0" />
		<edge from-layer="2820" from-port="1" to-layer="2823" to-port="0" />
		<edge from-layer="2821" from-port="0" to-layer="2822" to-port="0" />
		<edge from-layer="2822" from-port="1" to-layer="2823" to-port="1" />
		<edge from-layer="2823" from-port="2" to-layer="2825" to-port="0" />
		<edge from-layer="2824" from-port="0" to-layer="2825" to-port="1" />
		<edge from-layer="2825" from-port="2" to-layer="2826" to-port="0" />
		<edge from-layer="2826" from-port="1" to-layer="2827" to-port="1" />
		<edge from-layer="2827" from-port="2" to-layer="2829" to-port="0" />
		<edge from-layer="2828" from-port="0" to-layer="2829" to-port="1" />
		<edge from-layer="2829" from-port="2" to-layer="2831" to-port="0" />
		<edge from-layer="2830" from-port="0" to-layer="2831" to-port="1" />
		<edge from-layer="2831" from-port="2" to-layer="2833" to-port="0" />
		<edge from-layer="2832" from-port="0" to-layer="2833" to-port="1" />
		<edge from-layer="2833" from-port="2" to-layer="2862" to-port="0" />
		<edge from-layer="2834" from-port="0" to-layer="2835" to-port="0" />
		<edge from-layer="2835" from-port="1" to-layer="2838" to-port="0" />
		<edge from-layer="2836" from-port="0" to-layer="2837" to-port="0" />
		<edge from-layer="2837" from-port="1" to-layer="2838" to-port="1" />
		<edge from-layer="2838" from-port="2" to-layer="2840" to-port="0" />
		<edge from-layer="2839" from-port="0" to-layer="2840" to-port="1" />
		<edge from-layer="2840" from-port="2" to-layer="2841" to-port="0" />
		<edge from-layer="2841" from-port="1" to-layer="2842" to-port="1" />
		<edge from-layer="2842" from-port="2" to-layer="2844" to-port="0" />
		<edge from-layer="2843" from-port="0" to-layer="2844" to-port="1" />
		<edge from-layer="2844" from-port="2" to-layer="2846" to-port="0" />
		<edge from-layer="2845" from-port="0" to-layer="2846" to-port="1" />
		<edge from-layer="2846" from-port="2" to-layer="2862" to-port="1" />
		<edge from-layer="2847" from-port="0" to-layer="2848" to-port="0" />
		<edge from-layer="2848" from-port="1" to-layer="2851" to-port="0" />
		<edge from-layer="2849" from-port="0" to-layer="2850" to-port="0" />
		<edge from-layer="2850" from-port="1" to-layer="2851" to-port="1" />
		<edge from-layer="2851" from-port="2" to-layer="2853" to-port="0" />
		<edge from-layer="2852" from-port="0" to-layer="2853" to-port="1" />
		<edge from-layer="2853" from-port="2" to-layer="2854" to-port="0" />
		<edge from-layer="2854" from-port="1" to-layer="2855" to-port="1" />
		<edge from-layer="2855" from-port="2" to-layer="2857" to-port="0" />
		<edge from-layer="2856" from-port="0" to-layer="2857" to-port="1" />
		<edge from-layer="2857" from-port="2" to-layer="2859" to-port="0" />
		<edge from-layer="2858" from-port="0" to-layer="2859" to-port="1" />
		<edge from-layer="2859" from-port="2" to-layer="2861" to-port="0" />
		<edge from-layer="2860" from-port="0" to-layer="2861" to-port="1" />
		<edge from-layer="2861" from-port="2" to-layer="2862" to-port="2" />
		<edge from-layer="2862" from-port="3" to-layer="2864" to-port="0" />
		<edge from-layer="2863" from-port="0" to-layer="2864" to-port="1" />
		<edge from-layer="2864" from-port="2" to-layer="2866" to-port="0" />
		<edge from-layer="2865" from-port="0" to-layer="2866" to-port="1" />
		<edge from-layer="2866" from-port="2" to-layer="2875" to-port="0" />
		<edge from-layer="2867" from-port="0" to-layer="2868" to-port="0" />
		<edge from-layer="2868" from-port="1" to-layer="2871" to-port="0" />
		<edge from-layer="2869" from-port="0" to-layer="2870" to-port="0" />
		<edge from-layer="2870" from-port="1" to-layer="2871" to-port="1" />
		<edge from-layer="2871" from-port="2" to-layer="2873" to-port="0" />
		<edge from-layer="2872" from-port="0" to-layer="2873" to-port="1" />
		<edge from-layer="2873" from-port="2" to-layer="2874" to-port="0" />
		<edge from-layer="2874" from-port="1" to-layer="2875" to-port="1" />
		<edge from-layer="2875" from-port="2" to-layer="2877" to-port="0" />
		<edge from-layer="2876" from-port="0" to-layer="2877" to-port="1" />
		<edge from-layer="2877" from-port="2" to-layer="2878" to-port="1" />
		<edge from-layer="2878" from-port="2" to-layer="2880" to-port="0" />
		<edge from-layer="2878" from-port="2" to-layer="2908" to-port="0" />
		<edge from-layer="2879" from-port="0" to-layer="2880" to-port="1" />
		<edge from-layer="2880" from-port="2" to-layer="2882" to-port="0" />
		<edge from-layer="2881" from-port="0" to-layer="2882" to-port="1" />
		<edge from-layer="2882" from-port="2" to-layer="2884" to-port="0" />
		<edge from-layer="2883" from-port="0" to-layer="2884" to-port="1" />
		<edge from-layer="2884" from-port="2" to-layer="2893" to-port="0" />
		<edge from-layer="2885" from-port="0" to-layer="2886" to-port="0" />
		<edge from-layer="2886" from-port="1" to-layer="2889" to-port="0" />
		<edge from-layer="2887" from-port="0" to-layer="2888" to-port="0" />
		<edge from-layer="2888" from-port="1" to-layer="2889" to-port="1" />
		<edge from-layer="2889" from-port="2" to-layer="2891" to-port="0" />
		<edge from-layer="2890" from-port="0" to-layer="2891" to-port="1" />
		<edge from-layer="2891" from-port="2" to-layer="2892" to-port="0" />
		<edge from-layer="2892" from-port="1" to-layer="2893" to-port="1" />
		<edge from-layer="2893" from-port="2" to-layer="2895" to-port="0" />
		<edge from-layer="2894" from-port="0" to-layer="2895" to-port="1" />
		<edge from-layer="2895" from-port="2" to-layer="2896" to-port="0" />
		<edge from-layer="2896" from-port="1" to-layer="2905" to-port="0" />
		<edge from-layer="2897" from-port="0" to-layer="2898" to-port="0" />
		<edge from-layer="2898" from-port="1" to-layer="2901" to-port="0" />
		<edge from-layer="2899" from-port="0" to-layer="2900" to-port="0" />
		<edge from-layer="2900" from-port="1" to-layer="2901" to-port="1" />
		<edge from-layer="2901" from-port="2" to-layer="2903" to-port="0" />
		<edge from-layer="2902" from-port="0" to-layer="2903" to-port="1" />
		<edge from-layer="2903" from-port="2" to-layer="2904" to-port="0" />
		<edge from-layer="2904" from-port="1" to-layer="2905" to-port="1" />
		<edge from-layer="2905" from-port="2" to-layer="2907" to-port="0" />
		<edge from-layer="2906" from-port="0" to-layer="2907" to-port="1" />
		<edge from-layer="2907" from-port="2" to-layer="2908" to-port="1" />
		<edge from-layer="2908" from-port="2" to-layer="2910" to-port="0" />
		<edge from-layer="2908" from-port="2" to-layer="2974" to-port="0" />
		<edge from-layer="2909" from-port="0" to-layer="2910" to-port="1" />
		<edge from-layer="2910" from-port="2" to-layer="2912" to-port="0" />
		<edge from-layer="2911" from-port="0" to-layer="2912" to-port="1" />
		<edge from-layer="2912" from-port="2" to-layer="2914" to-port="0" />
		<edge from-layer="2913" from-port="0" to-layer="2914" to-port="1" />
		<edge from-layer="2914" from-port="2" to-layer="2923" to-port="0" />
		<edge from-layer="2914" from-port="2" to-layer="2938" to-port="0" />
		<edge from-layer="2914" from-port="2" to-layer="2951" to-port="0" />
		<edge from-layer="2915" from-port="0" to-layer="2916" to-port="0" />
		<edge from-layer="2916" from-port="1" to-layer="2919" to-port="0" />
		<edge from-layer="2917" from-port="0" to-layer="2918" to-port="0" />
		<edge from-layer="2918" from-port="1" to-layer="2919" to-port="1" />
		<edge from-layer="2919" from-port="2" to-layer="2921" to-port="0" />
		<edge from-layer="2920" from-port="0" to-layer="2921" to-port="1" />
		<edge from-layer="2921" from-port="2" to-layer="2922" to-port="0" />
		<edge from-layer="2922" from-port="1" to-layer="2923" to-port="1" />
		<edge from-layer="2923" from-port="2" to-layer="2925" to-port="0" />
		<edge from-layer="2924" from-port="0" to-layer="2925" to-port="1" />
		<edge from-layer="2925" from-port="2" to-layer="2927" to-port="0" />
		<edge from-layer="2926" from-port="0" to-layer="2927" to-port="1" />
		<edge from-layer="2927" from-port="2" to-layer="2929" to-port="0" />
		<edge from-layer="2928" from-port="0" to-layer="2929" to-port="1" />
		<edge from-layer="2929" from-port="2" to-layer="2958" to-port="0" />
		<edge from-layer="2930" from-port="0" to-layer="2931" to-port="0" />
		<edge from-layer="2931" from-port="1" to-layer="2934" to-port="0" />
		<edge from-layer="2932" from-port="0" to-layer="2933" to-port="0" />
		<edge from-layer="2933" from-port="1" to-layer="2934" to-port="1" />
		<edge from-layer="2934" from-port="2" to-layer="2936" to-port="0" />
		<edge from-layer="2935" from-port="0" to-layer="2936" to-port="1" />
		<edge from-layer="2936" from-port="2" to-layer="2937" to-port="0" />
		<edge from-layer="2937" from-port="1" to-layer="2938" to-port="1" />
		<edge from-layer="2938" from-port="2" to-layer="2940" to-port="0" />
		<edge from-layer="2939" from-port="0" to-layer="2940" to-port="1" />
		<edge from-layer="2940" from-port="2" to-layer="2942" to-port="0" />
		<edge from-layer="2941" from-port="0" to-layer="2942" to-port="1" />
		<edge from-layer="2942" from-port="2" to-layer="2958" to-port="1" />
		<edge from-layer="2943" from-port="0" to-layer="2944" to-port="0" />
		<edge from-layer="2944" from-port="1" to-layer="2947" to-port="0" />
		<edge from-layer="2945" from-port="0" to-layer="2946" to-port="0" />
		<edge from-layer="2946" from-port="1" to-layer="2947" to-port="1" />
		<edge from-layer="2947" from-port="2" to-layer="2949" to-port="0" />
		<edge from-layer="2948" from-port="0" to-layer="2949" to-port="1" />
		<edge from-layer="2949" from-port="2" to-layer="2950" to-port="0" />
		<edge from-layer="2950" from-port="1" to-layer="2951" to-port="1" />
		<edge from-layer="2951" from-port="2" to-layer="2953" to-port="0" />
		<edge from-layer="2952" from-port="0" to-layer="2953" to-port="1" />
		<edge from-layer="2953" from-port="2" to-layer="2955" to-port="0" />
		<edge from-layer="2954" from-port="0" to-layer="2955" to-port="1" />
		<edge from-layer="2955" from-port="2" to-layer="2957" to-port="0" />
		<edge from-layer="2956" from-port="0" to-layer="2957" to-port="1" />
		<edge from-layer="2957" from-port="2" to-layer="2958" to-port="2" />
		<edge from-layer="2958" from-port="3" to-layer="2960" to-port="0" />
		<edge from-layer="2959" from-port="0" to-layer="2960" to-port="1" />
		<edge from-layer="2960" from-port="2" to-layer="2962" to-port="0" />
		<edge from-layer="2961" from-port="0" to-layer="2962" to-port="1" />
		<edge from-layer="2962" from-port="2" to-layer="2971" to-port="0" />
		<edge from-layer="2963" from-port="0" to-layer="2964" to-port="0" />
		<edge from-layer="2964" from-port="1" to-layer="2967" to-port="0" />
		<edge from-layer="2965" from-port="0" to-layer="2966" to-port="0" />
		<edge from-layer="2966" from-port="1" to-layer="2967" to-port="1" />
		<edge from-layer="2967" from-port="2" to-layer="2969" to-port="0" />
		<edge from-layer="2968" from-port="0" to-layer="2969" to-port="1" />
		<edge from-layer="2969" from-port="2" to-layer="2970" to-port="0" />
		<edge from-layer="2970" from-port="1" to-layer="2971" to-port="1" />
		<edge from-layer="2971" from-port="2" to-layer="2973" to-port="0" />
		<edge from-layer="2972" from-port="0" to-layer="2973" to-port="1" />
		<edge from-layer="2973" from-port="2" to-layer="2974" to-port="1" />
		<edge from-layer="2974" from-port="2" to-layer="2976" to-port="0" />
		<edge from-layer="2974" from-port="2" to-layer="3004" to-port="0" />
		<edge from-layer="2975" from-port="0" to-layer="2976" to-port="1" />
		<edge from-layer="2976" from-port="2" to-layer="2978" to-port="0" />
		<edge from-layer="2977" from-port="0" to-layer="2978" to-port="1" />
		<edge from-layer="2978" from-port="2" to-layer="2980" to-port="0" />
		<edge from-layer="2979" from-port="0" to-layer="2980" to-port="1" />
		<edge from-layer="2980" from-port="2" to-layer="2989" to-port="0" />
		<edge from-layer="2981" from-port="0" to-layer="2982" to-port="0" />
		<edge from-layer="2982" from-port="1" to-layer="2985" to-port="0" />
		<edge from-layer="2983" from-port="0" to-layer="2984" to-port="0" />
		<edge from-layer="2984" from-port="1" to-layer="2985" to-port="1" />
		<edge from-layer="2985" from-port="2" to-layer="2987" to-port="0" />
		<edge from-layer="2986" from-port="0" to-layer="2987" to-port="1" />
		<edge from-layer="2987" from-port="2" to-layer="2988" to-port="0" />
		<edge from-layer="2988" from-port="1" to-layer="2989" to-port="1" />
		<edge from-layer="2989" from-port="2" to-layer="2991" to-port="0" />
		<edge from-layer="2990" from-port="0" to-layer="2991" to-port="1" />
		<edge from-layer="2991" from-port="2" to-layer="2992" to-port="0" />
		<edge from-layer="2992" from-port="1" to-layer="3001" to-port="0" />
		<edge from-layer="2993" from-port="0" to-layer="2994" to-port="0" />
		<edge from-layer="2994" from-port="1" to-layer="2997" to-port="0" />
		<edge from-layer="2995" from-port="0" to-layer="2996" to-port="0" />
		<edge from-layer="2996" from-port="1" to-layer="2997" to-port="1" />
		<edge from-layer="2997" from-port="2" to-layer="2999" to-port="0" />
		<edge from-layer="2998" from-port="0" to-layer="2999" to-port="1" />
		<edge from-layer="2999" from-port="2" to-layer="3000" to-port="0" />
		<edge from-layer="3000" from-port="1" to-layer="3001" to-port="1" />
		<edge from-layer="3001" from-port="2" to-layer="3003" to-port="0" />
		<edge from-layer="3002" from-port="0" to-layer="3003" to-port="1" />
		<edge from-layer="3003" from-port="2" to-layer="3004" to-port="1" />
		<edge from-layer="3004" from-port="2" to-layer="3006" to-port="0" />
		<edge from-layer="3004" from-port="2" to-layer="3070" to-port="0" />
		<edge from-layer="3005" from-port="0" to-layer="3006" to-port="1" />
		<edge from-layer="3006" from-port="2" to-layer="3008" to-port="0" />
		<edge from-layer="3007" from-port="0" to-layer="3008" to-port="1" />
		<edge from-layer="3008" from-port="2" to-layer="3010" to-port="0" />
		<edge from-layer="3009" from-port="0" to-layer="3010" to-port="1" />
		<edge from-layer="3010" from-port="2" to-layer="3019" to-port="0" />
		<edge from-layer="3010" from-port="2" to-layer="3034" to-port="0" />
		<edge from-layer="3010" from-port="2" to-layer="3047" to-port="0" />
		<edge from-layer="3011" from-port="0" to-layer="3012" to-port="0" />
		<edge from-layer="3012" from-port="1" to-layer="3015" to-port="0" />
		<edge from-layer="3013" from-port="0" to-layer="3014" to-port="0" />
		<edge from-layer="3014" from-port="1" to-layer="3015" to-port="1" />
		<edge from-layer="3015" from-port="2" to-layer="3017" to-port="0" />
		<edge from-layer="3016" from-port="0" to-layer="3017" to-port="1" />
		<edge from-layer="3017" from-port="2" to-layer="3018" to-port="0" />
		<edge from-layer="3018" from-port="1" to-layer="3019" to-port="1" />
		<edge from-layer="3019" from-port="2" to-layer="3021" to-port="0" />
		<edge from-layer="3020" from-port="0" to-layer="3021" to-port="1" />
		<edge from-layer="3021" from-port="2" to-layer="3023" to-port="0" />
		<edge from-layer="3022" from-port="0" to-layer="3023" to-port="1" />
		<edge from-layer="3023" from-port="2" to-layer="3025" to-port="0" />
		<edge from-layer="3024" from-port="0" to-layer="3025" to-port="1" />
		<edge from-layer="3025" from-port="2" to-layer="3054" to-port="0" />
		<edge from-layer="3026" from-port="0" to-layer="3027" to-port="0" />
		<edge from-layer="3027" from-port="1" to-layer="3030" to-port="0" />
		<edge from-layer="3028" from-port="0" to-layer="3029" to-port="0" />
		<edge from-layer="3029" from-port="1" to-layer="3030" to-port="1" />
		<edge from-layer="3030" from-port="2" to-layer="3032" to-port="0" />
		<edge from-layer="3031" from-port="0" to-layer="3032" to-port="1" />
		<edge from-layer="3032" from-port="2" to-layer="3033" to-port="0" />
		<edge from-layer="3033" from-port="1" to-layer="3034" to-port="1" />
		<edge from-layer="3034" from-port="2" to-layer="3036" to-port="0" />
		<edge from-layer="3035" from-port="0" to-layer="3036" to-port="1" />
		<edge from-layer="3036" from-port="2" to-layer="3038" to-port="0" />
		<edge from-layer="3037" from-port="0" to-layer="3038" to-port="1" />
		<edge from-layer="3038" from-port="2" to-layer="3054" to-port="1" />
		<edge from-layer="3039" from-port="0" to-layer="3040" to-port="0" />
		<edge from-layer="3040" from-port="1" to-layer="3043" to-port="0" />
		<edge from-layer="3041" from-port="0" to-layer="3042" to-port="0" />
		<edge from-layer="3042" from-port="1" to-layer="3043" to-port="1" />
		<edge from-layer="3043" from-port="2" to-layer="3045" to-port="0" />
		<edge from-layer="3044" from-port="0" to-layer="3045" to-port="1" />
		<edge from-layer="3045" from-port="2" to-layer="3046" to-port="0" />
		<edge from-layer="3046" from-port="1" to-layer="3047" to-port="1" />
		<edge from-layer="3047" from-port="2" to-layer="3049" to-port="0" />
		<edge from-layer="3048" from-port="0" to-layer="3049" to-port="1" />
		<edge from-layer="3049" from-port="2" to-layer="3051" to-port="0" />
		<edge from-layer="3050" from-port="0" to-layer="3051" to-port="1" />
		<edge from-layer="3051" from-port="2" to-layer="3053" to-port="0" />
		<edge from-layer="3052" from-port="0" to-layer="3053" to-port="1" />
		<edge from-layer="3053" from-port="2" to-layer="3054" to-port="2" />
		<edge from-layer="3054" from-port="3" to-layer="3056" to-port="0" />
		<edge from-layer="3055" from-port="0" to-layer="3056" to-port="1" />
		<edge from-layer="3056" from-port="2" to-layer="3058" to-port="0" />
		<edge from-layer="3057" from-port="0" to-layer="3058" to-port="1" />
		<edge from-layer="3058" from-port="2" to-layer="3067" to-port="0" />
		<edge from-layer="3059" from-port="0" to-layer="3060" to-port="0" />
		<edge from-layer="3060" from-port="1" to-layer="3063" to-port="0" />
		<edge from-layer="3061" from-port="0" to-layer="3062" to-port="0" />
		<edge from-layer="3062" from-port="1" to-layer="3063" to-port="1" />
		<edge from-layer="3063" from-port="2" to-layer="3065" to-port="0" />
		<edge from-layer="3064" from-port="0" to-layer="3065" to-port="1" />
		<edge from-layer="3065" from-port="2" to-layer="3066" to-port="0" />
		<edge from-layer="3066" from-port="1" to-layer="3067" to-port="1" />
		<edge from-layer="3067" from-port="2" to-layer="3069" to-port="0" />
		<edge from-layer="3068" from-port="0" to-layer="3069" to-port="1" />
		<edge from-layer="3069" from-port="2" to-layer="3070" to-port="1" />
		<edge from-layer="3070" from-port="2" to-layer="3072" to-port="0" />
		<edge from-layer="3070" from-port="2" to-layer="3100" to-port="0" />
		<edge from-layer="3071" from-port="0" to-layer="3072" to-port="1" />
		<edge from-layer="3072" from-port="2" to-layer="3074" to-port="0" />
		<edge from-layer="3073" from-port="0" to-layer="3074" to-port="1" />
		<edge from-layer="3074" from-port="2" to-layer="3076" to-port="0" />
		<edge from-layer="3075" from-port="0" to-layer="3076" to-port="1" />
		<edge from-layer="3076" from-port="2" to-layer="3085" to-port="0" />
		<edge from-layer="3077" from-port="0" to-layer="3078" to-port="0" />
		<edge from-layer="3078" from-port="1" to-layer="3081" to-port="0" />
		<edge from-layer="3079" from-port="0" to-layer="3080" to-port="0" />
		<edge from-layer="3080" from-port="1" to-layer="3081" to-port="1" />
		<edge from-layer="3081" from-port="2" to-layer="3083" to-port="0" />
		<edge from-layer="3082" from-port="0" to-layer="3083" to-port="1" />
		<edge from-layer="3083" from-port="2" to-layer="3084" to-port="0" />
		<edge from-layer="3084" from-port="1" to-layer="3085" to-port="1" />
		<edge from-layer="3085" from-port="2" to-layer="3087" to-port="0" />
		<edge from-layer="3086" from-port="0" to-layer="3087" to-port="1" />
		<edge from-layer="3087" from-port="2" to-layer="3088" to-port="0" />
		<edge from-layer="3088" from-port="1" to-layer="3097" to-port="0" />
		<edge from-layer="3089" from-port="0" to-layer="3090" to-port="0" />
		<edge from-layer="3090" from-port="1" to-layer="3093" to-port="0" />
		<edge from-layer="3091" from-port="0" to-layer="3092" to-port="0" />
		<edge from-layer="3092" from-port="1" to-layer="3093" to-port="1" />
		<edge from-layer="3093" from-port="2" to-layer="3095" to-port="0" />
		<edge from-layer="3094" from-port="0" to-layer="3095" to-port="1" />
		<edge from-layer="3095" from-port="2" to-layer="3096" to-port="0" />
		<edge from-layer="3096" from-port="1" to-layer="3097" to-port="1" />
		<edge from-layer="3097" from-port="2" to-layer="3099" to-port="0" />
		<edge from-layer="3098" from-port="0" to-layer="3099" to-port="1" />
		<edge from-layer="3099" from-port="2" to-layer="3100" to-port="1" />
		<edge from-layer="3100" from-port="2" to-layer="3102" to-port="0" />
		<edge from-layer="3101" from-port="0" to-layer="3102" to-port="1" />
		<edge from-layer="3102" from-port="2" to-layer="3104" to-port="0" />
		<edge from-layer="3103" from-port="0" to-layer="3104" to-port="1" />
		<edge from-layer="3104" from-port="2" to-layer="3106" to-port="0" />
		<edge from-layer="3105" from-port="0" to-layer="3106" to-port="1" />
		<edge from-layer="3106" from-port="2" to-layer="3107" to-port="0" />
	</edges>
	<rt_info>
		<Runtime_version value="2025.0.0-17942-1f68be9f594-releases/2025/0" />
		<conversion_parameters>
			<framework value="pytorch" />
			<is_python_object value="True" />
		</conversion_parameters>
		<nncf>
			<friendly_names_were_updated value="True" />
			<weight_compression>
				<advanced_parameters value="{'statistics_path': None, 'awq_params': {'subset_size': 32, 'percent_to_apply': 0.002, 'alpha_min': 0.0, 'alpha_max': 1.0, 'steps': 100}, 'scale_estimation_params': {'subset_size': 64, 'initial_steps': 5, 'scale_steps': 5, 'weight_penalty': -1.0}, 'gptq_params': {'damp_percent': 0.1, 'block_size': 128, 'subset_size': 128}, 'lora_correction_params': {'adapter_rank': 8, 'num_iterations': 3, 'apply_regularization': True, 'subset_size': 128, 'use_int8_adapters': True}}" />
				<all_layers value="False" />
				<awq value="False" />
				<backup_mode value="int8_asym" />
				<gptq value="False" />
				<group_size value="-1" />
				<ignored_scope value="[]" />
				<lora_correction value="False" />
				<mode value="int8_asym" />
				<ratio value="1.0" />
				<scale_estimation value="False" />
				<sensitivity_metric value="weight_quantization_error" />
			</weight_compression>
		</nncf>
		<optimum>
			<optimum_intel_version value="1.23.0.dev0+626006c" />
			<optimum_version value="1.24.0" />
			<pytorch_version value="2.6.0" />
			<transformers_version value="4.49.0" />
		</optimum>
	</rt_info>
</net>
