<?xml version="1.0"?>
<net name="main_graph" version="11">
	<layers>
		<layer id="0" name="mel" type="Parameter" version="opset1">
			<data shape="1,128,3000" element_type="f32" />
			<output>
				<port id="0" precision="FP32" names="mel">
					<dim>1</dim>
					<dim>128</dim>
					<dim>3000</dim>
				</port>
			</output>
		</layer>
		<layer id="1" name="conv1.weight" type="Const" version="opset1">
			<data element_type="u8" shape="1280, 128, 3" offset="0" size="491520" />
			<output>
				<port id="0" precision="U8">
					<dim>1280</dim>
					<dim>128</dim>
					<dim>3</dim>
				</port>
			</output>
		</layer>
		<layer id="2" name="Convert_6326" type="Convert" version="opset1">
			<data destination_type="f16" />
			<input>
				<port id="0" precision="U8">
					<dim>1280</dim>
					<dim>128</dim>
					<dim>3</dim>
				</port>
			</input>
			<output>
				<port id="1" precision="FP16">
					<dim>1280</dim>
					<dim>128</dim>
					<dim>3</dim>
				</port>
			</output>
		</layer>
		<layer id="3" name="conv1.weight/zero_point" type="Const" version="opset1">
			<data element_type="u8" shape="1280, 1, 1" offset="491520" size="1280" />
			<output>
				<port id="0" precision="U8">
					<dim>1280</dim>
					<dim>1</dim>
					<dim>1</dim>
				</port>
			</output>
		</layer>
		<layer id="4" name="Convert_6329" type="Convert" version="opset1">
			<data destination_type="f16" />
			<input>
				<port id="0" precision="U8">
					<dim>1280</dim>
					<dim>1</dim>
					<dim>1</dim>
				</port>
			</input>
			<output>
				<port id="1" precision="FP16">
					<dim>1280</dim>
					<dim>1</dim>
					<dim>1</dim>
				</port>
			</output>
		</layer>
		<layer id="5" name="conv1.weight/zero_point/subtract" type="Subtract" version="opset1">
			<data auto_broadcast="numpy" />
			<input>
				<port id="0" precision="FP16">
					<dim>1280</dim>
					<dim>128</dim>
					<dim>3</dim>
				</port>
				<port id="1" precision="FP16">
					<dim>1280</dim>
					<dim>1</dim>
					<dim>1</dim>
				</port>
			</input>
			<output>
				<port id="2" precision="FP16">
					<dim>1280</dim>
					<dim>128</dim>
					<dim>3</dim>
				</port>
			</output>
		</layer>
		<layer id="6" name="conv1.weight/scale" type="Const" version="opset1">
			<data element_type="f16" shape="1280, 1, 1" offset="492800" size="2560" />
			<output>
				<port id="0" precision="FP16">
					<dim>1280</dim>
					<dim>1</dim>
					<dim>1</dim>
				</port>
			</output>
		</layer>
		<layer id="7" name="conv1.weight/fq_weights_1" type="Multiply" version="opset1">
			<data auto_broadcast="numpy" />
			<input>
				<port id="0" precision="FP16">
					<dim>1280</dim>
					<dim>128</dim>
					<dim>3</dim>
				</port>
				<port id="1" precision="FP16">
					<dim>1280</dim>
					<dim>1</dim>
					<dim>1</dim>
				</port>
			</input>
			<output>
				<port id="2" precision="FP16">
					<dim>1280</dim>
					<dim>128</dim>
					<dim>3</dim>
				</port>
			</output>
		</layer>
		<layer id="8" name="conv1.weight/fq_weights_1/convert" type="Convert" version="opset1">
			<data destination_type="f32" />
			<input>
				<port id="0" precision="FP16">
					<dim>1280</dim>
					<dim>128</dim>
					<dim>3</dim>
				</port>
			</input>
			<output>
				<port id="1" precision="FP32">
					<dim>1280</dim>
					<dim>128</dim>
					<dim>3</dim>
				</port>
			</output>
		</layer>
		<layer id="9" name="node_conv1d/WithoutBiases" type="Convolution" version="opset1">
			<data strides="1" dilations="1" pads_begin="1" pads_end="1" auto_pad="explicit" />
			<input>
				<port id="0" precision="FP32">
					<dim>1</dim>
					<dim>128</dim>
					<dim>3000</dim>
				</port>
				<port id="1" precision="FP32">
					<dim>1280</dim>
					<dim>128</dim>
					<dim>3</dim>
				</port>
			</input>
			<output>
				<port id="2" precision="FP32">
					<dim>1</dim>
					<dim>1280</dim>
					<dim>3000</dim>
				</port>
			</output>
		</layer>
		<layer id="10" name="conv1.bias" type="Const" version="opset1">
			<data element_type="f32" shape="1280" offset="495360" size="5120" />
			<output>
				<port id="0" precision="FP32" names="conv1.bias">
					<dim>1280</dim>
				</port>
			</output>
		</layer>
		<layer id="11" name="Constant_497" type="Const" version="opset1">
			<data element_type="i64" shape="1" offset="500480" size="8" />
			<output>
				<port id="0" precision="I64">
					<dim>1</dim>
				</port>
			</output>
		</layer>
		<layer id="12" name="ShapeOf_503" type="ShapeOf" version="opset3">
			<data output_type="i64" />
			<input>
				<port id="0" precision="FP32">
					<dim>1280</dim>
				</port>
			</input>
			<output>
				<port id="1" precision="I64">
					<dim>1</dim>
				</port>
			</output>
		</layer>
		<layer id="13" name="ShapeOf_495" type="ShapeOf" version="opset3">
			<data output_type="i64" />
			<input>
				<port id="0" precision="FP32">
					<dim>1</dim>
					<dim>1280</dim>
					<dim>3000</dim>
				</port>
			</input>
			<output>
				<port id="1" precision="I64">
					<dim>3</dim>
				</port>
			</output>
		</layer>
		<layer id="14" name="ShapeOf_496" type="ShapeOf" version="opset3">
			<data output_type="i64" />
			<input>
				<port id="0" precision="I64">
					<dim>3</dim>
				</port>
			</input>
			<output>
				<port id="1" precision="I64">
					<dim>1</dim>
				</port>
			</output>
		</layer>
		<layer id="15" name="Constant_498" type="Const" version="opset1">
			<data element_type="i64" shape="1" offset="500488" size="8" />
			<output>
				<port id="0" precision="I64">
					<dim>1</dim>
				</port>
			</output>
		</layer>
		<layer id="16" name="Subtract_499" type="Subtract" version="opset1">
			<data auto_broadcast="numpy" />
			<input>
				<port id="0" precision="I64">
					<dim>1</dim>
				</port>
				<port id="1" precision="I64">
					<dim>1</dim>
				</port>
			</input>
			<output>
				<port id="2" precision="I64">
					<dim>1</dim>
				</port>
			</output>
		</layer>
		<layer id="17" name="Broadcast_500" type="Broadcast" version="opset3">
			<data mode="numpy" />
			<input>
				<port id="0" precision="I64">
					<dim>1</dim>
				</port>
				<port id="1" precision="I64">
					<dim>1</dim>
				</port>
			</input>
			<output>
				<port id="2" precision="I64">
					<dim>1</dim>
				</port>
			</output>
		</layer>
		<layer id="18" name="Concat_504" type="Concat" version="opset1">
			<data axis="0" />
			<input>
				<port id="0" precision="I64">
					<dim>1</dim>
				</port>
				<port id="1" precision="I64">
					<dim>1</dim>
				</port>
				<port id="2" precision="I64">
					<dim>1</dim>
				</port>
			</input>
			<output>
				<port id="3" precision="I64">
					<dim>3</dim>
				</port>
			</output>
		</layer>
		<layer id="19" name="Reshape_505" type="Reshape" version="opset1">
			<data special_zero="false" />
			<input>
				<port id="0" precision="FP32">
					<dim>1280</dim>
				</port>
				<port id="1" precision="I64">
					<dim>3</dim>
				</port>
			</input>
			<output>
				<port id="2" precision="FP32">
					<dim>1</dim>
					<dim>1280</dim>
					<dim>1</dim>
				</port>
			</output>
		</layer>
		<layer id="20" name="node_conv1d" type="Add" version="opset1">
			<data auto_broadcast="numpy" />
			<input>
				<port id="0" precision="FP32">
					<dim>1</dim>
					<dim>1280</dim>
					<dim>3000</dim>
				</port>
				<port id="1" precision="FP32">
					<dim>1</dim>
					<dim>1280</dim>
					<dim>1</dim>
				</port>
			</input>
			<output>
				<port id="2" precision="FP32" names="conv1d">
					<dim>1</dim>
					<dim>1280</dim>
					<dim>3000</dim>
				</port>
			</output>
		</layer>
		<layer id="21" name="node_gelu" type="Gelu" version="opset7">
			<data approximation_mode="ERF" />
			<input>
				<port id="0" precision="FP32">
					<dim>1</dim>
					<dim>1280</dim>
					<dim>3000</dim>
				</port>
			</input>
			<output>
				<port id="1" precision="FP32" names="gelu">
					<dim>1</dim>
					<dim>1280</dim>
					<dim>3000</dim>
				</port>
			</output>
		</layer>
		<layer id="22" name="conv2.weight" type="Const" version="opset1">
			<data element_type="u8" shape="1280, 1280, 3" offset="500496" size="4915200" />
			<output>
				<port id="0" precision="U8">
					<dim>1280</dim>
					<dim>1280</dim>
					<dim>3</dim>
				</port>
			</output>
		</layer>
		<layer id="23" name="Convert_4907" type="Convert" version="opset1">
			<data destination_type="f16" />
			<input>
				<port id="0" precision="U8">
					<dim>1280</dim>
					<dim>1280</dim>
					<dim>3</dim>
				</port>
			</input>
			<output>
				<port id="1" precision="FP16">
					<dim>1280</dim>
					<dim>1280</dim>
					<dim>3</dim>
				</port>
			</output>
		</layer>
		<layer id="24" name="conv2.weight/zero_point" type="Const" version="opset1">
			<data element_type="u8" shape="1280, 1, 1" offset="5415696" size="1280" />
			<output>
				<port id="0" precision="U8">
					<dim>1280</dim>
					<dim>1</dim>
					<dim>1</dim>
				</port>
			</output>
		</layer>
		<layer id="25" name="Convert_4910" type="Convert" version="opset1">
			<data destination_type="f16" />
			<input>
				<port id="0" precision="U8">
					<dim>1280</dim>
					<dim>1</dim>
					<dim>1</dim>
				</port>
			</input>
			<output>
				<port id="1" precision="FP16">
					<dim>1280</dim>
					<dim>1</dim>
					<dim>1</dim>
				</port>
			</output>
		</layer>
		<layer id="26" name="conv2.weight/zero_point/subtract" type="Subtract" version="opset1">
			<data auto_broadcast="numpy" />
			<input>
				<port id="0" precision="FP16">
					<dim>1280</dim>
					<dim>1280</dim>
					<dim>3</dim>
				</port>
				<port id="1" precision="FP16">
					<dim>1280</dim>
					<dim>1</dim>
					<dim>1</dim>
				</port>
			</input>
			<output>
				<port id="2" precision="FP16">
					<dim>1280</dim>
					<dim>1280</dim>
					<dim>3</dim>
				</port>
			</output>
		</layer>
		<layer id="27" name="conv2.weight/scale" type="Const" version="opset1">
			<data element_type="f16" shape="1280, 1, 1" offset="5416976" size="2560" />
			<output>
				<port id="0" precision="FP16">
					<dim>1280</dim>
					<dim>1</dim>
					<dim>1</dim>
				</port>
			</output>
		</layer>
		<layer id="28" name="conv2.weight/fq_weights_1" type="Multiply" version="opset1">
			<data auto_broadcast="numpy" />
			<input>
				<port id="0" precision="FP16">
					<dim>1280</dim>
					<dim>1280</dim>
					<dim>3</dim>
				</port>
				<port id="1" precision="FP16">
					<dim>1280</dim>
					<dim>1</dim>
					<dim>1</dim>
				</port>
			</input>
			<output>
				<port id="2" precision="FP16">
					<dim>1280</dim>
					<dim>1280</dim>
					<dim>3</dim>
				</port>
			</output>
		</layer>
		<layer id="29" name="conv2.weight/fq_weights_1/convert" type="Convert" version="opset1">
			<data destination_type="f32" />
			<input>
				<port id="0" precision="FP16">
					<dim>1280</dim>
					<dim>1280</dim>
					<dim>3</dim>
				</port>
			</input>
			<output>
				<port id="1" precision="FP32">
					<dim>1280</dim>
					<dim>1280</dim>
					<dim>3</dim>
				</port>
			</output>
		</layer>
		<layer id="30" name="node_conv1d_1/WithoutBiases" type="Convolution" version="opset1">
			<data strides="2" dilations="1" pads_begin="1" pads_end="1" auto_pad="explicit" />
			<input>
				<port id="0" precision="FP32">
					<dim>1</dim>
					<dim>1280</dim>
					<dim>3000</dim>
				</port>
				<port id="1" precision="FP32">
					<dim>1280</dim>
					<dim>1280</dim>
					<dim>3</dim>
				</port>
			</input>
			<output>
				<port id="2" precision="FP32">
					<dim>1</dim>
					<dim>1280</dim>
					<dim>1500</dim>
				</port>
			</output>
		</layer>
		<layer id="31" name="conv2.bias" type="Const" version="opset1">
			<data element_type="f32" shape="1280" offset="5419536" size="5120" />
			<output>
				<port id="0" precision="FP32" names="conv2.bias">
					<dim>1280</dim>
				</port>
			</output>
		</layer>
		<layer id="32" name="Constant_511" type="Const" version="opset1">
			<data element_type="i64" shape="1" offset="500480" size="8" />
			<output>
				<port id="0" precision="I64">
					<dim>1</dim>
				</port>
			</output>
		</layer>
		<layer id="33" name="ShapeOf_517" type="ShapeOf" version="opset3">
			<data output_type="i64" />
			<input>
				<port id="0" precision="FP32">
					<dim>1280</dim>
				</port>
			</input>
			<output>
				<port id="1" precision="I64">
					<dim>1</dim>
				</port>
			</output>
		</layer>
		<layer id="34" name="ShapeOf_509" type="ShapeOf" version="opset3">
			<data output_type="i64" />
			<input>
				<port id="0" precision="FP32">
					<dim>1</dim>
					<dim>1280</dim>
					<dim>1500</dim>
				</port>
			</input>
			<output>
				<port id="1" precision="I64">
					<dim>3</dim>
				</port>
			</output>
		</layer>
		<layer id="35" name="ShapeOf_510" type="ShapeOf" version="opset3">
			<data output_type="i64" />
			<input>
				<port id="0" precision="I64">
					<dim>3</dim>
				</port>
			</input>
			<output>
				<port id="1" precision="I64">
					<dim>1</dim>
				</port>
			</output>
		</layer>
		<layer id="36" name="Constant_512" type="Const" version="opset1">
			<data element_type="i64" shape="1" offset="500488" size="8" />
			<output>
				<port id="0" precision="I64">
					<dim>1</dim>
				</port>
			</output>
		</layer>
		<layer id="37" name="Subtract_513" type="Subtract" version="opset1">
			<data auto_broadcast="numpy" />
			<input>
				<port id="0" precision="I64">
					<dim>1</dim>
				</port>
				<port id="1" precision="I64">
					<dim>1</dim>
				</port>
			</input>
			<output>
				<port id="2" precision="I64">
					<dim>1</dim>
				</port>
			</output>
		</layer>
		<layer id="38" name="Broadcast_514" type="Broadcast" version="opset3">
			<data mode="numpy" />
			<input>
				<port id="0" precision="I64">
					<dim>1</dim>
				</port>
				<port id="1" precision="I64">
					<dim>1</dim>
				</port>
			</input>
			<output>
				<port id="2" precision="I64">
					<dim>1</dim>
				</port>
			</output>
		</layer>
		<layer id="39" name="Concat_518" type="Concat" version="opset1">
			<data axis="0" />
			<input>
				<port id="0" precision="I64">
					<dim>1</dim>
				</port>
				<port id="1" precision="I64">
					<dim>1</dim>
				</port>
				<port id="2" precision="I64">
					<dim>1</dim>
				</port>
			</input>
			<output>
				<port id="3" precision="I64">
					<dim>3</dim>
				</port>
			</output>
		</layer>
		<layer id="40" name="Reshape_519" type="Reshape" version="opset1">
			<data special_zero="false" />
			<input>
				<port id="0" precision="FP32">
					<dim>1280</dim>
				</port>
				<port id="1" precision="I64">
					<dim>3</dim>
				</port>
			</input>
			<output>
				<port id="2" precision="FP32">
					<dim>1</dim>
					<dim>1280</dim>
					<dim>1</dim>
				</port>
			</output>
		</layer>
		<layer id="41" name="node_conv1d_1" type="Add" version="opset1">
			<data auto_broadcast="numpy" />
			<input>
				<port id="0" precision="FP32">
					<dim>1</dim>
					<dim>1280</dim>
					<dim>1500</dim>
				</port>
				<port id="1" precision="FP32">
					<dim>1</dim>
					<dim>1280</dim>
					<dim>1</dim>
				</port>
			</input>
			<output>
				<port id="2" precision="FP32" names="conv1d_1">
					<dim>1</dim>
					<dim>1280</dim>
					<dim>1500</dim>
				</port>
			</output>
		</layer>
		<layer id="42" name="node_gelu_1" type="Gelu" version="opset7">
			<data approximation_mode="ERF" />
			<input>
				<port id="0" precision="FP32">
					<dim>1</dim>
					<dim>1280</dim>
					<dim>1500</dim>
				</port>
			</input>
			<output>
				<port id="1" precision="FP32" names="gelu_1">
					<dim>1</dim>
					<dim>1280</dim>
					<dim>1500</dim>
				</port>
			</output>
		</layer>
		<layer id="43" name="Constant_522" type="Const" version="opset1">
			<data element_type="i64" shape="3" offset="5424656" size="24" />
			<output>
				<port id="0" precision="I64">
					<dim>3</dim>
				</port>
			</output>
		</layer>
		<layer id="44" name="node_permute" type="Transpose" version="opset1">
			<input>
				<port id="0" precision="FP32">
					<dim>1</dim>
					<dim>1280</dim>
					<dim>1500</dim>
				</port>
				<port id="1" precision="I64">
					<dim>3</dim>
				</port>
			</input>
			<output>
				<port id="2" precision="FP32" names="permute">
					<dim>1</dim>
					<dim>1500</dim>
					<dim>1280</dim>
				</port>
			</output>
		</layer>
		<layer id="45" name="positional_embedding" type="Const" version="opset1">
			<data element_type="f32" shape="1500, 1280" offset="5424680" size="7680000" />
			<output>
				<port id="0" precision="FP32" names="positional_embedding">
					<dim>1500</dim>
					<dim>1280</dim>
				</port>
			</output>
		</layer>
		<layer id="46" name="node_add" type="Add" version="opset1">
			<data auto_broadcast="numpy" />
			<input>
				<port id="0" precision="FP32">
					<dim>1</dim>
					<dim>1500</dim>
					<dim>1280</dim>
				</port>
				<port id="1" precision="FP32">
					<dim>1500</dim>
					<dim>1280</dim>
				</port>
			</input>
			<output>
				<port id="2" precision="FP32" names="add">
					<dim>1</dim>
					<dim>1500</dim>
					<dim>1280</dim>
				</port>
			</output>
		</layer>
		<layer id="47" name="Constant_527" type="Const" version="opset1">
			<data element_type="i64" shape="" offset="13104680" size="8" />
			<output>
				<port id="0" precision="I64" />
			</output>
		</layer>
		<layer id="48" name="Constant_526" type="Const" version="opset1">
			<data element_type="i64" shape="" offset="13104688" size="8" />
			<output>
				<port id="0" precision="I64" />
			</output>
		</layer>
		<layer id="49" name="Constant_525" type="Const" version="opset1">
			<data element_type="i64" shape="" offset="500480" size="8" />
			<output>
				<port id="0" precision="I64" />
			</output>
		</layer>
		<layer id="50" name="Range_528" type="Range" version="opset4">
			<data output_type="i64" />
			<input>
				<port id="0" precision="I64" />
				<port id="1" precision="I64" />
				<port id="2" precision="I64" />
			</input>
			<output>
				<port id="3" precision="I64">
					<dim>1</dim>
				</port>
			</output>
		</layer>
		<layer id="51" name="MVN_529" type="MVN" version="opset6">
			<data eps="9.9999997473787516e-06" normalize_variance="true" eps_mode="INSIDE_SQRT" />
			<input>
				<port id="0" precision="FP32">
					<dim>1</dim>
					<dim>1500</dim>
					<dim>1280</dim>
				</port>
				<port id="1" precision="I64">
					<dim>1</dim>
				</port>
			</input>
			<output>
				<port id="2" precision="FP32">
					<dim>1</dim>
					<dim>1500</dim>
					<dim>1280</dim>
				</port>
			</output>
		</layer>
		<layer id="52" name="blocks.0.attn_ln.weight" type="Const" version="opset1">
			<data element_type="f32" shape="1280" offset="13104696" size="5120" />
			<output>
				<port id="0" precision="FP32" names="blocks.0.attn_ln.weight">
					<dim>1280</dim>
				</port>
			</output>
		</layer>
		<layer id="53" name="Multiply_530" type="Multiply" version="opset1">
			<data auto_broadcast="numpy" />
			<input>
				<port id="0" precision="FP32">
					<dim>1</dim>
					<dim>1500</dim>
					<dim>1280</dim>
				</port>
				<port id="1" precision="FP32">
					<dim>1280</dim>
				</port>
			</input>
			<output>
				<port id="2" precision="FP32">
					<dim>1</dim>
					<dim>1500</dim>
					<dim>1280</dim>
				</port>
			</output>
		</layer>
		<layer id="54" name="blocks.0.attn_ln.bias" type="Const" version="opset1">
			<data element_type="f32" shape="1280" offset="13109816" size="5120" />
			<output>
				<port id="0" precision="FP32" names="blocks.0.attn_ln.bias">
					<dim>1280</dim>
				</port>
			</output>
		</layer>
		<layer id="55" name="node_layer_norm" type="Add" version="opset1">
			<data auto_broadcast="numpy" />
			<input>
				<port id="0" precision="FP32">
					<dim>1</dim>
					<dim>1500</dim>
					<dim>1280</dim>
				</port>
				<port id="1" precision="FP32">
					<dim>1280</dim>
				</port>
			</input>
			<output>
				<port id="2" precision="FP32" names="layer_norm">
					<dim>1</dim>
					<dim>1500</dim>
					<dim>1280</dim>
				</port>
			</output>
		</layer>
		<layer id="56" name="val_2" type="Const" version="opset1">
			<data element_type="u8" shape="1280, 1280" offset="13114936" size="1638400" />
			<output>
				<port id="0" precision="U8">
					<dim>1280</dim>
					<dim>1280</dim>
				</port>
			</output>
		</layer>
		<layer id="57" name="Convert_4940" type="Convert" version="opset1">
			<data destination_type="f16" />
			<input>
				<port id="0" precision="U8">
					<dim>1280</dim>
					<dim>1280</dim>
				</port>
			</input>
			<output>
				<port id="1" precision="FP16">
					<dim>1280</dim>
					<dim>1280</dim>
				</port>
			</output>
		</layer>
		<layer id="58" name="val_2/zero_point" type="Const" version="opset1">
			<data element_type="u8" shape="1, 1280" offset="14753336" size="1280" />
			<output>
				<port id="0" precision="U8">
					<dim>1</dim>
					<dim>1280</dim>
				</port>
			</output>
		</layer>
		<layer id="59" name="Convert_4943" type="Convert" version="opset1">
			<data destination_type="f16" />
			<input>
				<port id="0" precision="U8">
					<dim>1</dim>
					<dim>1280</dim>
				</port>
			</input>
			<output>
				<port id="1" precision="FP16">
					<dim>1</dim>
					<dim>1280</dim>
				</port>
			</output>
		</layer>
		<layer id="60" name="val_2/zero_point/subtract" type="Subtract" version="opset1">
			<data auto_broadcast="numpy" />
			<input>
				<port id="0" precision="FP16">
					<dim>1280</dim>
					<dim>1280</dim>
				</port>
				<port id="1" precision="FP16">
					<dim>1</dim>
					<dim>1280</dim>
				</port>
			</input>
			<output>
				<port id="2" precision="FP16">
					<dim>1280</dim>
					<dim>1280</dim>
				</port>
			</output>
		</layer>
		<layer id="61" name="val_2/scale" type="Const" version="opset1">
			<data element_type="f16" shape="1, 1280" offset="14754616" size="2560" />
			<output>
				<port id="0" precision="FP16">
					<dim>1</dim>
					<dim>1280</dim>
				</port>
			</output>
		</layer>
		<layer id="62" name="val_2/fq_weights_1" type="Multiply" version="opset1">
			<data auto_broadcast="numpy" />
			<input>
				<port id="0" precision="FP16">
					<dim>1280</dim>
					<dim>1280</dim>
				</port>
				<port id="1" precision="FP16">
					<dim>1</dim>
					<dim>1280</dim>
				</port>
			</input>
			<output>
				<port id="2" precision="FP16">
					<dim>1280</dim>
					<dim>1280</dim>
				</port>
			</output>
		</layer>
		<layer id="63" name="val_2/fq_weights_1/convert" type="Convert" version="opset1">
			<data destination_type="f32" />
			<input>
				<port id="0" precision="FP16">
					<dim>1280</dim>
					<dim>1280</dim>
				</port>
			</input>
			<output>
				<port id="1" precision="FP32">
					<dim>1280</dim>
					<dim>1280</dim>
				</port>
			</output>
		</layer>
		<layer id="64" name="node_MatMul_1" type="MatMul" version="opset1">
			<data transpose_a="false" transpose_b="false" />
			<input>
				<port id="0" precision="FP32">
					<dim>1</dim>
					<dim>1500</dim>
					<dim>1280</dim>
				</port>
				<port id="1" precision="FP32">
					<dim>1280</dim>
					<dim>1280</dim>
				</port>
			</input>
			<output>
				<port id="2" precision="FP32" names="val_3">
					<dim>1</dim>
					<dim>1500</dim>
					<dim>1280</dim>
				</port>
			</output>
		</layer>
		<layer id="65" name="blocks.0.attn.query.bias" type="Const" version="opset1">
			<data element_type="f32" shape="1280" offset="14757176" size="5120" />
			<output>
				<port id="0" precision="FP32" names="blocks.0.attn.query.bias">
					<dim>1280</dim>
				</port>
			</output>
		</layer>
		<layer id="66" name="node_linear" type="Add" version="opset1">
			<data auto_broadcast="numpy" />
			<input>
				<port id="0" precision="FP32">
					<dim>1</dim>
					<dim>1500</dim>
					<dim>1280</dim>
				</port>
				<port id="1" precision="FP32">
					<dim>1280</dim>
				</port>
			</input>
			<output>
				<port id="2" precision="FP32" names="linear">
					<dim>1</dim>
					<dim>1500</dim>
					<dim>1280</dim>
				</port>
			</output>
		</layer>
		<layer id="67" name="val_12" type="Const" version="opset1">
			<data element_type="i64" shape="4" offset="14762296" size="32" />
			<output>
				<port id="0" precision="I64" names="val_12">
					<dim>4</dim>
				</port>
			</output>
		</layer>
		<layer id="68" name="node_view" type="Reshape" version="opset1">
			<data special_zero="true" />
			<input>
				<port id="0" precision="FP32">
					<dim>1</dim>
					<dim>1500</dim>
					<dim>1280</dim>
				</port>
				<port id="1" precision="I64">
					<dim>4</dim>
				</port>
			</input>
			<output>
				<port id="2" precision="FP32" names="view">
					<dim>1</dim>
					<dim>1500</dim>
					<dim>20</dim>
					<dim>64</dim>
				</port>
			</output>
		</layer>
		<layer id="69" name="Constant_538" type="Const" version="opset1">
			<data element_type="i64" shape="4" offset="14762328" size="32" />
			<output>
				<port id="0" precision="I64">
					<dim>4</dim>
				</port>
			</output>
		</layer>
		<layer id="70" name="node_permute_1" type="Transpose" version="opset1">
			<input>
				<port id="0" precision="FP32">
					<dim>1</dim>
					<dim>1500</dim>
					<dim>20</dim>
					<dim>64</dim>
				</port>
				<port id="1" precision="I64">
					<dim>4</dim>
				</port>
			</input>
			<output>
				<port id="2" precision="FP32" names="permute_1">
					<dim>1</dim>
					<dim>20</dim>
					<dim>1500</dim>
					<dim>64</dim>
				</port>
			</output>
		</layer>
		<layer id="71" name="val_48" type="Const" version="opset1">
			<data element_type="f32" shape="1" offset="14762360" size="4" />
			<output>
				<port id="0" precision="FP32" names="val_48">
					<dim>1</dim>
				</port>
			</output>
		</layer>
		<layer id="72" name="node_Mul_47" type="Multiply" version="opset1">
			<data auto_broadcast="numpy" />
			<input>
				<port id="0" precision="FP32">
					<dim>1</dim>
					<dim>20</dim>
					<dim>1500</dim>
					<dim>64</dim>
				</port>
				<port id="1" precision="FP32">
					<dim>1</dim>
				</port>
			</input>
			<output>
				<port id="2" precision="FP32" names="val_49">
					<dim>1</dim>
					<dim>20</dim>
					<dim>1500</dim>
					<dim>64</dim>
				</port>
			</output>
		</layer>
		<layer id="73" name="val_4" type="Const" version="opset1">
			<data element_type="u8" shape="1280, 1280" offset="14762364" size="1638400" />
			<output>
				<port id="0" precision="U8">
					<dim>1280</dim>
					<dim>1280</dim>
				</port>
			</output>
		</layer>
		<layer id="74" name="Convert_4929" type="Convert" version="opset1">
			<data destination_type="f16" />
			<input>
				<port id="0" precision="U8">
					<dim>1280</dim>
					<dim>1280</dim>
				</port>
			</input>
			<output>
				<port id="1" precision="FP16">
					<dim>1280</dim>
					<dim>1280</dim>
				</port>
			</output>
		</layer>
		<layer id="75" name="val_4/zero_point" type="Const" version="opset1">
			<data element_type="u8" shape="1, 1280" offset="16400764" size="1280" />
			<output>
				<port id="0" precision="U8">
					<dim>1</dim>
					<dim>1280</dim>
				</port>
			</output>
		</layer>
		<layer id="76" name="Convert_4932" type="Convert" version="opset1">
			<data destination_type="f16" />
			<input>
				<port id="0" precision="U8">
					<dim>1</dim>
					<dim>1280</dim>
				</port>
			</input>
			<output>
				<port id="1" precision="FP16">
					<dim>1</dim>
					<dim>1280</dim>
				</port>
			</output>
		</layer>
		<layer id="77" name="val_4/zero_point/subtract" type="Subtract" version="opset1">
			<data auto_broadcast="numpy" />
			<input>
				<port id="0" precision="FP16">
					<dim>1280</dim>
					<dim>1280</dim>
				</port>
				<port id="1" precision="FP16">
					<dim>1</dim>
					<dim>1280</dim>
				</port>
			</input>
			<output>
				<port id="2" precision="FP16">
					<dim>1280</dim>
					<dim>1280</dim>
				</port>
			</output>
		</layer>
		<layer id="78" name="val_4/scale" type="Const" version="opset1">
			<data element_type="f16" shape="1, 1280" offset="16402044" size="2560" />
			<output>
				<port id="0" precision="FP16">
					<dim>1</dim>
					<dim>1280</dim>
				</port>
			</output>
		</layer>
		<layer id="79" name="val_4/fq_weights_1" type="Multiply" version="opset1">
			<data auto_broadcast="numpy" />
			<input>
				<port id="0" precision="FP16">
					<dim>1280</dim>
					<dim>1280</dim>
				</port>
				<port id="1" precision="FP16">
					<dim>1</dim>
					<dim>1280</dim>
				</port>
			</input>
			<output>
				<port id="2" precision="FP16">
					<dim>1280</dim>
					<dim>1280</dim>
				</port>
			</output>
		</layer>
		<layer id="80" name="val_4/fq_weights_1/convert" type="Convert" version="opset1">
			<data destination_type="f32" />
			<input>
				<port id="0" precision="FP16">
					<dim>1280</dim>
					<dim>1280</dim>
				</port>
			</input>
			<output>
				<port id="1" precision="FP32">
					<dim>1280</dim>
					<dim>1280</dim>
				</port>
			</output>
		</layer>
		<layer id="81" name="node_linear_1" type="MatMul" version="opset1">
			<data transpose_a="false" transpose_b="false" />
			<input>
				<port id="0" precision="FP32">
					<dim>1</dim>
					<dim>1500</dim>
					<dim>1280</dim>
				</port>
				<port id="1" precision="FP32">
					<dim>1280</dim>
					<dim>1280</dim>
				</port>
			</input>
			<output>
				<port id="2" precision="FP32" names="linear_1">
					<dim>1</dim>
					<dim>1500</dim>
					<dim>1280</dim>
				</port>
			</output>
		</layer>
		<layer id="82" name="node_view_1" type="Reshape" version="opset1">
			<data special_zero="true" />
			<input>
				<port id="0" precision="FP32">
					<dim>1</dim>
					<dim>1500</dim>
					<dim>1280</dim>
				</port>
				<port id="1" precision="I64">
					<dim>4</dim>
				</port>
			</input>
			<output>
				<port id="2" precision="FP32" names="view_1">
					<dim>1</dim>
					<dim>1500</dim>
					<dim>20</dim>
					<dim>64</dim>
				</port>
			</output>
		</layer>
		<layer id="83" name="Constant_541" type="Const" version="opset1">
			<data element_type="i64" shape="4" offset="14762328" size="32" />
			<output>
				<port id="0" precision="I64">
					<dim>4</dim>
				</port>
			</output>
		</layer>
		<layer id="84" name="node_permute_2" type="Transpose" version="opset1">
			<input>
				<port id="0" precision="FP32">
					<dim>1</dim>
					<dim>1500</dim>
					<dim>20</dim>
					<dim>64</dim>
				</port>
				<port id="1" precision="I64">
					<dim>4</dim>
				</port>
			</input>
			<output>
				<port id="2" precision="FP32" names="permute_2">
					<dim>1</dim>
					<dim>20</dim>
					<dim>1500</dim>
					<dim>64</dim>
				</port>
			</output>
		</layer>
		<layer id="85" name="val_43" type="Const" version="opset1">
			<data element_type="i64" shape="3" offset="16404604" size="24" />
			<output>
				<port id="0" precision="I64" names="val_43">
					<dim>3</dim>
				</port>
			</output>
		</layer>
		<layer id="86" name="node_Reshape_42" type="Reshape" version="opset1">
			<data special_zero="true" />
			<input>
				<port id="0" precision="FP32">
					<dim>1</dim>
					<dim>20</dim>
					<dim>1500</dim>
					<dim>64</dim>
				</port>
				<port id="1" precision="I64">
					<dim>3</dim>
				</port>
			</input>
			<output>
				<port id="2" precision="FP32" names="val_44">
					<dim>20</dim>
					<dim>1500</dim>
					<dim>64</dim>
				</port>
			</output>
		</layer>
		<layer id="87" name="Constant_547" type="Const" version="opset1">
			<data element_type="i64" shape="3" offset="5424656" size="24" />
			<output>
				<port id="0" precision="I64">
					<dim>3</dim>
				</port>
			</output>
		</layer>
		<layer id="88" name="node_Transpose_43" type="Transpose" version="opset1">
			<input>
				<port id="0" precision="FP32">
					<dim>20</dim>
					<dim>1500</dim>
					<dim>64</dim>
				</port>
				<port id="1" precision="I64">
					<dim>3</dim>
				</port>
			</input>
			<output>
				<port id="2" precision="FP32" names="val_45">
					<dim>20</dim>
					<dim>64</dim>
					<dim>1500</dim>
				</port>
			</output>
		</layer>
		<layer id="89" name="val_46" type="Const" version="opset1">
			<data element_type="i64" shape="4" offset="16404628" size="32" />
			<output>
				<port id="0" precision="I64" names="val_46">
					<dim>4</dim>
				</port>
			</output>
		</layer>
		<layer id="90" name="node_Reshape_45" type="Reshape" version="opset1">
			<data special_zero="true" />
			<input>
				<port id="0" precision="FP32">
					<dim>20</dim>
					<dim>64</dim>
					<dim>1500</dim>
				</port>
				<port id="1" precision="I64">
					<dim>4</dim>
				</port>
			</input>
			<output>
				<port id="2" precision="FP32" names="val_47">
					<dim>1</dim>
					<dim>20</dim>
					<dim>64</dim>
					<dim>1500</dim>
				</port>
			</output>
		</layer>
		<layer id="91" name="node_Mul_50" type="Multiply" version="opset1">
			<data auto_broadcast="numpy" />
			<input>
				<port id="0" precision="FP32">
					<dim>1</dim>
					<dim>20</dim>
					<dim>64</dim>
					<dim>1500</dim>
				</port>
				<port id="1" precision="FP32">
					<dim>1</dim>
				</port>
			</input>
			<output>
				<port id="2" precision="FP32" names="val_52">
					<dim>1</dim>
					<dim>20</dim>
					<dim>64</dim>
					<dim>1500</dim>
				</port>
			</output>
		</layer>
		<layer id="92" name="node_MatMul_51" type="MatMul" version="opset1">
			<data transpose_a="false" transpose_b="false" />
			<input>
				<port id="0" precision="FP32">
					<dim>1</dim>
					<dim>20</dim>
					<dim>1500</dim>
					<dim>64</dim>
				</port>
				<port id="1" precision="FP32">
					<dim>1</dim>
					<dim>20</dim>
					<dim>64</dim>
					<dim>1500</dim>
				</port>
			</input>
			<output>
				<port id="2" precision="FP32" names="val_53">
					<dim>1</dim>
					<dim>20</dim>
					<dim>1500</dim>
					<dim>1500</dim>
				</port>
			</output>
		</layer>
		<layer id="93" name="node_Softmax_52" type="SoftMax" version="opset8">
			<data axis="-1" />
			<input>
				<port id="0" precision="FP32">
					<dim>1</dim>
					<dim>20</dim>
					<dim>1500</dim>
					<dim>1500</dim>
				</port>
			</input>
			<output>
				<port id="1" precision="FP32" names="val_54">
					<dim>1</dim>
					<dim>20</dim>
					<dim>1500</dim>
					<dim>1500</dim>
				</port>
			</output>
		</layer>
		<layer id="94" name="val_5" type="Const" version="opset1">
			<data element_type="u8" shape="1280, 1280" offset="16404660" size="1638400" />
			<output>
				<port id="0" precision="U8">
					<dim>1280</dim>
					<dim>1280</dim>
				</port>
			</output>
		</layer>
		<layer id="95" name="Convert_4918" type="Convert" version="opset1">
			<data destination_type="f16" />
			<input>
				<port id="0" precision="U8">
					<dim>1280</dim>
					<dim>1280</dim>
				</port>
			</input>
			<output>
				<port id="1" precision="FP16">
					<dim>1280</dim>
					<dim>1280</dim>
				</port>
			</output>
		</layer>
		<layer id="96" name="val_5/zero_point" type="Const" version="opset1">
			<data element_type="u8" shape="1, 1280" offset="18043060" size="1280" />
			<output>
				<port id="0" precision="U8">
					<dim>1</dim>
					<dim>1280</dim>
				</port>
			</output>
		</layer>
		<layer id="97" name="Convert_4921" type="Convert" version="opset1">
			<data destination_type="f16" />
			<input>
				<port id="0" precision="U8">
					<dim>1</dim>
					<dim>1280</dim>
				</port>
			</input>
			<output>
				<port id="1" precision="FP16">
					<dim>1</dim>
					<dim>1280</dim>
				</port>
			</output>
		</layer>
		<layer id="98" name="val_5/zero_point/subtract" type="Subtract" version="opset1">
			<data auto_broadcast="numpy" />
			<input>
				<port id="0" precision="FP16">
					<dim>1280</dim>
					<dim>1280</dim>
				</port>
				<port id="1" precision="FP16">
					<dim>1</dim>
					<dim>1280</dim>
				</port>
			</input>
			<output>
				<port id="2" precision="FP16">
					<dim>1280</dim>
					<dim>1280</dim>
				</port>
			</output>
		</layer>
		<layer id="99" name="val_5/scale" type="Const" version="opset1">
			<data element_type="f16" shape="1, 1280" offset="18044340" size="2560" />
			<output>
				<port id="0" precision="FP16">
					<dim>1</dim>
					<dim>1280</dim>
				</port>
			</output>
		</layer>
		<layer id="100" name="val_5/fq_weights_1" type="Multiply" version="opset1">
			<data auto_broadcast="numpy" />
			<input>
				<port id="0" precision="FP16">
					<dim>1280</dim>
					<dim>1280</dim>
				</port>
				<port id="1" precision="FP16">
					<dim>1</dim>
					<dim>1280</dim>
				</port>
			</input>
			<output>
				<port id="2" precision="FP16">
					<dim>1280</dim>
					<dim>1280</dim>
				</port>
			</output>
		</layer>
		<layer id="101" name="val_5/fq_weights_1/convert" type="Convert" version="opset1">
			<data destination_type="f32" />
			<input>
				<port id="0" precision="FP16">
					<dim>1280</dim>
					<dim>1280</dim>
				</port>
			</input>
			<output>
				<port id="1" precision="FP32">
					<dim>1280</dim>
					<dim>1280</dim>
				</port>
			</output>
		</layer>
		<layer id="102" name="node_MatMul_4" type="MatMul" version="opset1">
			<data transpose_a="false" transpose_b="false" />
			<input>
				<port id="0" precision="FP32">
					<dim>1</dim>
					<dim>1500</dim>
					<dim>1280</dim>
				</port>
				<port id="1" precision="FP32">
					<dim>1280</dim>
					<dim>1280</dim>
				</port>
			</input>
			<output>
				<port id="2" precision="FP32" names="val_6">
					<dim>1</dim>
					<dim>1500</dim>
					<dim>1280</dim>
				</port>
			</output>
		</layer>
		<layer id="103" name="blocks.0.attn.value.bias" type="Const" version="opset1">
			<data element_type="f32" shape="1280" offset="18046900" size="5120" />
			<output>
				<port id="0" precision="FP32" names="blocks.0.attn.value.bias">
					<dim>1280</dim>
				</port>
			</output>
		</layer>
		<layer id="104" name="node_linear_2" type="Add" version="opset1">
			<data auto_broadcast="numpy" />
			<input>
				<port id="0" precision="FP32">
					<dim>1</dim>
					<dim>1500</dim>
					<dim>1280</dim>
				</port>
				<port id="1" precision="FP32">
					<dim>1280</dim>
				</port>
			</input>
			<output>
				<port id="2" precision="FP32" names="linear_2">
					<dim>1</dim>
					<dim>1500</dim>
					<dim>1280</dim>
				</port>
			</output>
		</layer>
		<layer id="105" name="node_view_2" type="Reshape" version="opset1">
			<data special_zero="true" />
			<input>
				<port id="0" precision="FP32">
					<dim>1</dim>
					<dim>1500</dim>
					<dim>1280</dim>
				</port>
				<port id="1" precision="I64">
					<dim>4</dim>
				</port>
			</input>
			<output>
				<port id="2" precision="FP32" names="view_2">
					<dim>1</dim>
					<dim>1500</dim>
					<dim>20</dim>
					<dim>64</dim>
				</port>
			</output>
		</layer>
		<layer id="106" name="Constant_544" type="Const" version="opset1">
			<data element_type="i64" shape="4" offset="14762328" size="32" />
			<output>
				<port id="0" precision="I64">
					<dim>4</dim>
				</port>
			</output>
		</layer>
		<layer id="107" name="node_permute_3" type="Transpose" version="opset1">
			<input>
				<port id="0" precision="FP32">
					<dim>1</dim>
					<dim>1500</dim>
					<dim>20</dim>
					<dim>64</dim>
				</port>
				<port id="1" precision="I64">
					<dim>4</dim>
				</port>
			</input>
			<output>
				<port id="2" precision="FP32" names="permute_3">
					<dim>1</dim>
					<dim>20</dim>
					<dim>1500</dim>
					<dim>64</dim>
				</port>
			</output>
		</layer>
		<layer id="108" name="node_scaled_dot_product_attention" type="MatMul" version="opset1">
			<data transpose_a="false" transpose_b="false" />
			<input>
				<port id="0" precision="FP32">
					<dim>1</dim>
					<dim>20</dim>
					<dim>1500</dim>
					<dim>1500</dim>
				</port>
				<port id="1" precision="FP32">
					<dim>1</dim>
					<dim>20</dim>
					<dim>1500</dim>
					<dim>64</dim>
				</port>
			</input>
			<output>
				<port id="2" precision="FP32" names="scaled_dot_product_attention">
					<dim>1</dim>
					<dim>20</dim>
					<dim>1500</dim>
					<dim>64</dim>
				</port>
			</output>
		</layer>
		<layer id="109" name="Constant_555" type="Const" version="opset1">
			<data element_type="i64" shape="4" offset="14762328" size="32" />
			<output>
				<port id="0" precision="I64">
					<dim>4</dim>
				</port>
			</output>
		</layer>
		<layer id="110" name="node_permute_4" type="Transpose" version="opset1">
			<input>
				<port id="0" precision="FP32">
					<dim>1</dim>
					<dim>20</dim>
					<dim>1500</dim>
					<dim>64</dim>
				</port>
				<port id="1" precision="I64">
					<dim>4</dim>
				</port>
			</input>
			<output>
				<port id="2" precision="FP32" names="permute_4">
					<dim>1</dim>
					<dim>1500</dim>
					<dim>20</dim>
					<dim>64</dim>
				</port>
			</output>
		</layer>
		<layer id="111" name="val_59" type="Const" version="opset1">
			<data element_type="i64" shape="3" offset="18052020" size="24" />
			<output>
				<port id="0" precision="I64" names="val_59">
					<dim>3</dim>
				</port>
			</output>
		</layer>
		<layer id="112" name="node_view_3" type="Reshape" version="opset1">
			<data special_zero="true" />
			<input>
				<port id="0" precision="FP32">
					<dim>1</dim>
					<dim>1500</dim>
					<dim>20</dim>
					<dim>64</dim>
				</port>
				<port id="1" precision="I64">
					<dim>3</dim>
				</port>
			</input>
			<output>
				<port id="2" precision="FP32" names="view_3">
					<dim>1</dim>
					<dim>1500</dim>
					<dim>1280</dim>
				</port>
			</output>
		</layer>
		<layer id="113" name="val_60" type="Const" version="opset1">
			<data element_type="u8" shape="1280, 1280" offset="18052044" size="1638400" />
			<output>
				<port id="0" precision="U8">
					<dim>1280</dim>
					<dim>1280</dim>
				</port>
			</output>
		</layer>
		<layer id="114" name="Convert_4951" type="Convert" version="opset1">
			<data destination_type="f16" />
			<input>
				<port id="0" precision="U8">
					<dim>1280</dim>
					<dim>1280</dim>
				</port>
			</input>
			<output>
				<port id="1" precision="FP16">
					<dim>1280</dim>
					<dim>1280</dim>
				</port>
			</output>
		</layer>
		<layer id="115" name="val_60/zero_point" type="Const" version="opset1">
			<data element_type="u8" shape="1, 1280" offset="19690444" size="1280" />
			<output>
				<port id="0" precision="U8">
					<dim>1</dim>
					<dim>1280</dim>
				</port>
			</output>
		</layer>
		<layer id="116" name="Convert_4954" type="Convert" version="opset1">
			<data destination_type="f16" />
			<input>
				<port id="0" precision="U8">
					<dim>1</dim>
					<dim>1280</dim>
				</port>
			</input>
			<output>
				<port id="1" precision="FP16">
					<dim>1</dim>
					<dim>1280</dim>
				</port>
			</output>
		</layer>
		<layer id="117" name="val_60/zero_point/subtract" type="Subtract" version="opset1">
			<data auto_broadcast="numpy" />
			<input>
				<port id="0" precision="FP16">
					<dim>1280</dim>
					<dim>1280</dim>
				</port>
				<port id="1" precision="FP16">
					<dim>1</dim>
					<dim>1280</dim>
				</port>
			</input>
			<output>
				<port id="2" precision="FP16">
					<dim>1280</dim>
					<dim>1280</dim>
				</port>
			</output>
		</layer>
		<layer id="118" name="val_60/scale" type="Const" version="opset1">
			<data element_type="f16" shape="1, 1280" offset="19691724" size="2560" />
			<output>
				<port id="0" precision="FP16">
					<dim>1</dim>
					<dim>1280</dim>
				</port>
			</output>
		</layer>
		<layer id="119" name="val_60/fq_weights_1" type="Multiply" version="opset1">
			<data auto_broadcast="numpy" />
			<input>
				<port id="0" precision="FP16">
					<dim>1280</dim>
					<dim>1280</dim>
				</port>
				<port id="1" precision="FP16">
					<dim>1</dim>
					<dim>1280</dim>
				</port>
			</input>
			<output>
				<port id="2" precision="FP16">
					<dim>1280</dim>
					<dim>1280</dim>
				</port>
			</output>
		</layer>
		<layer id="120" name="val_60/fq_weights_1/convert" type="Convert" version="opset1">
			<data destination_type="f32" />
			<input>
				<port id="0" precision="FP16">
					<dim>1280</dim>
					<dim>1280</dim>
				</port>
			</input>
			<output>
				<port id="1" precision="FP32">
					<dim>1280</dim>
					<dim>1280</dim>
				</port>
			</output>
		</layer>
		<layer id="121" name="node_MatMul_59" type="MatMul" version="opset1">
			<data transpose_a="false" transpose_b="false" />
			<input>
				<port id="0" precision="FP32">
					<dim>1</dim>
					<dim>1500</dim>
					<dim>1280</dim>
				</port>
				<port id="1" precision="FP32">
					<dim>1280</dim>
					<dim>1280</dim>
				</port>
			</input>
			<output>
				<port id="2" precision="FP32" names="val_61">
					<dim>1</dim>
					<dim>1500</dim>
					<dim>1280</dim>
				</port>
			</output>
		</layer>
		<layer id="122" name="blocks.0.attn.out.bias" type="Const" version="opset1">
			<data element_type="f32" shape="1280" offset="19694284" size="5120" />
			<output>
				<port id="0" precision="FP32" names="blocks.0.attn.out.bias">
					<dim>1280</dim>
				</port>
			</output>
		</layer>
		<layer id="123" name="node_linear_3" type="Add" version="opset1">
			<data auto_broadcast="numpy" />
			<input>
				<port id="0" precision="FP32">
					<dim>1</dim>
					<dim>1500</dim>
					<dim>1280</dim>
				</port>
				<port id="1" precision="FP32">
					<dim>1280</dim>
				</port>
			</input>
			<output>
				<port id="2" precision="FP32" names="linear_3">
					<dim>1</dim>
					<dim>1500</dim>
					<dim>1280</dim>
				</port>
			</output>
		</layer>
		<layer id="124" name="node_add_1" type="Add" version="opset1">
			<data auto_broadcast="numpy" />
			<input>
				<port id="0" precision="FP32">
					<dim>1</dim>
					<dim>1500</dim>
					<dim>1280</dim>
				</port>
				<port id="1" precision="FP32">
					<dim>1</dim>
					<dim>1500</dim>
					<dim>1280</dim>
				</port>
			</input>
			<output>
				<port id="2" precision="FP32" names="add_1">
					<dim>1</dim>
					<dim>1500</dim>
					<dim>1280</dim>
				</port>
			</output>
		</layer>
		<layer id="125" name="Constant_563" type="Const" version="opset1">
			<data element_type="i64" shape="" offset="13104680" size="8" />
			<output>
				<port id="0" precision="I64" />
			</output>
		</layer>
		<layer id="126" name="Constant_562" type="Const" version="opset1">
			<data element_type="i64" shape="" offset="13104688" size="8" />
			<output>
				<port id="0" precision="I64" />
			</output>
		</layer>
		<layer id="127" name="Constant_561" type="Const" version="opset1">
			<data element_type="i64" shape="" offset="500480" size="8" />
			<output>
				<port id="0" precision="I64" />
			</output>
		</layer>
		<layer id="128" name="Range_564" type="Range" version="opset4">
			<data output_type="i64" />
			<input>
				<port id="0" precision="I64" />
				<port id="1" precision="I64" />
				<port id="2" precision="I64" />
			</input>
			<output>
				<port id="3" precision="I64">
					<dim>1</dim>
				</port>
			</output>
		</layer>
		<layer id="129" name="MVN_565" type="MVN" version="opset6">
			<data eps="9.9999997473787516e-06" normalize_variance="true" eps_mode="INSIDE_SQRT" />
			<input>
				<port id="0" precision="FP32">
					<dim>1</dim>
					<dim>1500</dim>
					<dim>1280</dim>
				</port>
				<port id="1" precision="I64">
					<dim>1</dim>
				</port>
			</input>
			<output>
				<port id="2" precision="FP32">
					<dim>1</dim>
					<dim>1500</dim>
					<dim>1280</dim>
				</port>
			</output>
		</layer>
		<layer id="130" name="blocks.0.mlp_ln.weight" type="Const" version="opset1">
			<data element_type="f32" shape="1280" offset="19699404" size="5120" />
			<output>
				<port id="0" precision="FP32" names="blocks.0.mlp_ln.weight">
					<dim>1280</dim>
				</port>
			</output>
		</layer>
		<layer id="131" name="Multiply_566" type="Multiply" version="opset1">
			<data auto_broadcast="numpy" />
			<input>
				<port id="0" precision="FP32">
					<dim>1</dim>
					<dim>1500</dim>
					<dim>1280</dim>
				</port>
				<port id="1" precision="FP32">
					<dim>1280</dim>
				</port>
			</input>
			<output>
				<port id="2" precision="FP32">
					<dim>1</dim>
					<dim>1500</dim>
					<dim>1280</dim>
				</port>
			</output>
		</layer>
		<layer id="132" name="blocks.0.mlp_ln.bias" type="Const" version="opset1">
			<data element_type="f32" shape="1280" offset="19704524" size="5120" />
			<output>
				<port id="0" precision="FP32" names="blocks.0.mlp_ln.bias">
					<dim>1280</dim>
				</port>
			</output>
		</layer>
		<layer id="133" name="node_layer_norm_1" type="Add" version="opset1">
			<data auto_broadcast="numpy" />
			<input>
				<port id="0" precision="FP32">
					<dim>1</dim>
					<dim>1500</dim>
					<dim>1280</dim>
				</port>
				<port id="1" precision="FP32">
					<dim>1280</dim>
				</port>
			</input>
			<output>
				<port id="2" precision="FP32" names="layer_norm_1">
					<dim>1</dim>
					<dim>1500</dim>
					<dim>1280</dim>
				</port>
			</output>
		</layer>
		<layer id="134" name="val_64" type="Const" version="opset1">
			<data element_type="u8" shape="1280, 5120" offset="19709644" size="6553600" />
			<output>
				<port id="0" precision="U8">
					<dim>1280</dim>
					<dim>5120</dim>
				</port>
			</output>
		</layer>
		<layer id="135" name="Convert_4203" type="Convert" version="opset1">
			<data destination_type="f16" />
			<input>
				<port id="0" precision="U8">
					<dim>1280</dim>
					<dim>5120</dim>
				</port>
			</input>
			<output>
				<port id="1" precision="FP16">
					<dim>1280</dim>
					<dim>5120</dim>
				</port>
			</output>
		</layer>
		<layer id="136" name="val_64/zero_point" type="Const" version="opset1">
			<data element_type="u8" shape="1, 5120" offset="26263244" size="5120" />
			<output>
				<port id="0" precision="U8">
					<dim>1</dim>
					<dim>5120</dim>
				</port>
			</output>
		</layer>
		<layer id="137" name="Convert_4206" type="Convert" version="opset1">
			<data destination_type="f16" />
			<input>
				<port id="0" precision="U8">
					<dim>1</dim>
					<dim>5120</dim>
				</port>
			</input>
			<output>
				<port id="1" precision="FP16">
					<dim>1</dim>
					<dim>5120</dim>
				</port>
			</output>
		</layer>
		<layer id="138" name="val_64/zero_point/subtract" type="Subtract" version="opset1">
			<data auto_broadcast="numpy" />
			<input>
				<port id="0" precision="FP16">
					<dim>1280</dim>
					<dim>5120</dim>
				</port>
				<port id="1" precision="FP16">
					<dim>1</dim>
					<dim>5120</dim>
				</port>
			</input>
			<output>
				<port id="2" precision="FP16">
					<dim>1280</dim>
					<dim>5120</dim>
				</port>
			</output>
		</layer>
		<layer id="139" name="val_64/scale" type="Const" version="opset1">
			<data element_type="f16" shape="1, 5120" offset="26268364" size="10240" />
			<output>
				<port id="0" precision="FP16">
					<dim>1</dim>
					<dim>5120</dim>
				</port>
			</output>
		</layer>
		<layer id="140" name="val_64/fq_weights_1" type="Multiply" version="opset1">
			<data auto_broadcast="numpy" />
			<input>
				<port id="0" precision="FP16">
					<dim>1280</dim>
					<dim>5120</dim>
				</port>
				<port id="1" precision="FP16">
					<dim>1</dim>
					<dim>5120</dim>
				</port>
			</input>
			<output>
				<port id="2" precision="FP16">
					<dim>1280</dim>
					<dim>5120</dim>
				</port>
			</output>
		</layer>
		<layer id="141" name="val_64/fq_weights_1/convert" type="Convert" version="opset1">
			<data destination_type="f32" />
			<input>
				<port id="0" precision="FP16">
					<dim>1280</dim>
					<dim>5120</dim>
				</port>
			</input>
			<output>
				<port id="1" precision="FP32">
					<dim>1280</dim>
					<dim>5120</dim>
				</port>
			</output>
		</layer>
		<layer id="142" name="node_MatMul_61" type="MatMul" version="opset1">
			<data transpose_a="false" transpose_b="false" />
			<input>
				<port id="0" precision="FP32">
					<dim>1</dim>
					<dim>1500</dim>
					<dim>1280</dim>
				</port>
				<port id="1" precision="FP32">
					<dim>1280</dim>
					<dim>5120</dim>
				</port>
			</input>
			<output>
				<port id="2" precision="FP32" names="val_65">
					<dim>1</dim>
					<dim>1500</dim>
					<dim>5120</dim>
				</port>
			</output>
		</layer>
		<layer id="143" name="blocks.0.mlp.0.bias" type="Const" version="opset1">
			<data element_type="f32" shape="5120" offset="26278604" size="20480" />
			<output>
				<port id="0" precision="FP32" names="blocks.0.mlp.0.bias">
					<dim>5120</dim>
				</port>
			</output>
		</layer>
		<layer id="144" name="node_linear_4" type="Add" version="opset1">
			<data auto_broadcast="numpy" />
			<input>
				<port id="0" precision="FP32">
					<dim>1</dim>
					<dim>1500</dim>
					<dim>5120</dim>
				</port>
				<port id="1" precision="FP32">
					<dim>5120</dim>
				</port>
			</input>
			<output>
				<port id="2" precision="FP32" names="linear_4">
					<dim>1</dim>
					<dim>1500</dim>
					<dim>5120</dim>
				</port>
			</output>
		</layer>
		<layer id="145" name="node_gelu_2" type="Gelu" version="opset7">
			<data approximation_mode="ERF" />
			<input>
				<port id="0" precision="FP32">
					<dim>1</dim>
					<dim>1500</dim>
					<dim>5120</dim>
				</port>
			</input>
			<output>
				<port id="1" precision="FP32" names="gelu_2">
					<dim>1</dim>
					<dim>1500</dim>
					<dim>5120</dim>
				</port>
			</output>
		</layer>
		<layer id="146" name="val_66" type="Const" version="opset1">
			<data element_type="u8" shape="5120, 1280" offset="26299084" size="6553600" />
			<output>
				<port id="0" precision="U8">
					<dim>5120</dim>
					<dim>1280</dim>
				</port>
			</output>
		</layer>
		<layer id="147" name="Convert_4214" type="Convert" version="opset1">
			<data destination_type="f16" />
			<input>
				<port id="0" precision="U8">
					<dim>5120</dim>
					<dim>1280</dim>
				</port>
			</input>
			<output>
				<port id="1" precision="FP16">
					<dim>5120</dim>
					<dim>1280</dim>
				</port>
			</output>
		</layer>
		<layer id="148" name="val_66/zero_point" type="Const" version="opset1">
			<data element_type="u8" shape="1, 1280" offset="32852684" size="1280" />
			<output>
				<port id="0" precision="U8">
					<dim>1</dim>
					<dim>1280</dim>
				</port>
			</output>
		</layer>
		<layer id="149" name="Convert_4217" type="Convert" version="opset1">
			<data destination_type="f16" />
			<input>
				<port id="0" precision="U8">
					<dim>1</dim>
					<dim>1280</dim>
				</port>
			</input>
			<output>
				<port id="1" precision="FP16">
					<dim>1</dim>
					<dim>1280</dim>
				</port>
			</output>
		</layer>
		<layer id="150" name="val_66/zero_point/subtract" type="Subtract" version="opset1">
			<data auto_broadcast="numpy" />
			<input>
				<port id="0" precision="FP16">
					<dim>5120</dim>
					<dim>1280</dim>
				</port>
				<port id="1" precision="FP16">
					<dim>1</dim>
					<dim>1280</dim>
				</port>
			</input>
			<output>
				<port id="2" precision="FP16">
					<dim>5120</dim>
					<dim>1280</dim>
				</port>
			</output>
		</layer>
		<layer id="151" name="val_66/scale" type="Const" version="opset1">
			<data element_type="f16" shape="1, 1280" offset="32853964" size="2560" />
			<output>
				<port id="0" precision="FP16">
					<dim>1</dim>
					<dim>1280</dim>
				</port>
			</output>
		</layer>
		<layer id="152" name="val_66/fq_weights_1" type="Multiply" version="opset1">
			<data auto_broadcast="numpy" />
			<input>
				<port id="0" precision="FP16">
					<dim>5120</dim>
					<dim>1280</dim>
				</port>
				<port id="1" precision="FP16">
					<dim>1</dim>
					<dim>1280</dim>
				</port>
			</input>
			<output>
				<port id="2" precision="FP16">
					<dim>5120</dim>
					<dim>1280</dim>
				</port>
			</output>
		</layer>
		<layer id="153" name="val_66/fq_weights_1/convert" type="Convert" version="opset1">
			<data destination_type="f32" />
			<input>
				<port id="0" precision="FP16">
					<dim>5120</dim>
					<dim>1280</dim>
				</port>
			</input>
			<output>
				<port id="1" precision="FP32">
					<dim>5120</dim>
					<dim>1280</dim>
				</port>
			</output>
		</layer>
		<layer id="154" name="node_MatMul_63" type="MatMul" version="opset1">
			<data transpose_a="false" transpose_b="false" />
			<input>
				<port id="0" precision="FP32">
					<dim>1</dim>
					<dim>1500</dim>
					<dim>5120</dim>
				</port>
				<port id="1" precision="FP32">
					<dim>5120</dim>
					<dim>1280</dim>
				</port>
			</input>
			<output>
				<port id="2" precision="FP32" names="val_67">
					<dim>1</dim>
					<dim>1500</dim>
					<dim>1280</dim>
				</port>
			</output>
		</layer>
		<layer id="155" name="blocks.0.mlp.2.bias" type="Const" version="opset1">
			<data element_type="f32" shape="1280" offset="32856524" size="5120" />
			<output>
				<port id="0" precision="FP32" names="blocks.0.mlp.2.bias">
					<dim>1280</dim>
				</port>
			</output>
		</layer>
		<layer id="156" name="node_linear_5" type="Add" version="opset1">
			<data auto_broadcast="numpy" />
			<input>
				<port id="0" precision="FP32">
					<dim>1</dim>
					<dim>1500</dim>
					<dim>1280</dim>
				</port>
				<port id="1" precision="FP32">
					<dim>1280</dim>
				</port>
			</input>
			<output>
				<port id="2" precision="FP32" names="linear_5">
					<dim>1</dim>
					<dim>1500</dim>
					<dim>1280</dim>
				</port>
			</output>
		</layer>
		<layer id="157" name="node_add_2" type="Add" version="opset1">
			<data auto_broadcast="numpy" />
			<input>
				<port id="0" precision="FP32">
					<dim>1</dim>
					<dim>1500</dim>
					<dim>1280</dim>
				</port>
				<port id="1" precision="FP32">
					<dim>1</dim>
					<dim>1500</dim>
					<dim>1280</dim>
				</port>
			</input>
			<output>
				<port id="2" precision="FP32" names="add_2">
					<dim>1</dim>
					<dim>1500</dim>
					<dim>1280</dim>
				</port>
			</output>
		</layer>
		<layer id="158" name="Constant_576" type="Const" version="opset1">
			<data element_type="i64" shape="" offset="13104680" size="8" />
			<output>
				<port id="0" precision="I64" />
			</output>
		</layer>
		<layer id="159" name="Constant_575" type="Const" version="opset1">
			<data element_type="i64" shape="" offset="13104688" size="8" />
			<output>
				<port id="0" precision="I64" />
			</output>
		</layer>
		<layer id="160" name="Constant_574" type="Const" version="opset1">
			<data element_type="i64" shape="" offset="500480" size="8" />
			<output>
				<port id="0" precision="I64" />
			</output>
		</layer>
		<layer id="161" name="Range_577" type="Range" version="opset4">
			<data output_type="i64" />
			<input>
				<port id="0" precision="I64" />
				<port id="1" precision="I64" />
				<port id="2" precision="I64" />
			</input>
			<output>
				<port id="3" precision="I64">
					<dim>1</dim>
				</port>
			</output>
		</layer>
		<layer id="162" name="MVN_578" type="MVN" version="opset6">
			<data eps="9.9999997473787516e-06" normalize_variance="true" eps_mode="INSIDE_SQRT" />
			<input>
				<port id="0" precision="FP32">
					<dim>1</dim>
					<dim>1500</dim>
					<dim>1280</dim>
				</port>
				<port id="1" precision="I64">
					<dim>1</dim>
				</port>
			</input>
			<output>
				<port id="2" precision="FP32">
					<dim>1</dim>
					<dim>1500</dim>
					<dim>1280</dim>
				</port>
			</output>
		</layer>
		<layer id="163" name="blocks.1.attn_ln.weight" type="Const" version="opset1">
			<data element_type="f32" shape="1280" offset="32861644" size="5120" />
			<output>
				<port id="0" precision="FP32" names="blocks.1.attn_ln.weight">
					<dim>1280</dim>
				</port>
			</output>
		</layer>
		<layer id="164" name="Multiply_579" type="Multiply" version="opset1">
			<data auto_broadcast="numpy" />
			<input>
				<port id="0" precision="FP32">
					<dim>1</dim>
					<dim>1500</dim>
					<dim>1280</dim>
				</port>
				<port id="1" precision="FP32">
					<dim>1280</dim>
				</port>
			</input>
			<output>
				<port id="2" precision="FP32">
					<dim>1</dim>
					<dim>1500</dim>
					<dim>1280</dim>
				</port>
			</output>
		</layer>
		<layer id="165" name="blocks.1.attn_ln.bias" type="Const" version="opset1">
			<data element_type="f32" shape="1280" offset="32866764" size="5120" />
			<output>
				<port id="0" precision="FP32" names="blocks.1.attn_ln.bias">
					<dim>1280</dim>
				</port>
			</output>
		</layer>
		<layer id="166" name="node_layer_norm_2" type="Add" version="opset1">
			<data auto_broadcast="numpy" />
			<input>
				<port id="0" precision="FP32">
					<dim>1</dim>
					<dim>1500</dim>
					<dim>1280</dim>
				</port>
				<port id="1" precision="FP32">
					<dim>1280</dim>
				</port>
			</input>
			<output>
				<port id="2" precision="FP32" names="layer_norm_2">
					<dim>1</dim>
					<dim>1500</dim>
					<dim>1280</dim>
				</port>
			</output>
		</layer>
		<layer id="167" name="val_70" type="Const" version="opset1">
			<data element_type="u8" shape="1280, 1280" offset="32871884" size="1638400" />
			<output>
				<port id="0" precision="U8">
					<dim>1280</dim>
					<dim>1280</dim>
				</port>
			</output>
		</layer>
		<layer id="168" name="Convert_4984" type="Convert" version="opset1">
			<data destination_type="f16" />
			<input>
				<port id="0" precision="U8">
					<dim>1280</dim>
					<dim>1280</dim>
				</port>
			</input>
			<output>
				<port id="1" precision="FP16">
					<dim>1280</dim>
					<dim>1280</dim>
				</port>
			</output>
		</layer>
		<layer id="169" name="val_70/zero_point" type="Const" version="opset1">
			<data element_type="u8" shape="1, 1280" offset="34510284" size="1280" />
			<output>
				<port id="0" precision="U8">
					<dim>1</dim>
					<dim>1280</dim>
				</port>
			</output>
		</layer>
		<layer id="170" name="Convert_4987" type="Convert" version="opset1">
			<data destination_type="f16" />
			<input>
				<port id="0" precision="U8">
					<dim>1</dim>
					<dim>1280</dim>
				</port>
			</input>
			<output>
				<port id="1" precision="FP16">
					<dim>1</dim>
					<dim>1280</dim>
				</port>
			</output>
		</layer>
		<layer id="171" name="val_70/zero_point/subtract" type="Subtract" version="opset1">
			<data auto_broadcast="numpy" />
			<input>
				<port id="0" precision="FP16">
					<dim>1280</dim>
					<dim>1280</dim>
				</port>
				<port id="1" precision="FP16">
					<dim>1</dim>
					<dim>1280</dim>
				</port>
			</input>
			<output>
				<port id="2" precision="FP16">
					<dim>1280</dim>
					<dim>1280</dim>
				</port>
			</output>
		</layer>
		<layer id="172" name="val_70/scale" type="Const" version="opset1">
			<data element_type="f16" shape="1, 1280" offset="34511564" size="2560" />
			<output>
				<port id="0" precision="FP16">
					<dim>1</dim>
					<dim>1280</dim>
				</port>
			</output>
		</layer>
		<layer id="173" name="val_70/fq_weights_1" type="Multiply" version="opset1">
			<data auto_broadcast="numpy" />
			<input>
				<port id="0" precision="FP16">
					<dim>1280</dim>
					<dim>1280</dim>
				</port>
				<port id="1" precision="FP16">
					<dim>1</dim>
					<dim>1280</dim>
				</port>
			</input>
			<output>
				<port id="2" precision="FP16">
					<dim>1280</dim>
					<dim>1280</dim>
				</port>
			</output>
		</layer>
		<layer id="174" name="val_70/fq_weights_1/convert" type="Convert" version="opset1">
			<data destination_type="f32" />
			<input>
				<port id="0" precision="FP16">
					<dim>1280</dim>
					<dim>1280</dim>
				</port>
			</input>
			<output>
				<port id="1" precision="FP32">
					<dim>1280</dim>
					<dim>1280</dim>
				</port>
			</output>
		</layer>
		<layer id="175" name="node_MatMul_65" type="MatMul" version="opset1">
			<data transpose_a="false" transpose_b="false" />
			<input>
				<port id="0" precision="FP32">
					<dim>1</dim>
					<dim>1500</dim>
					<dim>1280</dim>
				</port>
				<port id="1" precision="FP32">
					<dim>1280</dim>
					<dim>1280</dim>
				</port>
			</input>
			<output>
				<port id="2" precision="FP32" names="val_71">
					<dim>1</dim>
					<dim>1500</dim>
					<dim>1280</dim>
				</port>
			</output>
		</layer>
		<layer id="176" name="blocks.1.attn.query.bias" type="Const" version="opset1">
			<data element_type="f32" shape="1280" offset="34514124" size="5120" />
			<output>
				<port id="0" precision="FP32" names="blocks.1.attn.query.bias">
					<dim>1280</dim>
				</port>
			</output>
		</layer>
		<layer id="177" name="node_linear_6" type="Add" version="opset1">
			<data auto_broadcast="numpy" />
			<input>
				<port id="0" precision="FP32">
					<dim>1</dim>
					<dim>1500</dim>
					<dim>1280</dim>
				</port>
				<port id="1" precision="FP32">
					<dim>1280</dim>
				</port>
			</input>
			<output>
				<port id="2" precision="FP32" names="linear_6">
					<dim>1</dim>
					<dim>1500</dim>
					<dim>1280</dim>
				</port>
			</output>
		</layer>
		<layer id="178" name="node_view_4" type="Reshape" version="opset1">
			<data special_zero="true" />
			<input>
				<port id="0" precision="FP32">
					<dim>1</dim>
					<dim>1500</dim>
					<dim>1280</dim>
				</port>
				<port id="1" precision="I64">
					<dim>4</dim>
				</port>
			</input>
			<output>
				<port id="2" precision="FP32" names="view_4">
					<dim>1</dim>
					<dim>1500</dim>
					<dim>20</dim>
					<dim>64</dim>
				</port>
			</output>
		</layer>
		<layer id="179" name="Constant_587" type="Const" version="opset1">
			<data element_type="i64" shape="4" offset="14762328" size="32" />
			<output>
				<port id="0" precision="I64">
					<dim>4</dim>
				</port>
			</output>
		</layer>
		<layer id="180" name="node_permute_5" type="Transpose" version="opset1">
			<input>
				<port id="0" precision="FP32">
					<dim>1</dim>
					<dim>1500</dim>
					<dim>20</dim>
					<dim>64</dim>
				</port>
				<port id="1" precision="I64">
					<dim>4</dim>
				</port>
			</input>
			<output>
				<port id="2" precision="FP32" names="permute_5">
					<dim>1</dim>
					<dim>20</dim>
					<dim>1500</dim>
					<dim>64</dim>
				</port>
			</output>
		</layer>
		<layer id="181" name="node_Mul_109" type="Multiply" version="opset1">
			<data auto_broadcast="numpy" />
			<input>
				<port id="0" precision="FP32">
					<dim>1</dim>
					<dim>20</dim>
					<dim>1500</dim>
					<dim>64</dim>
				</port>
				<port id="1" precision="FP32">
					<dim>1</dim>
				</port>
			</input>
			<output>
				<port id="2" precision="FP32" names="val_115">
					<dim>1</dim>
					<dim>20</dim>
					<dim>1500</dim>
					<dim>64</dim>
				</port>
			</output>
		</layer>
		<layer id="182" name="val_72" type="Const" version="opset1">
			<data element_type="u8" shape="1280, 1280" offset="34519244" size="1638400" />
			<output>
				<port id="0" precision="U8">
					<dim>1280</dim>
					<dim>1280</dim>
				</port>
			</output>
		</layer>
		<layer id="183" name="Convert_4973" type="Convert" version="opset1">
			<data destination_type="f16" />
			<input>
				<port id="0" precision="U8">
					<dim>1280</dim>
					<dim>1280</dim>
				</port>
			</input>
			<output>
				<port id="1" precision="FP16">
					<dim>1280</dim>
					<dim>1280</dim>
				</port>
			</output>
		</layer>
		<layer id="184" name="val_72/zero_point" type="Const" version="opset1">
			<data element_type="u8" shape="1, 1280" offset="36157644" size="1280" />
			<output>
				<port id="0" precision="U8">
					<dim>1</dim>
					<dim>1280</dim>
				</port>
			</output>
		</layer>
		<layer id="185" name="Convert_4976" type="Convert" version="opset1">
			<data destination_type="f16" />
			<input>
				<port id="0" precision="U8">
					<dim>1</dim>
					<dim>1280</dim>
				</port>
			</input>
			<output>
				<port id="1" precision="FP16">
					<dim>1</dim>
					<dim>1280</dim>
				</port>
			</output>
		</layer>
		<layer id="186" name="val_72/zero_point/subtract" type="Subtract" version="opset1">
			<data auto_broadcast="numpy" />
			<input>
				<port id="0" precision="FP16">
					<dim>1280</dim>
					<dim>1280</dim>
				</port>
				<port id="1" precision="FP16">
					<dim>1</dim>
					<dim>1280</dim>
				</port>
			</input>
			<output>
				<port id="2" precision="FP16">
					<dim>1280</dim>
					<dim>1280</dim>
				</port>
			</output>
		</layer>
		<layer id="187" name="val_72/scale" type="Const" version="opset1">
			<data element_type="f16" shape="1, 1280" offset="36158924" size="2560" />
			<output>
				<port id="0" precision="FP16">
					<dim>1</dim>
					<dim>1280</dim>
				</port>
			</output>
		</layer>
		<layer id="188" name="val_72/fq_weights_1" type="Multiply" version="opset1">
			<data auto_broadcast="numpy" />
			<input>
				<port id="0" precision="FP16">
					<dim>1280</dim>
					<dim>1280</dim>
				</port>
				<port id="1" precision="FP16">
					<dim>1</dim>
					<dim>1280</dim>
				</port>
			</input>
			<output>
				<port id="2" precision="FP16">
					<dim>1280</dim>
					<dim>1280</dim>
				</port>
			</output>
		</layer>
		<layer id="189" name="val_72/fq_weights_1/convert" type="Convert" version="opset1">
			<data destination_type="f32" />
			<input>
				<port id="0" precision="FP16">
					<dim>1280</dim>
					<dim>1280</dim>
				</port>
			</input>
			<output>
				<port id="1" precision="FP32">
					<dim>1280</dim>
					<dim>1280</dim>
				</port>
			</output>
		</layer>
		<layer id="190" name="node_linear_7" type="MatMul" version="opset1">
			<data transpose_a="false" transpose_b="false" />
			<input>
				<port id="0" precision="FP32">
					<dim>1</dim>
					<dim>1500</dim>
					<dim>1280</dim>
				</port>
				<port id="1" precision="FP32">
					<dim>1280</dim>
					<dim>1280</dim>
				</port>
			</input>
			<output>
				<port id="2" precision="FP32" names="linear_7">
					<dim>1</dim>
					<dim>1500</dim>
					<dim>1280</dim>
				</port>
			</output>
		</layer>
		<layer id="191" name="node_view_5" type="Reshape" version="opset1">
			<data special_zero="true" />
			<input>
				<port id="0" precision="FP32">
					<dim>1</dim>
					<dim>1500</dim>
					<dim>1280</dim>
				</port>
				<port id="1" precision="I64">
					<dim>4</dim>
				</port>
			</input>
			<output>
				<port id="2" precision="FP32" names="view_5">
					<dim>1</dim>
					<dim>1500</dim>
					<dim>20</dim>
					<dim>64</dim>
				</port>
			</output>
		</layer>
		<layer id="192" name="Constant_590" type="Const" version="opset1">
			<data element_type="i64" shape="4" offset="14762328" size="32" />
			<output>
				<port id="0" precision="I64">
					<dim>4</dim>
				</port>
			</output>
		</layer>
		<layer id="193" name="node_permute_6" type="Transpose" version="opset1">
			<input>
				<port id="0" precision="FP32">
					<dim>1</dim>
					<dim>1500</dim>
					<dim>20</dim>
					<dim>64</dim>
				</port>
				<port id="1" precision="I64">
					<dim>4</dim>
				</port>
			</input>
			<output>
				<port id="2" precision="FP32" names="permute_6">
					<dim>1</dim>
					<dim>20</dim>
					<dim>1500</dim>
					<dim>64</dim>
				</port>
			</output>
		</layer>
		<layer id="194" name="node_Reshape_104" type="Reshape" version="opset1">
			<data special_zero="true" />
			<input>
				<port id="0" precision="FP32">
					<dim>1</dim>
					<dim>20</dim>
					<dim>1500</dim>
					<dim>64</dim>
				</port>
				<port id="1" precision="I64">
					<dim>3</dim>
				</port>
			</input>
			<output>
				<port id="2" precision="FP32" names="val_110">
					<dim>20</dim>
					<dim>1500</dim>
					<dim>64</dim>
				</port>
			</output>
		</layer>
		<layer id="195" name="Constant_596" type="Const" version="opset1">
			<data element_type="i64" shape="3" offset="5424656" size="24" />
			<output>
				<port id="0" precision="I64">
					<dim>3</dim>
				</port>
			</output>
		</layer>
		<layer id="196" name="node_Transpose_105" type="Transpose" version="opset1">
			<input>
				<port id="0" precision="FP32">
					<dim>20</dim>
					<dim>1500</dim>
					<dim>64</dim>
				</port>
				<port id="1" precision="I64">
					<dim>3</dim>
				</port>
			</input>
			<output>
				<port id="2" precision="FP32" names="val_111">
					<dim>20</dim>
					<dim>64</dim>
					<dim>1500</dim>
				</port>
			</output>
		</layer>
		<layer id="197" name="node_Reshape_107" type="Reshape" version="opset1">
			<data special_zero="true" />
			<input>
				<port id="0" precision="FP32">
					<dim>20</dim>
					<dim>64</dim>
					<dim>1500</dim>
				</port>
				<port id="1" precision="I64">
					<dim>4</dim>
				</port>
			</input>
			<output>
				<port id="2" precision="FP32" names="val_113">
					<dim>1</dim>
					<dim>20</dim>
					<dim>64</dim>
					<dim>1500</dim>
				</port>
			</output>
		</layer>
		<layer id="198" name="node_Mul_112" type="Multiply" version="opset1">
			<data auto_broadcast="numpy" />
			<input>
				<port id="0" precision="FP32">
					<dim>1</dim>
					<dim>20</dim>
					<dim>64</dim>
					<dim>1500</dim>
				</port>
				<port id="1" precision="FP32">
					<dim>1</dim>
				</port>
			</input>
			<output>
				<port id="2" precision="FP32" names="val_118">
					<dim>1</dim>
					<dim>20</dim>
					<dim>64</dim>
					<dim>1500</dim>
				</port>
			</output>
		</layer>
		<layer id="199" name="node_MatMul_113" type="MatMul" version="opset1">
			<data transpose_a="false" transpose_b="false" />
			<input>
				<port id="0" precision="FP32">
					<dim>1</dim>
					<dim>20</dim>
					<dim>1500</dim>
					<dim>64</dim>
				</port>
				<port id="1" precision="FP32">
					<dim>1</dim>
					<dim>20</dim>
					<dim>64</dim>
					<dim>1500</dim>
				</port>
			</input>
			<output>
				<port id="2" precision="FP32" names="val_119">
					<dim>1</dim>
					<dim>20</dim>
					<dim>1500</dim>
					<dim>1500</dim>
				</port>
			</output>
		</layer>
		<layer id="200" name="node_Softmax_114" type="SoftMax" version="opset8">
			<data axis="-1" />
			<input>
				<port id="0" precision="FP32">
					<dim>1</dim>
					<dim>20</dim>
					<dim>1500</dim>
					<dim>1500</dim>
				</port>
			</input>
			<output>
				<port id="1" precision="FP32" names="val_120">
					<dim>1</dim>
					<dim>20</dim>
					<dim>1500</dim>
					<dim>1500</dim>
				</port>
			</output>
		</layer>
		<layer id="201" name="val_73" type="Const" version="opset1">
			<data element_type="u8" shape="1280, 1280" offset="36161484" size="1638400" />
			<output>
				<port id="0" precision="U8">
					<dim>1280</dim>
					<dim>1280</dim>
				</port>
			</output>
		</layer>
		<layer id="202" name="Convert_4962" type="Convert" version="opset1">
			<data destination_type="f16" />
			<input>
				<port id="0" precision="U8">
					<dim>1280</dim>
					<dim>1280</dim>
				</port>
			</input>
			<output>
				<port id="1" precision="FP16">
					<dim>1280</dim>
					<dim>1280</dim>
				</port>
			</output>
		</layer>
		<layer id="203" name="val_73/zero_point" type="Const" version="opset1">
			<data element_type="u8" shape="1, 1280" offset="37799884" size="1280" />
			<output>
				<port id="0" precision="U8">
					<dim>1</dim>
					<dim>1280</dim>
				</port>
			</output>
		</layer>
		<layer id="204" name="Convert_4965" type="Convert" version="opset1">
			<data destination_type="f16" />
			<input>
				<port id="0" precision="U8">
					<dim>1</dim>
					<dim>1280</dim>
				</port>
			</input>
			<output>
				<port id="1" precision="FP16">
					<dim>1</dim>
					<dim>1280</dim>
				</port>
			</output>
		</layer>
		<layer id="205" name="val_73/zero_point/subtract" type="Subtract" version="opset1">
			<data auto_broadcast="numpy" />
			<input>
				<port id="0" precision="FP16">
					<dim>1280</dim>
					<dim>1280</dim>
				</port>
				<port id="1" precision="FP16">
					<dim>1</dim>
					<dim>1280</dim>
				</port>
			</input>
			<output>
				<port id="2" precision="FP16">
					<dim>1280</dim>
					<dim>1280</dim>
				</port>
			</output>
		</layer>
		<layer id="206" name="val_73/scale" type="Const" version="opset1">
			<data element_type="f16" shape="1, 1280" offset="37801164" size="2560" />
			<output>
				<port id="0" precision="FP16">
					<dim>1</dim>
					<dim>1280</dim>
				</port>
			</output>
		</layer>
		<layer id="207" name="val_73/fq_weights_1" type="Multiply" version="opset1">
			<data auto_broadcast="numpy" />
			<input>
				<port id="0" precision="FP16">
					<dim>1280</dim>
					<dim>1280</dim>
				</port>
				<port id="1" precision="FP16">
					<dim>1</dim>
					<dim>1280</dim>
				</port>
			</input>
			<output>
				<port id="2" precision="FP16">
					<dim>1280</dim>
					<dim>1280</dim>
				</port>
			</output>
		</layer>
		<layer id="208" name="val_73/fq_weights_1/convert" type="Convert" version="opset1">
			<data destination_type="f32" />
			<input>
				<port id="0" precision="FP16">
					<dim>1280</dim>
					<dim>1280</dim>
				</port>
			</input>
			<output>
				<port id="1" precision="FP32">
					<dim>1280</dim>
					<dim>1280</dim>
				</port>
			</output>
		</layer>
		<layer id="209" name="node_MatMul_68" type="MatMul" version="opset1">
			<data transpose_a="false" transpose_b="false" />
			<input>
				<port id="0" precision="FP32">
					<dim>1</dim>
					<dim>1500</dim>
					<dim>1280</dim>
				</port>
				<port id="1" precision="FP32">
					<dim>1280</dim>
					<dim>1280</dim>
				</port>
			</input>
			<output>
				<port id="2" precision="FP32" names="val_74">
					<dim>1</dim>
					<dim>1500</dim>
					<dim>1280</dim>
				</port>
			</output>
		</layer>
		<layer id="210" name="blocks.1.attn.value.bias" type="Const" version="opset1">
			<data element_type="f32" shape="1280" offset="37803724" size="5120" />
			<output>
				<port id="0" precision="FP32" names="blocks.1.attn.value.bias">
					<dim>1280</dim>
				</port>
			</output>
		</layer>
		<layer id="211" name="node_linear_8" type="Add" version="opset1">
			<data auto_broadcast="numpy" />
			<input>
				<port id="0" precision="FP32">
					<dim>1</dim>
					<dim>1500</dim>
					<dim>1280</dim>
				</port>
				<port id="1" precision="FP32">
					<dim>1280</dim>
				</port>
			</input>
			<output>
				<port id="2" precision="FP32" names="linear_8">
					<dim>1</dim>
					<dim>1500</dim>
					<dim>1280</dim>
				</port>
			</output>
		</layer>
		<layer id="212" name="node_view_6" type="Reshape" version="opset1">
			<data special_zero="true" />
			<input>
				<port id="0" precision="FP32">
					<dim>1</dim>
					<dim>1500</dim>
					<dim>1280</dim>
				</port>
				<port id="1" precision="I64">
					<dim>4</dim>
				</port>
			</input>
			<output>
				<port id="2" precision="FP32" names="view_6">
					<dim>1</dim>
					<dim>1500</dim>
					<dim>20</dim>
					<dim>64</dim>
				</port>
			</output>
		</layer>
		<layer id="213" name="Constant_593" type="Const" version="opset1">
			<data element_type="i64" shape="4" offset="14762328" size="32" />
			<output>
				<port id="0" precision="I64">
					<dim>4</dim>
				</port>
			</output>
		</layer>
		<layer id="214" name="node_permute_7" type="Transpose" version="opset1">
			<input>
				<port id="0" precision="FP32">
					<dim>1</dim>
					<dim>1500</dim>
					<dim>20</dim>
					<dim>64</dim>
				</port>
				<port id="1" precision="I64">
					<dim>4</dim>
				</port>
			</input>
			<output>
				<port id="2" precision="FP32" names="permute_7">
					<dim>1</dim>
					<dim>20</dim>
					<dim>1500</dim>
					<dim>64</dim>
				</port>
			</output>
		</layer>
		<layer id="215" name="node_scaled_dot_product_attention_1" type="MatMul" version="opset1">
			<data transpose_a="false" transpose_b="false" />
			<input>
				<port id="0" precision="FP32">
					<dim>1</dim>
					<dim>20</dim>
					<dim>1500</dim>
					<dim>1500</dim>
				</port>
				<port id="1" precision="FP32">
					<dim>1</dim>
					<dim>20</dim>
					<dim>1500</dim>
					<dim>64</dim>
				</port>
			</input>
			<output>
				<port id="2" precision="FP32" names="scaled_dot_product_attention_1">
					<dim>1</dim>
					<dim>20</dim>
					<dim>1500</dim>
					<dim>64</dim>
				</port>
			</output>
		</layer>
		<layer id="216" name="Constant_604" type="Const" version="opset1">
			<data element_type="i64" shape="4" offset="14762328" size="32" />
			<output>
				<port id="0" precision="I64">
					<dim>4</dim>
				</port>
			</output>
		</layer>
		<layer id="217" name="node_permute_8" type="Transpose" version="opset1">
			<input>
				<port id="0" precision="FP32">
					<dim>1</dim>
					<dim>20</dim>
					<dim>1500</dim>
					<dim>64</dim>
				</port>
				<port id="1" precision="I64">
					<dim>4</dim>
				</port>
			</input>
			<output>
				<port id="2" precision="FP32" names="permute_8">
					<dim>1</dim>
					<dim>1500</dim>
					<dim>20</dim>
					<dim>64</dim>
				</port>
			</output>
		</layer>
		<layer id="218" name="node_view_7" type="Reshape" version="opset1">
			<data special_zero="true" />
			<input>
				<port id="0" precision="FP32">
					<dim>1</dim>
					<dim>1500</dim>
					<dim>20</dim>
					<dim>64</dim>
				</port>
				<port id="1" precision="I64">
					<dim>3</dim>
				</port>
			</input>
			<output>
				<port id="2" precision="FP32" names="view_7">
					<dim>1</dim>
					<dim>1500</dim>
					<dim>1280</dim>
				</port>
			</output>
		</layer>
		<layer id="219" name="val_126" type="Const" version="opset1">
			<data element_type="u8" shape="1280, 1280" offset="37808844" size="1638400" />
			<output>
				<port id="0" precision="U8">
					<dim>1280</dim>
					<dim>1280</dim>
				</port>
			</output>
		</layer>
		<layer id="220" name="Convert_4995" type="Convert" version="opset1">
			<data destination_type="f16" />
			<input>
				<port id="0" precision="U8">
					<dim>1280</dim>
					<dim>1280</dim>
				</port>
			</input>
			<output>
				<port id="1" precision="FP16">
					<dim>1280</dim>
					<dim>1280</dim>
				</port>
			</output>
		</layer>
		<layer id="221" name="val_126/zero_point" type="Const" version="opset1">
			<data element_type="u8" shape="1, 1280" offset="39447244" size="1280" />
			<output>
				<port id="0" precision="U8">
					<dim>1</dim>
					<dim>1280</dim>
				</port>
			</output>
		</layer>
		<layer id="222" name="Convert_4998" type="Convert" version="opset1">
			<data destination_type="f16" />
			<input>
				<port id="0" precision="U8">
					<dim>1</dim>
					<dim>1280</dim>
				</port>
			</input>
			<output>
				<port id="1" precision="FP16">
					<dim>1</dim>
					<dim>1280</dim>
				</port>
			</output>
		</layer>
		<layer id="223" name="val_126/zero_point/subtract" type="Subtract" version="opset1">
			<data auto_broadcast="numpy" />
			<input>
				<port id="0" precision="FP16">
					<dim>1280</dim>
					<dim>1280</dim>
				</port>
				<port id="1" precision="FP16">
					<dim>1</dim>
					<dim>1280</dim>
				</port>
			</input>
			<output>
				<port id="2" precision="FP16">
					<dim>1280</dim>
					<dim>1280</dim>
				</port>
			</output>
		</layer>
		<layer id="224" name="val_126/scale" type="Const" version="opset1">
			<data element_type="f16" shape="1, 1280" offset="39448524" size="2560" />
			<output>
				<port id="0" precision="FP16">
					<dim>1</dim>
					<dim>1280</dim>
				</port>
			</output>
		</layer>
		<layer id="225" name="val_126/fq_weights_1" type="Multiply" version="opset1">
			<data auto_broadcast="numpy" />
			<input>
				<port id="0" precision="FP16">
					<dim>1280</dim>
					<dim>1280</dim>
				</port>
				<port id="1" precision="FP16">
					<dim>1</dim>
					<dim>1280</dim>
				</port>
			</input>
			<output>
				<port id="2" precision="FP16">
					<dim>1280</dim>
					<dim>1280</dim>
				</port>
			</output>
		</layer>
		<layer id="226" name="val_126/fq_weights_1/convert" type="Convert" version="opset1">
			<data destination_type="f32" />
			<input>
				<port id="0" precision="FP16">
					<dim>1280</dim>
					<dim>1280</dim>
				</port>
			</input>
			<output>
				<port id="1" precision="FP32">
					<dim>1280</dim>
					<dim>1280</dim>
				</port>
			</output>
		</layer>
		<layer id="227" name="node_MatMul_121" type="MatMul" version="opset1">
			<data transpose_a="false" transpose_b="false" />
			<input>
				<port id="0" precision="FP32">
					<dim>1</dim>
					<dim>1500</dim>
					<dim>1280</dim>
				</port>
				<port id="1" precision="FP32">
					<dim>1280</dim>
					<dim>1280</dim>
				</port>
			</input>
			<output>
				<port id="2" precision="FP32" names="val_127">
					<dim>1</dim>
					<dim>1500</dim>
					<dim>1280</dim>
				</port>
			</output>
		</layer>
		<layer id="228" name="blocks.1.attn.out.bias" type="Const" version="opset1">
			<data element_type="f32" shape="1280" offset="39451084" size="5120" />
			<output>
				<port id="0" precision="FP32" names="blocks.1.attn.out.bias">
					<dim>1280</dim>
				</port>
			</output>
		</layer>
		<layer id="229" name="node_linear_9" type="Add" version="opset1">
			<data auto_broadcast="numpy" />
			<input>
				<port id="0" precision="FP32">
					<dim>1</dim>
					<dim>1500</dim>
					<dim>1280</dim>
				</port>
				<port id="1" precision="FP32">
					<dim>1280</dim>
				</port>
			</input>
			<output>
				<port id="2" precision="FP32" names="linear_9">
					<dim>1</dim>
					<dim>1500</dim>
					<dim>1280</dim>
				</port>
			</output>
		</layer>
		<layer id="230" name="node_add_3" type="Add" version="opset1">
			<data auto_broadcast="numpy" />
			<input>
				<port id="0" precision="FP32">
					<dim>1</dim>
					<dim>1500</dim>
					<dim>1280</dim>
				</port>
				<port id="1" precision="FP32">
					<dim>1</dim>
					<dim>1500</dim>
					<dim>1280</dim>
				</port>
			</input>
			<output>
				<port id="2" precision="FP32" names="add_3">
					<dim>1</dim>
					<dim>1500</dim>
					<dim>1280</dim>
				</port>
			</output>
		</layer>
		<layer id="231" name="Constant_612" type="Const" version="opset1">
			<data element_type="i64" shape="" offset="13104680" size="8" />
			<output>
				<port id="0" precision="I64" />
			</output>
		</layer>
		<layer id="232" name="Constant_611" type="Const" version="opset1">
			<data element_type="i64" shape="" offset="13104688" size="8" />
			<output>
				<port id="0" precision="I64" />
			</output>
		</layer>
		<layer id="233" name="Constant_610" type="Const" version="opset1">
			<data element_type="i64" shape="" offset="500480" size="8" />
			<output>
				<port id="0" precision="I64" />
			</output>
		</layer>
		<layer id="234" name="Range_613" type="Range" version="opset4">
			<data output_type="i64" />
			<input>
				<port id="0" precision="I64" />
				<port id="1" precision="I64" />
				<port id="2" precision="I64" />
			</input>
			<output>
				<port id="3" precision="I64">
					<dim>1</dim>
				</port>
			</output>
		</layer>
		<layer id="235" name="MVN_614" type="MVN" version="opset6">
			<data eps="9.9999997473787516e-06" normalize_variance="true" eps_mode="INSIDE_SQRT" />
			<input>
				<port id="0" precision="FP32">
					<dim>1</dim>
					<dim>1500</dim>
					<dim>1280</dim>
				</port>
				<port id="1" precision="I64">
					<dim>1</dim>
				</port>
			</input>
			<output>
				<port id="2" precision="FP32">
					<dim>1</dim>
					<dim>1500</dim>
					<dim>1280</dim>
				</port>
			</output>
		</layer>
		<layer id="236" name="blocks.1.mlp_ln.weight" type="Const" version="opset1">
			<data element_type="f32" shape="1280" offset="39456204" size="5120" />
			<output>
				<port id="0" precision="FP32" names="blocks.1.mlp_ln.weight">
					<dim>1280</dim>
				</port>
			</output>
		</layer>
		<layer id="237" name="Multiply_615" type="Multiply" version="opset1">
			<data auto_broadcast="numpy" />
			<input>
				<port id="0" precision="FP32">
					<dim>1</dim>
					<dim>1500</dim>
					<dim>1280</dim>
				</port>
				<port id="1" precision="FP32">
					<dim>1280</dim>
				</port>
			</input>
			<output>
				<port id="2" precision="FP32">
					<dim>1</dim>
					<dim>1500</dim>
					<dim>1280</dim>
				</port>
			</output>
		</layer>
		<layer id="238" name="blocks.1.mlp_ln.bias" type="Const" version="opset1">
			<data element_type="f32" shape="1280" offset="39461324" size="5120" />
			<output>
				<port id="0" precision="FP32" names="blocks.1.mlp_ln.bias">
					<dim>1280</dim>
				</port>
			</output>
		</layer>
		<layer id="239" name="node_layer_norm_3" type="Add" version="opset1">
			<data auto_broadcast="numpy" />
			<input>
				<port id="0" precision="FP32">
					<dim>1</dim>
					<dim>1500</dim>
					<dim>1280</dim>
				</port>
				<port id="1" precision="FP32">
					<dim>1280</dim>
				</port>
			</input>
			<output>
				<port id="2" precision="FP32" names="layer_norm_3">
					<dim>1</dim>
					<dim>1500</dim>
					<dim>1280</dim>
				</port>
			</output>
		</layer>
		<layer id="240" name="val_130" type="Const" version="opset1">
			<data element_type="u8" shape="1280, 5120" offset="39466444" size="6553600" />
			<output>
				<port id="0" precision="U8">
					<dim>1280</dim>
					<dim>5120</dim>
				</port>
			</output>
		</layer>
		<layer id="241" name="Convert_4225" type="Convert" version="opset1">
			<data destination_type="f16" />
			<input>
				<port id="0" precision="U8">
					<dim>1280</dim>
					<dim>5120</dim>
				</port>
			</input>
			<output>
				<port id="1" precision="FP16">
					<dim>1280</dim>
					<dim>5120</dim>
				</port>
			</output>
		</layer>
		<layer id="242" name="val_130/zero_point" type="Const" version="opset1">
			<data element_type="u8" shape="1, 5120" offset="46020044" size="5120" />
			<output>
				<port id="0" precision="U8">
					<dim>1</dim>
					<dim>5120</dim>
				</port>
			</output>
		</layer>
		<layer id="243" name="Convert_4228" type="Convert" version="opset1">
			<data destination_type="f16" />
			<input>
				<port id="0" precision="U8">
					<dim>1</dim>
					<dim>5120</dim>
				</port>
			</input>
			<output>
				<port id="1" precision="FP16">
					<dim>1</dim>
					<dim>5120</dim>
				</port>
			</output>
		</layer>
		<layer id="244" name="val_130/zero_point/subtract" type="Subtract" version="opset1">
			<data auto_broadcast="numpy" />
			<input>
				<port id="0" precision="FP16">
					<dim>1280</dim>
					<dim>5120</dim>
				</port>
				<port id="1" precision="FP16">
					<dim>1</dim>
					<dim>5120</dim>
				</port>
			</input>
			<output>
				<port id="2" precision="FP16">
					<dim>1280</dim>
					<dim>5120</dim>
				</port>
			</output>
		</layer>
		<layer id="245" name="val_130/scale" type="Const" version="opset1">
			<data element_type="f16" shape="1, 5120" offset="46025164" size="10240" />
			<output>
				<port id="0" precision="FP16">
					<dim>1</dim>
					<dim>5120</dim>
				</port>
			</output>
		</layer>
		<layer id="246" name="val_130/fq_weights_1" type="Multiply" version="opset1">
			<data auto_broadcast="numpy" />
			<input>
				<port id="0" precision="FP16">
					<dim>1280</dim>
					<dim>5120</dim>
				</port>
				<port id="1" precision="FP16">
					<dim>1</dim>
					<dim>5120</dim>
				</port>
			</input>
			<output>
				<port id="2" precision="FP16">
					<dim>1280</dim>
					<dim>5120</dim>
				</port>
			</output>
		</layer>
		<layer id="247" name="val_130/fq_weights_1/convert" type="Convert" version="opset1">
			<data destination_type="f32" />
			<input>
				<port id="0" precision="FP16">
					<dim>1280</dim>
					<dim>5120</dim>
				</port>
			</input>
			<output>
				<port id="1" precision="FP32">
					<dim>1280</dim>
					<dim>5120</dim>
				</port>
			</output>
		</layer>
		<layer id="248" name="node_MatMul_123" type="MatMul" version="opset1">
			<data transpose_a="false" transpose_b="false" />
			<input>
				<port id="0" precision="FP32">
					<dim>1</dim>
					<dim>1500</dim>
					<dim>1280</dim>
				</port>
				<port id="1" precision="FP32">
					<dim>1280</dim>
					<dim>5120</dim>
				</port>
			</input>
			<output>
				<port id="2" precision="FP32" names="val_131">
					<dim>1</dim>
					<dim>1500</dim>
					<dim>5120</dim>
				</port>
			</output>
		</layer>
		<layer id="249" name="blocks.1.mlp.0.bias" type="Const" version="opset1">
			<data element_type="f32" shape="5120" offset="46035404" size="20480" />
			<output>
				<port id="0" precision="FP32" names="blocks.1.mlp.0.bias">
					<dim>5120</dim>
				</port>
			</output>
		</layer>
		<layer id="250" name="node_linear_10" type="Add" version="opset1">
			<data auto_broadcast="numpy" />
			<input>
				<port id="0" precision="FP32">
					<dim>1</dim>
					<dim>1500</dim>
					<dim>5120</dim>
				</port>
				<port id="1" precision="FP32">
					<dim>5120</dim>
				</port>
			</input>
			<output>
				<port id="2" precision="FP32" names="linear_10">
					<dim>1</dim>
					<dim>1500</dim>
					<dim>5120</dim>
				</port>
			</output>
		</layer>
		<layer id="251" name="node_gelu_3" type="Gelu" version="opset7">
			<data approximation_mode="ERF" />
			<input>
				<port id="0" precision="FP32">
					<dim>1</dim>
					<dim>1500</dim>
					<dim>5120</dim>
				</port>
			</input>
			<output>
				<port id="1" precision="FP32" names="gelu_3">
					<dim>1</dim>
					<dim>1500</dim>
					<dim>5120</dim>
				</port>
			</output>
		</layer>
		<layer id="252" name="val_132" type="Const" version="opset1">
			<data element_type="u8" shape="5120, 1280" offset="46055884" size="6553600" />
			<output>
				<port id="0" precision="U8">
					<dim>5120</dim>
					<dim>1280</dim>
				</port>
			</output>
		</layer>
		<layer id="253" name="Convert_4236" type="Convert" version="opset1">
			<data destination_type="f16" />
			<input>
				<port id="0" precision="U8">
					<dim>5120</dim>
					<dim>1280</dim>
				</port>
			</input>
			<output>
				<port id="1" precision="FP16">
					<dim>5120</dim>
					<dim>1280</dim>
				</port>
			</output>
		</layer>
		<layer id="254" name="val_132/zero_point" type="Const" version="opset1">
			<data element_type="u8" shape="1, 1280" offset="52609484" size="1280" />
			<output>
				<port id="0" precision="U8">
					<dim>1</dim>
					<dim>1280</dim>
				</port>
			</output>
		</layer>
		<layer id="255" name="Convert_4239" type="Convert" version="opset1">
			<data destination_type="f16" />
			<input>
				<port id="0" precision="U8">
					<dim>1</dim>
					<dim>1280</dim>
				</port>
			</input>
			<output>
				<port id="1" precision="FP16">
					<dim>1</dim>
					<dim>1280</dim>
				</port>
			</output>
		</layer>
		<layer id="256" name="val_132/zero_point/subtract" type="Subtract" version="opset1">
			<data auto_broadcast="numpy" />
			<input>
				<port id="0" precision="FP16">
					<dim>5120</dim>
					<dim>1280</dim>
				</port>
				<port id="1" precision="FP16">
					<dim>1</dim>
					<dim>1280</dim>
				</port>
			</input>
			<output>
				<port id="2" precision="FP16">
					<dim>5120</dim>
					<dim>1280</dim>
				</port>
			</output>
		</layer>
		<layer id="257" name="val_132/scale" type="Const" version="opset1">
			<data element_type="f16" shape="1, 1280" offset="52610764" size="2560" />
			<output>
				<port id="0" precision="FP16">
					<dim>1</dim>
					<dim>1280</dim>
				</port>
			</output>
		</layer>
		<layer id="258" name="val_132/fq_weights_1" type="Multiply" version="opset1">
			<data auto_broadcast="numpy" />
			<input>
				<port id="0" precision="FP16">
					<dim>5120</dim>
					<dim>1280</dim>
				</port>
				<port id="1" precision="FP16">
					<dim>1</dim>
					<dim>1280</dim>
				</port>
			</input>
			<output>
				<port id="2" precision="FP16">
					<dim>5120</dim>
					<dim>1280</dim>
				</port>
			</output>
		</layer>
		<layer id="259" name="val_132/fq_weights_1/convert" type="Convert" version="opset1">
			<data destination_type="f32" />
			<input>
				<port id="0" precision="FP16">
					<dim>5120</dim>
					<dim>1280</dim>
				</port>
			</input>
			<output>
				<port id="1" precision="FP32">
					<dim>5120</dim>
					<dim>1280</dim>
				</port>
			</output>
		</layer>
		<layer id="260" name="node_MatMul_125" type="MatMul" version="opset1">
			<data transpose_a="false" transpose_b="false" />
			<input>
				<port id="0" precision="FP32">
					<dim>1</dim>
					<dim>1500</dim>
					<dim>5120</dim>
				</port>
				<port id="1" precision="FP32">
					<dim>5120</dim>
					<dim>1280</dim>
				</port>
			</input>
			<output>
				<port id="2" precision="FP32" names="val_133">
					<dim>1</dim>
					<dim>1500</dim>
					<dim>1280</dim>
				</port>
			</output>
		</layer>
		<layer id="261" name="blocks.1.mlp.2.bias" type="Const" version="opset1">
			<data element_type="f32" shape="1280" offset="52613324" size="5120" />
			<output>
				<port id="0" precision="FP32" names="blocks.1.mlp.2.bias">
					<dim>1280</dim>
				</port>
			</output>
		</layer>
		<layer id="262" name="node_linear_11" type="Add" version="opset1">
			<data auto_broadcast="numpy" />
			<input>
				<port id="0" precision="FP32">
					<dim>1</dim>
					<dim>1500</dim>
					<dim>1280</dim>
				</port>
				<port id="1" precision="FP32">
					<dim>1280</dim>
				</port>
			</input>
			<output>
				<port id="2" precision="FP32" names="linear_11">
					<dim>1</dim>
					<dim>1500</dim>
					<dim>1280</dim>
				</port>
			</output>
		</layer>
		<layer id="263" name="node_add_4" type="Add" version="opset1">
			<data auto_broadcast="numpy" />
			<input>
				<port id="0" precision="FP32">
					<dim>1</dim>
					<dim>1500</dim>
					<dim>1280</dim>
				</port>
				<port id="1" precision="FP32">
					<dim>1</dim>
					<dim>1500</dim>
					<dim>1280</dim>
				</port>
			</input>
			<output>
				<port id="2" precision="FP32" names="add_4">
					<dim>1</dim>
					<dim>1500</dim>
					<dim>1280</dim>
				</port>
			</output>
		</layer>
		<layer id="264" name="Constant_625" type="Const" version="opset1">
			<data element_type="i64" shape="" offset="13104680" size="8" />
			<output>
				<port id="0" precision="I64" />
			</output>
		</layer>
		<layer id="265" name="Constant_624" type="Const" version="opset1">
			<data element_type="i64" shape="" offset="13104688" size="8" />
			<output>
				<port id="0" precision="I64" />
			</output>
		</layer>
		<layer id="266" name="Constant_623" type="Const" version="opset1">
			<data element_type="i64" shape="" offset="500480" size="8" />
			<output>
				<port id="0" precision="I64" />
			</output>
		</layer>
		<layer id="267" name="Range_626" type="Range" version="opset4">
			<data output_type="i64" />
			<input>
				<port id="0" precision="I64" />
				<port id="1" precision="I64" />
				<port id="2" precision="I64" />
			</input>
			<output>
				<port id="3" precision="I64">
					<dim>1</dim>
				</port>
			</output>
		</layer>
		<layer id="268" name="MVN_627" type="MVN" version="opset6">
			<data eps="9.9999997473787516e-06" normalize_variance="true" eps_mode="INSIDE_SQRT" />
			<input>
				<port id="0" precision="FP32">
					<dim>1</dim>
					<dim>1500</dim>
					<dim>1280</dim>
				</port>
				<port id="1" precision="I64">
					<dim>1</dim>
				</port>
			</input>
			<output>
				<port id="2" precision="FP32">
					<dim>1</dim>
					<dim>1500</dim>
					<dim>1280</dim>
				</port>
			</output>
		</layer>
		<layer id="269" name="blocks.2.attn_ln.weight" type="Const" version="opset1">
			<data element_type="f32" shape="1280" offset="52618444" size="5120" />
			<output>
				<port id="0" precision="FP32" names="blocks.2.attn_ln.weight">
					<dim>1280</dim>
				</port>
			</output>
		</layer>
		<layer id="270" name="Multiply_628" type="Multiply" version="opset1">
			<data auto_broadcast="numpy" />
			<input>
				<port id="0" precision="FP32">
					<dim>1</dim>
					<dim>1500</dim>
					<dim>1280</dim>
				</port>
				<port id="1" precision="FP32">
					<dim>1280</dim>
				</port>
			</input>
			<output>
				<port id="2" precision="FP32">
					<dim>1</dim>
					<dim>1500</dim>
					<dim>1280</dim>
				</port>
			</output>
		</layer>
		<layer id="271" name="blocks.2.attn_ln.bias" type="Const" version="opset1">
			<data element_type="f32" shape="1280" offset="52623564" size="5120" />
			<output>
				<port id="0" precision="FP32" names="blocks.2.attn_ln.bias">
					<dim>1280</dim>
				</port>
			</output>
		</layer>
		<layer id="272" name="node_layer_norm_4" type="Add" version="opset1">
			<data auto_broadcast="numpy" />
			<input>
				<port id="0" precision="FP32">
					<dim>1</dim>
					<dim>1500</dim>
					<dim>1280</dim>
				</port>
				<port id="1" precision="FP32">
					<dim>1280</dim>
				</port>
			</input>
			<output>
				<port id="2" precision="FP32" names="layer_norm_4">
					<dim>1</dim>
					<dim>1500</dim>
					<dim>1280</dim>
				</port>
			</output>
		</layer>
		<layer id="273" name="val_136" type="Const" version="opset1">
			<data element_type="u8" shape="1280, 1280" offset="52628684" size="1638400" />
			<output>
				<port id="0" precision="U8">
					<dim>1280</dim>
					<dim>1280</dim>
				</port>
			</output>
		</layer>
		<layer id="274" name="Convert_5028" type="Convert" version="opset1">
			<data destination_type="f16" />
			<input>
				<port id="0" precision="U8">
					<dim>1280</dim>
					<dim>1280</dim>
				</port>
			</input>
			<output>
				<port id="1" precision="FP16">
					<dim>1280</dim>
					<dim>1280</dim>
				</port>
			</output>
		</layer>
		<layer id="275" name="val_136/zero_point" type="Const" version="opset1">
			<data element_type="u8" shape="1, 1280" offset="54267084" size="1280" />
			<output>
				<port id="0" precision="U8">
					<dim>1</dim>
					<dim>1280</dim>
				</port>
			</output>
		</layer>
		<layer id="276" name="Convert_5031" type="Convert" version="opset1">
			<data destination_type="f16" />
			<input>
				<port id="0" precision="U8">
					<dim>1</dim>
					<dim>1280</dim>
				</port>
			</input>
			<output>
				<port id="1" precision="FP16">
					<dim>1</dim>
					<dim>1280</dim>
				</port>
			</output>
		</layer>
		<layer id="277" name="val_136/zero_point/subtract" type="Subtract" version="opset1">
			<data auto_broadcast="numpy" />
			<input>
				<port id="0" precision="FP16">
					<dim>1280</dim>
					<dim>1280</dim>
				</port>
				<port id="1" precision="FP16">
					<dim>1</dim>
					<dim>1280</dim>
				</port>
			</input>
			<output>
				<port id="2" precision="FP16">
					<dim>1280</dim>
					<dim>1280</dim>
				</port>
			</output>
		</layer>
		<layer id="278" name="val_136/scale" type="Const" version="opset1">
			<data element_type="f16" shape="1, 1280" offset="54268364" size="2560" />
			<output>
				<port id="0" precision="FP16">
					<dim>1</dim>
					<dim>1280</dim>
				</port>
			</output>
		</layer>
		<layer id="279" name="val_136/fq_weights_1" type="Multiply" version="opset1">
			<data auto_broadcast="numpy" />
			<input>
				<port id="0" precision="FP16">
					<dim>1280</dim>
					<dim>1280</dim>
				</port>
				<port id="1" precision="FP16">
					<dim>1</dim>
					<dim>1280</dim>
				</port>
			</input>
			<output>
				<port id="2" precision="FP16">
					<dim>1280</dim>
					<dim>1280</dim>
				</port>
			</output>
		</layer>
		<layer id="280" name="val_136/fq_weights_1/convert" type="Convert" version="opset1">
			<data destination_type="f32" />
			<input>
				<port id="0" precision="FP16">
					<dim>1280</dim>
					<dim>1280</dim>
				</port>
			</input>
			<output>
				<port id="1" precision="FP32">
					<dim>1280</dim>
					<dim>1280</dim>
				</port>
			</output>
		</layer>
		<layer id="281" name="node_MatMul_127" type="MatMul" version="opset1">
			<data transpose_a="false" transpose_b="false" />
			<input>
				<port id="0" precision="FP32">
					<dim>1</dim>
					<dim>1500</dim>
					<dim>1280</dim>
				</port>
				<port id="1" precision="FP32">
					<dim>1280</dim>
					<dim>1280</dim>
				</port>
			</input>
			<output>
				<port id="2" precision="FP32" names="val_137">
					<dim>1</dim>
					<dim>1500</dim>
					<dim>1280</dim>
				</port>
			</output>
		</layer>
		<layer id="282" name="blocks.2.attn.query.bias" type="Const" version="opset1">
			<data element_type="f32" shape="1280" offset="54270924" size="5120" />
			<output>
				<port id="0" precision="FP32" names="blocks.2.attn.query.bias">
					<dim>1280</dim>
				</port>
			</output>
		</layer>
		<layer id="283" name="node_linear_12" type="Add" version="opset1">
			<data auto_broadcast="numpy" />
			<input>
				<port id="0" precision="FP32">
					<dim>1</dim>
					<dim>1500</dim>
					<dim>1280</dim>
				</port>
				<port id="1" precision="FP32">
					<dim>1280</dim>
				</port>
			</input>
			<output>
				<port id="2" precision="FP32" names="linear_12">
					<dim>1</dim>
					<dim>1500</dim>
					<dim>1280</dim>
				</port>
			</output>
		</layer>
		<layer id="284" name="node_view_8" type="Reshape" version="opset1">
			<data special_zero="true" />
			<input>
				<port id="0" precision="FP32">
					<dim>1</dim>
					<dim>1500</dim>
					<dim>1280</dim>
				</port>
				<port id="1" precision="I64">
					<dim>4</dim>
				</port>
			</input>
			<output>
				<port id="2" precision="FP32" names="view_8">
					<dim>1</dim>
					<dim>1500</dim>
					<dim>20</dim>
					<dim>64</dim>
				</port>
			</output>
		</layer>
		<layer id="285" name="Constant_636" type="Const" version="opset1">
			<data element_type="i64" shape="4" offset="14762328" size="32" />
			<output>
				<port id="0" precision="I64">
					<dim>4</dim>
				</port>
			</output>
		</layer>
		<layer id="286" name="node_permute_9" type="Transpose" version="opset1">
			<input>
				<port id="0" precision="FP32">
					<dim>1</dim>
					<dim>1500</dim>
					<dim>20</dim>
					<dim>64</dim>
				</port>
				<port id="1" precision="I64">
					<dim>4</dim>
				</port>
			</input>
			<output>
				<port id="2" precision="FP32" names="permute_9">
					<dim>1</dim>
					<dim>20</dim>
					<dim>1500</dim>
					<dim>64</dim>
				</port>
			</output>
		</layer>
		<layer id="287" name="node_Mul_171" type="Multiply" version="opset1">
			<data auto_broadcast="numpy" />
			<input>
				<port id="0" precision="FP32">
					<dim>1</dim>
					<dim>20</dim>
					<dim>1500</dim>
					<dim>64</dim>
				</port>
				<port id="1" precision="FP32">
					<dim>1</dim>
				</port>
			</input>
			<output>
				<port id="2" precision="FP32" names="val_181">
					<dim>1</dim>
					<dim>20</dim>
					<dim>1500</dim>
					<dim>64</dim>
				</port>
			</output>
		</layer>
		<layer id="288" name="val_138" type="Const" version="opset1">
			<data element_type="u8" shape="1280, 1280" offset="54276044" size="1638400" />
			<output>
				<port id="0" precision="U8">
					<dim>1280</dim>
					<dim>1280</dim>
				</port>
			</output>
		</layer>
		<layer id="289" name="Convert_5017" type="Convert" version="opset1">
			<data destination_type="f16" />
			<input>
				<port id="0" precision="U8">
					<dim>1280</dim>
					<dim>1280</dim>
				</port>
			</input>
			<output>
				<port id="1" precision="FP16">
					<dim>1280</dim>
					<dim>1280</dim>
				</port>
			</output>
		</layer>
		<layer id="290" name="val_138/zero_point" type="Const" version="opset1">
			<data element_type="u8" shape="1, 1280" offset="55914444" size="1280" />
			<output>
				<port id="0" precision="U8">
					<dim>1</dim>
					<dim>1280</dim>
				</port>
			</output>
		</layer>
		<layer id="291" name="Convert_5020" type="Convert" version="opset1">
			<data destination_type="f16" />
			<input>
				<port id="0" precision="U8">
					<dim>1</dim>
					<dim>1280</dim>
				</port>
			</input>
			<output>
				<port id="1" precision="FP16">
					<dim>1</dim>
					<dim>1280</dim>
				</port>
			</output>
		</layer>
		<layer id="292" name="val_138/zero_point/subtract" type="Subtract" version="opset1">
			<data auto_broadcast="numpy" />
			<input>
				<port id="0" precision="FP16">
					<dim>1280</dim>
					<dim>1280</dim>
				</port>
				<port id="1" precision="FP16">
					<dim>1</dim>
					<dim>1280</dim>
				</port>
			</input>
			<output>
				<port id="2" precision="FP16">
					<dim>1280</dim>
					<dim>1280</dim>
				</port>
			</output>
		</layer>
		<layer id="293" name="val_138/scale" type="Const" version="opset1">
			<data element_type="f16" shape="1, 1280" offset="55915724" size="2560" />
			<output>
				<port id="0" precision="FP16">
					<dim>1</dim>
					<dim>1280</dim>
				</port>
			</output>
		</layer>
		<layer id="294" name="val_138/fq_weights_1" type="Multiply" version="opset1">
			<data auto_broadcast="numpy" />
			<input>
				<port id="0" precision="FP16">
					<dim>1280</dim>
					<dim>1280</dim>
				</port>
				<port id="1" precision="FP16">
					<dim>1</dim>
					<dim>1280</dim>
				</port>
			</input>
			<output>
				<port id="2" precision="FP16">
					<dim>1280</dim>
					<dim>1280</dim>
				</port>
			</output>
		</layer>
		<layer id="295" name="val_138/fq_weights_1/convert" type="Convert" version="opset1">
			<data destination_type="f32" />
			<input>
				<port id="0" precision="FP16">
					<dim>1280</dim>
					<dim>1280</dim>
				</port>
			</input>
			<output>
				<port id="1" precision="FP32">
					<dim>1280</dim>
					<dim>1280</dim>
				</port>
			</output>
		</layer>
		<layer id="296" name="node_linear_13" type="MatMul" version="opset1">
			<data transpose_a="false" transpose_b="false" />
			<input>
				<port id="0" precision="FP32">
					<dim>1</dim>
					<dim>1500</dim>
					<dim>1280</dim>
				</port>
				<port id="1" precision="FP32">
					<dim>1280</dim>
					<dim>1280</dim>
				</port>
			</input>
			<output>
				<port id="2" precision="FP32" names="linear_13">
					<dim>1</dim>
					<dim>1500</dim>
					<dim>1280</dim>
				</port>
			</output>
		</layer>
		<layer id="297" name="node_view_9" type="Reshape" version="opset1">
			<data special_zero="true" />
			<input>
				<port id="0" precision="FP32">
					<dim>1</dim>
					<dim>1500</dim>
					<dim>1280</dim>
				</port>
				<port id="1" precision="I64">
					<dim>4</dim>
				</port>
			</input>
			<output>
				<port id="2" precision="FP32" names="view_9">
					<dim>1</dim>
					<dim>1500</dim>
					<dim>20</dim>
					<dim>64</dim>
				</port>
			</output>
		</layer>
		<layer id="298" name="Constant_639" type="Const" version="opset1">
			<data element_type="i64" shape="4" offset="14762328" size="32" />
			<output>
				<port id="0" precision="I64">
					<dim>4</dim>
				</port>
			</output>
		</layer>
		<layer id="299" name="node_permute_10" type="Transpose" version="opset1">
			<input>
				<port id="0" precision="FP32">
					<dim>1</dim>
					<dim>1500</dim>
					<dim>20</dim>
					<dim>64</dim>
				</port>
				<port id="1" precision="I64">
					<dim>4</dim>
				</port>
			</input>
			<output>
				<port id="2" precision="FP32" names="permute_10">
					<dim>1</dim>
					<dim>20</dim>
					<dim>1500</dim>
					<dim>64</dim>
				</port>
			</output>
		</layer>
		<layer id="300" name="node_Reshape_166" type="Reshape" version="opset1">
			<data special_zero="true" />
			<input>
				<port id="0" precision="FP32">
					<dim>1</dim>
					<dim>20</dim>
					<dim>1500</dim>
					<dim>64</dim>
				</port>
				<port id="1" precision="I64">
					<dim>3</dim>
				</port>
			</input>
			<output>
				<port id="2" precision="FP32" names="val_176">
					<dim>20</dim>
					<dim>1500</dim>
					<dim>64</dim>
				</port>
			</output>
		</layer>
		<layer id="301" name="Constant_645" type="Const" version="opset1">
			<data element_type="i64" shape="3" offset="5424656" size="24" />
			<output>
				<port id="0" precision="I64">
					<dim>3</dim>
				</port>
			</output>
		</layer>
		<layer id="302" name="node_Transpose_167" type="Transpose" version="opset1">
			<input>
				<port id="0" precision="FP32">
					<dim>20</dim>
					<dim>1500</dim>
					<dim>64</dim>
				</port>
				<port id="1" precision="I64">
					<dim>3</dim>
				</port>
			</input>
			<output>
				<port id="2" precision="FP32" names="val_177">
					<dim>20</dim>
					<dim>64</dim>
					<dim>1500</dim>
				</port>
			</output>
		</layer>
		<layer id="303" name="node_Reshape_169" type="Reshape" version="opset1">
			<data special_zero="true" />
			<input>
				<port id="0" precision="FP32">
					<dim>20</dim>
					<dim>64</dim>
					<dim>1500</dim>
				</port>
				<port id="1" precision="I64">
					<dim>4</dim>
				</port>
			</input>
			<output>
				<port id="2" precision="FP32" names="val_179">
					<dim>1</dim>
					<dim>20</dim>
					<dim>64</dim>
					<dim>1500</dim>
				</port>
			</output>
		</layer>
		<layer id="304" name="node_Mul_174" type="Multiply" version="opset1">
			<data auto_broadcast="numpy" />
			<input>
				<port id="0" precision="FP32">
					<dim>1</dim>
					<dim>20</dim>
					<dim>64</dim>
					<dim>1500</dim>
				</port>
				<port id="1" precision="FP32">
					<dim>1</dim>
				</port>
			</input>
			<output>
				<port id="2" precision="FP32" names="val_184">
					<dim>1</dim>
					<dim>20</dim>
					<dim>64</dim>
					<dim>1500</dim>
				</port>
			</output>
		</layer>
		<layer id="305" name="node_MatMul_175" type="MatMul" version="opset1">
			<data transpose_a="false" transpose_b="false" />
			<input>
				<port id="0" precision="FP32">
					<dim>1</dim>
					<dim>20</dim>
					<dim>1500</dim>
					<dim>64</dim>
				</port>
				<port id="1" precision="FP32">
					<dim>1</dim>
					<dim>20</dim>
					<dim>64</dim>
					<dim>1500</dim>
				</port>
			</input>
			<output>
				<port id="2" precision="FP32" names="val_185">
					<dim>1</dim>
					<dim>20</dim>
					<dim>1500</dim>
					<dim>1500</dim>
				</port>
			</output>
		</layer>
		<layer id="306" name="node_Softmax_176" type="SoftMax" version="opset8">
			<data axis="-1" />
			<input>
				<port id="0" precision="FP32">
					<dim>1</dim>
					<dim>20</dim>
					<dim>1500</dim>
					<dim>1500</dim>
				</port>
			</input>
			<output>
				<port id="1" precision="FP32" names="val_186">
					<dim>1</dim>
					<dim>20</dim>
					<dim>1500</dim>
					<dim>1500</dim>
				</port>
			</output>
		</layer>
		<layer id="307" name="val_139" type="Const" version="opset1">
			<data element_type="u8" shape="1280, 1280" offset="55918284" size="1638400" />
			<output>
				<port id="0" precision="U8">
					<dim>1280</dim>
					<dim>1280</dim>
				</port>
			</output>
		</layer>
		<layer id="308" name="Convert_5006" type="Convert" version="opset1">
			<data destination_type="f16" />
			<input>
				<port id="0" precision="U8">
					<dim>1280</dim>
					<dim>1280</dim>
				</port>
			</input>
			<output>
				<port id="1" precision="FP16">
					<dim>1280</dim>
					<dim>1280</dim>
				</port>
			</output>
		</layer>
		<layer id="309" name="val_139/zero_point" type="Const" version="opset1">
			<data element_type="u8" shape="1, 1280" offset="57556684" size="1280" />
			<output>
				<port id="0" precision="U8">
					<dim>1</dim>
					<dim>1280</dim>
				</port>
			</output>
		</layer>
		<layer id="310" name="Convert_5009" type="Convert" version="opset1">
			<data destination_type="f16" />
			<input>
				<port id="0" precision="U8">
					<dim>1</dim>
					<dim>1280</dim>
				</port>
			</input>
			<output>
				<port id="1" precision="FP16">
					<dim>1</dim>
					<dim>1280</dim>
				</port>
			</output>
		</layer>
		<layer id="311" name="val_139/zero_point/subtract" type="Subtract" version="opset1">
			<data auto_broadcast="numpy" />
			<input>
				<port id="0" precision="FP16">
					<dim>1280</dim>
					<dim>1280</dim>
				</port>
				<port id="1" precision="FP16">
					<dim>1</dim>
					<dim>1280</dim>
				</port>
			</input>
			<output>
				<port id="2" precision="FP16">
					<dim>1280</dim>
					<dim>1280</dim>
				</port>
			</output>
		</layer>
		<layer id="312" name="val_139/scale" type="Const" version="opset1">
			<data element_type="f16" shape="1, 1280" offset="57557964" size="2560" />
			<output>
				<port id="0" precision="FP16">
					<dim>1</dim>
					<dim>1280</dim>
				</port>
			</output>
		</layer>
		<layer id="313" name="val_139/fq_weights_1" type="Multiply" version="opset1">
			<data auto_broadcast="numpy" />
			<input>
				<port id="0" precision="FP16">
					<dim>1280</dim>
					<dim>1280</dim>
				</port>
				<port id="1" precision="FP16">
					<dim>1</dim>
					<dim>1280</dim>
				</port>
			</input>
			<output>
				<port id="2" precision="FP16">
					<dim>1280</dim>
					<dim>1280</dim>
				</port>
			</output>
		</layer>
		<layer id="314" name="val_139/fq_weights_1/convert" type="Convert" version="opset1">
			<data destination_type="f32" />
			<input>
				<port id="0" precision="FP16">
					<dim>1280</dim>
					<dim>1280</dim>
				</port>
			</input>
			<output>
				<port id="1" precision="FP32">
					<dim>1280</dim>
					<dim>1280</dim>
				</port>
			</output>
		</layer>
		<layer id="315" name="node_MatMul_130" type="MatMul" version="opset1">
			<data transpose_a="false" transpose_b="false" />
			<input>
				<port id="0" precision="FP32">
					<dim>1</dim>
					<dim>1500</dim>
					<dim>1280</dim>
				</port>
				<port id="1" precision="FP32">
					<dim>1280</dim>
					<dim>1280</dim>
				</port>
			</input>
			<output>
				<port id="2" precision="FP32" names="val_140">
					<dim>1</dim>
					<dim>1500</dim>
					<dim>1280</dim>
				</port>
			</output>
		</layer>
		<layer id="316" name="blocks.2.attn.value.bias" type="Const" version="opset1">
			<data element_type="f32" shape="1280" offset="57560524" size="5120" />
			<output>
				<port id="0" precision="FP32" names="blocks.2.attn.value.bias">
					<dim>1280</dim>
				</port>
			</output>
		</layer>
		<layer id="317" name="node_linear_14" type="Add" version="opset1">
			<data auto_broadcast="numpy" />
			<input>
				<port id="0" precision="FP32">
					<dim>1</dim>
					<dim>1500</dim>
					<dim>1280</dim>
				</port>
				<port id="1" precision="FP32">
					<dim>1280</dim>
				</port>
			</input>
			<output>
				<port id="2" precision="FP32" names="linear_14">
					<dim>1</dim>
					<dim>1500</dim>
					<dim>1280</dim>
				</port>
			</output>
		</layer>
		<layer id="318" name="node_view_10" type="Reshape" version="opset1">
			<data special_zero="true" />
			<input>
				<port id="0" precision="FP32">
					<dim>1</dim>
					<dim>1500</dim>
					<dim>1280</dim>
				</port>
				<port id="1" precision="I64">
					<dim>4</dim>
				</port>
			</input>
			<output>
				<port id="2" precision="FP32" names="view_10">
					<dim>1</dim>
					<dim>1500</dim>
					<dim>20</dim>
					<dim>64</dim>
				</port>
			</output>
		</layer>
		<layer id="319" name="Constant_642" type="Const" version="opset1">
			<data element_type="i64" shape="4" offset="14762328" size="32" />
			<output>
				<port id="0" precision="I64">
					<dim>4</dim>
				</port>
			</output>
		</layer>
		<layer id="320" name="node_permute_11" type="Transpose" version="opset1">
			<input>
				<port id="0" precision="FP32">
					<dim>1</dim>
					<dim>1500</dim>
					<dim>20</dim>
					<dim>64</dim>
				</port>
				<port id="1" precision="I64">
					<dim>4</dim>
				</port>
			</input>
			<output>
				<port id="2" precision="FP32" names="permute_11">
					<dim>1</dim>
					<dim>20</dim>
					<dim>1500</dim>
					<dim>64</dim>
				</port>
			</output>
		</layer>
		<layer id="321" name="node_scaled_dot_product_attention_2" type="MatMul" version="opset1">
			<data transpose_a="false" transpose_b="false" />
			<input>
				<port id="0" precision="FP32">
					<dim>1</dim>
					<dim>20</dim>
					<dim>1500</dim>
					<dim>1500</dim>
				</port>
				<port id="1" precision="FP32">
					<dim>1</dim>
					<dim>20</dim>
					<dim>1500</dim>
					<dim>64</dim>
				</port>
			</input>
			<output>
				<port id="2" precision="FP32" names="scaled_dot_product_attention_2">
					<dim>1</dim>
					<dim>20</dim>
					<dim>1500</dim>
					<dim>64</dim>
				</port>
			</output>
		</layer>
		<layer id="322" name="Constant_653" type="Const" version="opset1">
			<data element_type="i64" shape="4" offset="14762328" size="32" />
			<output>
				<port id="0" precision="I64">
					<dim>4</dim>
				</port>
			</output>
		</layer>
		<layer id="323" name="node_permute_12" type="Transpose" version="opset1">
			<input>
				<port id="0" precision="FP32">
					<dim>1</dim>
					<dim>20</dim>
					<dim>1500</dim>
					<dim>64</dim>
				</port>
				<port id="1" precision="I64">
					<dim>4</dim>
				</port>
			</input>
			<output>
				<port id="2" precision="FP32" names="permute_12">
					<dim>1</dim>
					<dim>1500</dim>
					<dim>20</dim>
					<dim>64</dim>
				</port>
			</output>
		</layer>
		<layer id="324" name="node_view_11" type="Reshape" version="opset1">
			<data special_zero="true" />
			<input>
				<port id="0" precision="FP32">
					<dim>1</dim>
					<dim>1500</dim>
					<dim>20</dim>
					<dim>64</dim>
				</port>
				<port id="1" precision="I64">
					<dim>3</dim>
				</port>
			</input>
			<output>
				<port id="2" precision="FP32" names="view_11">
					<dim>1</dim>
					<dim>1500</dim>
					<dim>1280</dim>
				</port>
			</output>
		</layer>
		<layer id="325" name="val_192" type="Const" version="opset1">
			<data element_type="u8" shape="1280, 1280" offset="57565644" size="1638400" />
			<output>
				<port id="0" precision="U8">
					<dim>1280</dim>
					<dim>1280</dim>
				</port>
			</output>
		</layer>
		<layer id="326" name="Convert_5039" type="Convert" version="opset1">
			<data destination_type="f16" />
			<input>
				<port id="0" precision="U8">
					<dim>1280</dim>
					<dim>1280</dim>
				</port>
			</input>
			<output>
				<port id="1" precision="FP16">
					<dim>1280</dim>
					<dim>1280</dim>
				</port>
			</output>
		</layer>
		<layer id="327" name="val_192/zero_point" type="Const" version="opset1">
			<data element_type="u8" shape="1, 1280" offset="59204044" size="1280" />
			<output>
				<port id="0" precision="U8">
					<dim>1</dim>
					<dim>1280</dim>
				</port>
			</output>
		</layer>
		<layer id="328" name="Convert_5042" type="Convert" version="opset1">
			<data destination_type="f16" />
			<input>
				<port id="0" precision="U8">
					<dim>1</dim>
					<dim>1280</dim>
				</port>
			</input>
			<output>
				<port id="1" precision="FP16">
					<dim>1</dim>
					<dim>1280</dim>
				</port>
			</output>
		</layer>
		<layer id="329" name="val_192/zero_point/subtract" type="Subtract" version="opset1">
			<data auto_broadcast="numpy" />
			<input>
				<port id="0" precision="FP16">
					<dim>1280</dim>
					<dim>1280</dim>
				</port>
				<port id="1" precision="FP16">
					<dim>1</dim>
					<dim>1280</dim>
				</port>
			</input>
			<output>
				<port id="2" precision="FP16">
					<dim>1280</dim>
					<dim>1280</dim>
				</port>
			</output>
		</layer>
		<layer id="330" name="val_192/scale" type="Const" version="opset1">
			<data element_type="f16" shape="1, 1280" offset="59205324" size="2560" />
			<output>
				<port id="0" precision="FP16">
					<dim>1</dim>
					<dim>1280</dim>
				</port>
			</output>
		</layer>
		<layer id="331" name="val_192/fq_weights_1" type="Multiply" version="opset1">
			<data auto_broadcast="numpy" />
			<input>
				<port id="0" precision="FP16">
					<dim>1280</dim>
					<dim>1280</dim>
				</port>
				<port id="1" precision="FP16">
					<dim>1</dim>
					<dim>1280</dim>
				</port>
			</input>
			<output>
				<port id="2" precision="FP16">
					<dim>1280</dim>
					<dim>1280</dim>
				</port>
			</output>
		</layer>
		<layer id="332" name="val_192/fq_weights_1/convert" type="Convert" version="opset1">
			<data destination_type="f32" />
			<input>
				<port id="0" precision="FP16">
					<dim>1280</dim>
					<dim>1280</dim>
				</port>
			</input>
			<output>
				<port id="1" precision="FP32">
					<dim>1280</dim>
					<dim>1280</dim>
				</port>
			</output>
		</layer>
		<layer id="333" name="node_MatMul_183" type="MatMul" version="opset1">
			<data transpose_a="false" transpose_b="false" />
			<input>
				<port id="0" precision="FP32">
					<dim>1</dim>
					<dim>1500</dim>
					<dim>1280</dim>
				</port>
				<port id="1" precision="FP32">
					<dim>1280</dim>
					<dim>1280</dim>
				</port>
			</input>
			<output>
				<port id="2" precision="FP32" names="val_193">
					<dim>1</dim>
					<dim>1500</dim>
					<dim>1280</dim>
				</port>
			</output>
		</layer>
		<layer id="334" name="blocks.2.attn.out.bias" type="Const" version="opset1">
			<data element_type="f32" shape="1280" offset="59207884" size="5120" />
			<output>
				<port id="0" precision="FP32" names="blocks.2.attn.out.bias">
					<dim>1280</dim>
				</port>
			</output>
		</layer>
		<layer id="335" name="node_linear_15" type="Add" version="opset1">
			<data auto_broadcast="numpy" />
			<input>
				<port id="0" precision="FP32">
					<dim>1</dim>
					<dim>1500</dim>
					<dim>1280</dim>
				</port>
				<port id="1" precision="FP32">
					<dim>1280</dim>
				</port>
			</input>
			<output>
				<port id="2" precision="FP32" names="linear_15">
					<dim>1</dim>
					<dim>1500</dim>
					<dim>1280</dim>
				</port>
			</output>
		</layer>
		<layer id="336" name="node_add_5" type="Add" version="opset1">
			<data auto_broadcast="numpy" />
			<input>
				<port id="0" precision="FP32">
					<dim>1</dim>
					<dim>1500</dim>
					<dim>1280</dim>
				</port>
				<port id="1" precision="FP32">
					<dim>1</dim>
					<dim>1500</dim>
					<dim>1280</dim>
				</port>
			</input>
			<output>
				<port id="2" precision="FP32" names="add_5">
					<dim>1</dim>
					<dim>1500</dim>
					<dim>1280</dim>
				</port>
			</output>
		</layer>
		<layer id="337" name="Constant_661" type="Const" version="opset1">
			<data element_type="i64" shape="" offset="13104680" size="8" />
			<output>
				<port id="0" precision="I64" />
			</output>
		</layer>
		<layer id="338" name="Constant_660" type="Const" version="opset1">
			<data element_type="i64" shape="" offset="13104688" size="8" />
			<output>
				<port id="0" precision="I64" />
			</output>
		</layer>
		<layer id="339" name="Constant_659" type="Const" version="opset1">
			<data element_type="i64" shape="" offset="500480" size="8" />
			<output>
				<port id="0" precision="I64" />
			</output>
		</layer>
		<layer id="340" name="Range_662" type="Range" version="opset4">
			<data output_type="i64" />
			<input>
				<port id="0" precision="I64" />
				<port id="1" precision="I64" />
				<port id="2" precision="I64" />
			</input>
			<output>
				<port id="3" precision="I64">
					<dim>1</dim>
				</port>
			</output>
		</layer>
		<layer id="341" name="MVN_663" type="MVN" version="opset6">
			<data eps="9.9999997473787516e-06" normalize_variance="true" eps_mode="INSIDE_SQRT" />
			<input>
				<port id="0" precision="FP32">
					<dim>1</dim>
					<dim>1500</dim>
					<dim>1280</dim>
				</port>
				<port id="1" precision="I64">
					<dim>1</dim>
				</port>
			</input>
			<output>
				<port id="2" precision="FP32">
					<dim>1</dim>
					<dim>1500</dim>
					<dim>1280</dim>
				</port>
			</output>
		</layer>
		<layer id="342" name="blocks.2.mlp_ln.weight" type="Const" version="opset1">
			<data element_type="f32" shape="1280" offset="59213004" size="5120" />
			<output>
				<port id="0" precision="FP32" names="blocks.2.mlp_ln.weight">
					<dim>1280</dim>
				</port>
			</output>
		</layer>
		<layer id="343" name="Multiply_664" type="Multiply" version="opset1">
			<data auto_broadcast="numpy" />
			<input>
				<port id="0" precision="FP32">
					<dim>1</dim>
					<dim>1500</dim>
					<dim>1280</dim>
				</port>
				<port id="1" precision="FP32">
					<dim>1280</dim>
				</port>
			</input>
			<output>
				<port id="2" precision="FP32">
					<dim>1</dim>
					<dim>1500</dim>
					<dim>1280</dim>
				</port>
			</output>
		</layer>
		<layer id="344" name="blocks.2.mlp_ln.bias" type="Const" version="opset1">
			<data element_type="f32" shape="1280" offset="59218124" size="5120" />
			<output>
				<port id="0" precision="FP32" names="blocks.2.mlp_ln.bias">
					<dim>1280</dim>
				</port>
			</output>
		</layer>
		<layer id="345" name="node_layer_norm_5" type="Add" version="opset1">
			<data auto_broadcast="numpy" />
			<input>
				<port id="0" precision="FP32">
					<dim>1</dim>
					<dim>1500</dim>
					<dim>1280</dim>
				</port>
				<port id="1" precision="FP32">
					<dim>1280</dim>
				</port>
			</input>
			<output>
				<port id="2" precision="FP32" names="layer_norm_5">
					<dim>1</dim>
					<dim>1500</dim>
					<dim>1280</dim>
				</port>
			</output>
		</layer>
		<layer id="346" name="val_196" type="Const" version="opset1">
			<data element_type="u8" shape="1280, 5120" offset="59223244" size="6553600" />
			<output>
				<port id="0" precision="U8">
					<dim>1280</dim>
					<dim>5120</dim>
				</port>
			</output>
		</layer>
		<layer id="347" name="Convert_4247" type="Convert" version="opset1">
			<data destination_type="f16" />
			<input>
				<port id="0" precision="U8">
					<dim>1280</dim>
					<dim>5120</dim>
				</port>
			</input>
			<output>
				<port id="1" precision="FP16">
					<dim>1280</dim>
					<dim>5120</dim>
				</port>
			</output>
		</layer>
		<layer id="348" name="val_196/zero_point" type="Const" version="opset1">
			<data element_type="u8" shape="1, 5120" offset="65776844" size="5120" />
			<output>
				<port id="0" precision="U8">
					<dim>1</dim>
					<dim>5120</dim>
				</port>
			</output>
		</layer>
		<layer id="349" name="Convert_4250" type="Convert" version="opset1">
			<data destination_type="f16" />
			<input>
				<port id="0" precision="U8">
					<dim>1</dim>
					<dim>5120</dim>
				</port>
			</input>
			<output>
				<port id="1" precision="FP16">
					<dim>1</dim>
					<dim>5120</dim>
				</port>
			</output>
		</layer>
		<layer id="350" name="val_196/zero_point/subtract" type="Subtract" version="opset1">
			<data auto_broadcast="numpy" />
			<input>
				<port id="0" precision="FP16">
					<dim>1280</dim>
					<dim>5120</dim>
				</port>
				<port id="1" precision="FP16">
					<dim>1</dim>
					<dim>5120</dim>
				</port>
			</input>
			<output>
				<port id="2" precision="FP16">
					<dim>1280</dim>
					<dim>5120</dim>
				</port>
			</output>
		</layer>
		<layer id="351" name="val_196/scale" type="Const" version="opset1">
			<data element_type="f16" shape="1, 5120" offset="65781964" size="10240" />
			<output>
				<port id="0" precision="FP16">
					<dim>1</dim>
					<dim>5120</dim>
				</port>
			</output>
		</layer>
		<layer id="352" name="val_196/fq_weights_1" type="Multiply" version="opset1">
			<data auto_broadcast="numpy" />
			<input>
				<port id="0" precision="FP16">
					<dim>1280</dim>
					<dim>5120</dim>
				</port>
				<port id="1" precision="FP16">
					<dim>1</dim>
					<dim>5120</dim>
				</port>
			</input>
			<output>
				<port id="2" precision="FP16">
					<dim>1280</dim>
					<dim>5120</dim>
				</port>
			</output>
		</layer>
		<layer id="353" name="val_196/fq_weights_1/convert" type="Convert" version="opset1">
			<data destination_type="f32" />
			<input>
				<port id="0" precision="FP16">
					<dim>1280</dim>
					<dim>5120</dim>
				</port>
			</input>
			<output>
				<port id="1" precision="FP32">
					<dim>1280</dim>
					<dim>5120</dim>
				</port>
			</output>
		</layer>
		<layer id="354" name="node_MatMul_185" type="MatMul" version="opset1">
			<data transpose_a="false" transpose_b="false" />
			<input>
				<port id="0" precision="FP32">
					<dim>1</dim>
					<dim>1500</dim>
					<dim>1280</dim>
				</port>
				<port id="1" precision="FP32">
					<dim>1280</dim>
					<dim>5120</dim>
				</port>
			</input>
			<output>
				<port id="2" precision="FP32" names="val_197">
					<dim>1</dim>
					<dim>1500</dim>
					<dim>5120</dim>
				</port>
			</output>
		</layer>
		<layer id="355" name="blocks.2.mlp.0.bias" type="Const" version="opset1">
			<data element_type="f32" shape="5120" offset="65792204" size="20480" />
			<output>
				<port id="0" precision="FP32" names="blocks.2.mlp.0.bias">
					<dim>5120</dim>
				</port>
			</output>
		</layer>
		<layer id="356" name="node_linear_16" type="Add" version="opset1">
			<data auto_broadcast="numpy" />
			<input>
				<port id="0" precision="FP32">
					<dim>1</dim>
					<dim>1500</dim>
					<dim>5120</dim>
				</port>
				<port id="1" precision="FP32">
					<dim>5120</dim>
				</port>
			</input>
			<output>
				<port id="2" precision="FP32" names="linear_16">
					<dim>1</dim>
					<dim>1500</dim>
					<dim>5120</dim>
				</port>
			</output>
		</layer>
		<layer id="357" name="node_gelu_4" type="Gelu" version="opset7">
			<data approximation_mode="ERF" />
			<input>
				<port id="0" precision="FP32">
					<dim>1</dim>
					<dim>1500</dim>
					<dim>5120</dim>
				</port>
			</input>
			<output>
				<port id="1" precision="FP32" names="gelu_4">
					<dim>1</dim>
					<dim>1500</dim>
					<dim>5120</dim>
				</port>
			</output>
		</layer>
		<layer id="358" name="val_198" type="Const" version="opset1">
			<data element_type="u8" shape="5120, 1280" offset="65812684" size="6553600" />
			<output>
				<port id="0" precision="U8">
					<dim>5120</dim>
					<dim>1280</dim>
				</port>
			</output>
		</layer>
		<layer id="359" name="Convert_4258" type="Convert" version="opset1">
			<data destination_type="f16" />
			<input>
				<port id="0" precision="U8">
					<dim>5120</dim>
					<dim>1280</dim>
				</port>
			</input>
			<output>
				<port id="1" precision="FP16">
					<dim>5120</dim>
					<dim>1280</dim>
				</port>
			</output>
		</layer>
		<layer id="360" name="val_198/zero_point" type="Const" version="opset1">
			<data element_type="u8" shape="1, 1280" offset="72366284" size="1280" />
			<output>
				<port id="0" precision="U8">
					<dim>1</dim>
					<dim>1280</dim>
				</port>
			</output>
		</layer>
		<layer id="361" name="Convert_4261" type="Convert" version="opset1">
			<data destination_type="f16" />
			<input>
				<port id="0" precision="U8">
					<dim>1</dim>
					<dim>1280</dim>
				</port>
			</input>
			<output>
				<port id="1" precision="FP16">
					<dim>1</dim>
					<dim>1280</dim>
				</port>
			</output>
		</layer>
		<layer id="362" name="val_198/zero_point/subtract" type="Subtract" version="opset1">
			<data auto_broadcast="numpy" />
			<input>
				<port id="0" precision="FP16">
					<dim>5120</dim>
					<dim>1280</dim>
				</port>
				<port id="1" precision="FP16">
					<dim>1</dim>
					<dim>1280</dim>
				</port>
			</input>
			<output>
				<port id="2" precision="FP16">
					<dim>5120</dim>
					<dim>1280</dim>
				</port>
			</output>
		</layer>
		<layer id="363" name="val_198/scale" type="Const" version="opset1">
			<data element_type="f16" shape="1, 1280" offset="72367564" size="2560" />
			<output>
				<port id="0" precision="FP16">
					<dim>1</dim>
					<dim>1280</dim>
				</port>
			</output>
		</layer>
		<layer id="364" name="val_198/fq_weights_1" type="Multiply" version="opset1">
			<data auto_broadcast="numpy" />
			<input>
				<port id="0" precision="FP16">
					<dim>5120</dim>
					<dim>1280</dim>
				</port>
				<port id="1" precision="FP16">
					<dim>1</dim>
					<dim>1280</dim>
				</port>
			</input>
			<output>
				<port id="2" precision="FP16">
					<dim>5120</dim>
					<dim>1280</dim>
				</port>
			</output>
		</layer>
		<layer id="365" name="val_198/fq_weights_1/convert" type="Convert" version="opset1">
			<data destination_type="f32" />
			<input>
				<port id="0" precision="FP16">
					<dim>5120</dim>
					<dim>1280</dim>
				</port>
			</input>
			<output>
				<port id="1" precision="FP32">
					<dim>5120</dim>
					<dim>1280</dim>
				</port>
			</output>
		</layer>
		<layer id="366" name="node_MatMul_187" type="MatMul" version="opset1">
			<data transpose_a="false" transpose_b="false" />
			<input>
				<port id="0" precision="FP32">
					<dim>1</dim>
					<dim>1500</dim>
					<dim>5120</dim>
				</port>
				<port id="1" precision="FP32">
					<dim>5120</dim>
					<dim>1280</dim>
				</port>
			</input>
			<output>
				<port id="2" precision="FP32" names="val_199">
					<dim>1</dim>
					<dim>1500</dim>
					<dim>1280</dim>
				</port>
			</output>
		</layer>
		<layer id="367" name="blocks.2.mlp.2.bias" type="Const" version="opset1">
			<data element_type="f32" shape="1280" offset="72370124" size="5120" />
			<output>
				<port id="0" precision="FP32" names="blocks.2.mlp.2.bias">
					<dim>1280</dim>
				</port>
			</output>
		</layer>
		<layer id="368" name="node_linear_17" type="Add" version="opset1">
			<data auto_broadcast="numpy" />
			<input>
				<port id="0" precision="FP32">
					<dim>1</dim>
					<dim>1500</dim>
					<dim>1280</dim>
				</port>
				<port id="1" precision="FP32">
					<dim>1280</dim>
				</port>
			</input>
			<output>
				<port id="2" precision="FP32" names="linear_17">
					<dim>1</dim>
					<dim>1500</dim>
					<dim>1280</dim>
				</port>
			</output>
		</layer>
		<layer id="369" name="node_add_6" type="Add" version="opset1">
			<data auto_broadcast="numpy" />
			<input>
				<port id="0" precision="FP32">
					<dim>1</dim>
					<dim>1500</dim>
					<dim>1280</dim>
				</port>
				<port id="1" precision="FP32">
					<dim>1</dim>
					<dim>1500</dim>
					<dim>1280</dim>
				</port>
			</input>
			<output>
				<port id="2" precision="FP32" names="add_6">
					<dim>1</dim>
					<dim>1500</dim>
					<dim>1280</dim>
				</port>
			</output>
		</layer>
		<layer id="370" name="Constant_674" type="Const" version="opset1">
			<data element_type="i64" shape="" offset="13104680" size="8" />
			<output>
				<port id="0" precision="I64" />
			</output>
		</layer>
		<layer id="371" name="Constant_673" type="Const" version="opset1">
			<data element_type="i64" shape="" offset="13104688" size="8" />
			<output>
				<port id="0" precision="I64" />
			</output>
		</layer>
		<layer id="372" name="Constant_672" type="Const" version="opset1">
			<data element_type="i64" shape="" offset="500480" size="8" />
			<output>
				<port id="0" precision="I64" />
			</output>
		</layer>
		<layer id="373" name="Range_675" type="Range" version="opset4">
			<data output_type="i64" />
			<input>
				<port id="0" precision="I64" />
				<port id="1" precision="I64" />
				<port id="2" precision="I64" />
			</input>
			<output>
				<port id="3" precision="I64">
					<dim>1</dim>
				</port>
			</output>
		</layer>
		<layer id="374" name="MVN_676" type="MVN" version="opset6">
			<data eps="9.9999997473787516e-06" normalize_variance="true" eps_mode="INSIDE_SQRT" />
			<input>
				<port id="0" precision="FP32">
					<dim>1</dim>
					<dim>1500</dim>
					<dim>1280</dim>
				</port>
				<port id="1" precision="I64">
					<dim>1</dim>
				</port>
			</input>
			<output>
				<port id="2" precision="FP32">
					<dim>1</dim>
					<dim>1500</dim>
					<dim>1280</dim>
				</port>
			</output>
		</layer>
		<layer id="375" name="blocks.3.attn_ln.weight" type="Const" version="opset1">
			<data element_type="f32" shape="1280" offset="72375244" size="5120" />
			<output>
				<port id="0" precision="FP32" names="blocks.3.attn_ln.weight">
					<dim>1280</dim>
				</port>
			</output>
		</layer>
		<layer id="376" name="Multiply_677" type="Multiply" version="opset1">
			<data auto_broadcast="numpy" />
			<input>
				<port id="0" precision="FP32">
					<dim>1</dim>
					<dim>1500</dim>
					<dim>1280</dim>
				</port>
				<port id="1" precision="FP32">
					<dim>1280</dim>
				</port>
			</input>
			<output>
				<port id="2" precision="FP32">
					<dim>1</dim>
					<dim>1500</dim>
					<dim>1280</dim>
				</port>
			</output>
		</layer>
		<layer id="377" name="blocks.3.attn_ln.bias" type="Const" version="opset1">
			<data element_type="f32" shape="1280" offset="72380364" size="5120" />
			<output>
				<port id="0" precision="FP32" names="blocks.3.attn_ln.bias">
					<dim>1280</dim>
				</port>
			</output>
		</layer>
		<layer id="378" name="node_layer_norm_6" type="Add" version="opset1">
			<data auto_broadcast="numpy" />
			<input>
				<port id="0" precision="FP32">
					<dim>1</dim>
					<dim>1500</dim>
					<dim>1280</dim>
				</port>
				<port id="1" precision="FP32">
					<dim>1280</dim>
				</port>
			</input>
			<output>
				<port id="2" precision="FP32" names="layer_norm_6">
					<dim>1</dim>
					<dim>1500</dim>
					<dim>1280</dim>
				</port>
			</output>
		</layer>
		<layer id="379" name="val_202" type="Const" version="opset1">
			<data element_type="u8" shape="1280, 1280" offset="72385484" size="1638400" />
			<output>
				<port id="0" precision="U8">
					<dim>1280</dim>
					<dim>1280</dim>
				</port>
			</output>
		</layer>
		<layer id="380" name="Convert_5072" type="Convert" version="opset1">
			<data destination_type="f16" />
			<input>
				<port id="0" precision="U8">
					<dim>1280</dim>
					<dim>1280</dim>
				</port>
			</input>
			<output>
				<port id="1" precision="FP16">
					<dim>1280</dim>
					<dim>1280</dim>
				</port>
			</output>
		</layer>
		<layer id="381" name="val_202/zero_point" type="Const" version="opset1">
			<data element_type="u8" shape="1, 1280" offset="74023884" size="1280" />
			<output>
				<port id="0" precision="U8">
					<dim>1</dim>
					<dim>1280</dim>
				</port>
			</output>
		</layer>
		<layer id="382" name="Convert_5075" type="Convert" version="opset1">
			<data destination_type="f16" />
			<input>
				<port id="0" precision="U8">
					<dim>1</dim>
					<dim>1280</dim>
				</port>
			</input>
			<output>
				<port id="1" precision="FP16">
					<dim>1</dim>
					<dim>1280</dim>
				</port>
			</output>
		</layer>
		<layer id="383" name="val_202/zero_point/subtract" type="Subtract" version="opset1">
			<data auto_broadcast="numpy" />
			<input>
				<port id="0" precision="FP16">
					<dim>1280</dim>
					<dim>1280</dim>
				</port>
				<port id="1" precision="FP16">
					<dim>1</dim>
					<dim>1280</dim>
				</port>
			</input>
			<output>
				<port id="2" precision="FP16">
					<dim>1280</dim>
					<dim>1280</dim>
				</port>
			</output>
		</layer>
		<layer id="384" name="val_202/scale" type="Const" version="opset1">
			<data element_type="f16" shape="1, 1280" offset="74025164" size="2560" />
			<output>
				<port id="0" precision="FP16">
					<dim>1</dim>
					<dim>1280</dim>
				</port>
			</output>
		</layer>
		<layer id="385" name="val_202/fq_weights_1" type="Multiply" version="opset1">
			<data auto_broadcast="numpy" />
			<input>
				<port id="0" precision="FP16">
					<dim>1280</dim>
					<dim>1280</dim>
				</port>
				<port id="1" precision="FP16">
					<dim>1</dim>
					<dim>1280</dim>
				</port>
			</input>
			<output>
				<port id="2" precision="FP16">
					<dim>1280</dim>
					<dim>1280</dim>
				</port>
			</output>
		</layer>
		<layer id="386" name="val_202/fq_weights_1/convert" type="Convert" version="opset1">
			<data destination_type="f32" />
			<input>
				<port id="0" precision="FP16">
					<dim>1280</dim>
					<dim>1280</dim>
				</port>
			</input>
			<output>
				<port id="1" precision="FP32">
					<dim>1280</dim>
					<dim>1280</dim>
				</port>
			</output>
		</layer>
		<layer id="387" name="node_MatMul_189" type="MatMul" version="opset1">
			<data transpose_a="false" transpose_b="false" />
			<input>
				<port id="0" precision="FP32">
					<dim>1</dim>
					<dim>1500</dim>
					<dim>1280</dim>
				</port>
				<port id="1" precision="FP32">
					<dim>1280</dim>
					<dim>1280</dim>
				</port>
			</input>
			<output>
				<port id="2" precision="FP32" names="val_203">
					<dim>1</dim>
					<dim>1500</dim>
					<dim>1280</dim>
				</port>
			</output>
		</layer>
		<layer id="388" name="blocks.3.attn.query.bias" type="Const" version="opset1">
			<data element_type="f32" shape="1280" offset="74027724" size="5120" />
			<output>
				<port id="0" precision="FP32" names="blocks.3.attn.query.bias">
					<dim>1280</dim>
				</port>
			</output>
		</layer>
		<layer id="389" name="node_linear_18" type="Add" version="opset1">
			<data auto_broadcast="numpy" />
			<input>
				<port id="0" precision="FP32">
					<dim>1</dim>
					<dim>1500</dim>
					<dim>1280</dim>
				</port>
				<port id="1" precision="FP32">
					<dim>1280</dim>
				</port>
			</input>
			<output>
				<port id="2" precision="FP32" names="linear_18">
					<dim>1</dim>
					<dim>1500</dim>
					<dim>1280</dim>
				</port>
			</output>
		</layer>
		<layer id="390" name="node_view_12" type="Reshape" version="opset1">
			<data special_zero="true" />
			<input>
				<port id="0" precision="FP32">
					<dim>1</dim>
					<dim>1500</dim>
					<dim>1280</dim>
				</port>
				<port id="1" precision="I64">
					<dim>4</dim>
				</port>
			</input>
			<output>
				<port id="2" precision="FP32" names="view_12">
					<dim>1</dim>
					<dim>1500</dim>
					<dim>20</dim>
					<dim>64</dim>
				</port>
			</output>
		</layer>
		<layer id="391" name="Constant_685" type="Const" version="opset1">
			<data element_type="i64" shape="4" offset="14762328" size="32" />
			<output>
				<port id="0" precision="I64">
					<dim>4</dim>
				</port>
			</output>
		</layer>
		<layer id="392" name="node_permute_13" type="Transpose" version="opset1">
			<input>
				<port id="0" precision="FP32">
					<dim>1</dim>
					<dim>1500</dim>
					<dim>20</dim>
					<dim>64</dim>
				</port>
				<port id="1" precision="I64">
					<dim>4</dim>
				</port>
			</input>
			<output>
				<port id="2" precision="FP32" names="permute_13">
					<dim>1</dim>
					<dim>20</dim>
					<dim>1500</dim>
					<dim>64</dim>
				</port>
			</output>
		</layer>
		<layer id="393" name="node_Mul_233" type="Multiply" version="opset1">
			<data auto_broadcast="numpy" />
			<input>
				<port id="0" precision="FP32">
					<dim>1</dim>
					<dim>20</dim>
					<dim>1500</dim>
					<dim>64</dim>
				</port>
				<port id="1" precision="FP32">
					<dim>1</dim>
				</port>
			</input>
			<output>
				<port id="2" precision="FP32" names="val_247">
					<dim>1</dim>
					<dim>20</dim>
					<dim>1500</dim>
					<dim>64</dim>
				</port>
			</output>
		</layer>
		<layer id="394" name="val_204" type="Const" version="opset1">
			<data element_type="u8" shape="1280, 1280" offset="74032844" size="1638400" />
			<output>
				<port id="0" precision="U8">
					<dim>1280</dim>
					<dim>1280</dim>
				</port>
			</output>
		</layer>
		<layer id="395" name="Convert_5061" type="Convert" version="opset1">
			<data destination_type="f16" />
			<input>
				<port id="0" precision="U8">
					<dim>1280</dim>
					<dim>1280</dim>
				</port>
			</input>
			<output>
				<port id="1" precision="FP16">
					<dim>1280</dim>
					<dim>1280</dim>
				</port>
			</output>
		</layer>
		<layer id="396" name="val_204/zero_point" type="Const" version="opset1">
			<data element_type="u8" shape="1, 1280" offset="75671244" size="1280" />
			<output>
				<port id="0" precision="U8">
					<dim>1</dim>
					<dim>1280</dim>
				</port>
			</output>
		</layer>
		<layer id="397" name="Convert_5064" type="Convert" version="opset1">
			<data destination_type="f16" />
			<input>
				<port id="0" precision="U8">
					<dim>1</dim>
					<dim>1280</dim>
				</port>
			</input>
			<output>
				<port id="1" precision="FP16">
					<dim>1</dim>
					<dim>1280</dim>
				</port>
			</output>
		</layer>
		<layer id="398" name="val_204/zero_point/subtract" type="Subtract" version="opset1">
			<data auto_broadcast="numpy" />
			<input>
				<port id="0" precision="FP16">
					<dim>1280</dim>
					<dim>1280</dim>
				</port>
				<port id="1" precision="FP16">
					<dim>1</dim>
					<dim>1280</dim>
				</port>
			</input>
			<output>
				<port id="2" precision="FP16">
					<dim>1280</dim>
					<dim>1280</dim>
				</port>
			</output>
		</layer>
		<layer id="399" name="val_204/scale" type="Const" version="opset1">
			<data element_type="f16" shape="1, 1280" offset="75672524" size="2560" />
			<output>
				<port id="0" precision="FP16">
					<dim>1</dim>
					<dim>1280</dim>
				</port>
			</output>
		</layer>
		<layer id="400" name="val_204/fq_weights_1" type="Multiply" version="opset1">
			<data auto_broadcast="numpy" />
			<input>
				<port id="0" precision="FP16">
					<dim>1280</dim>
					<dim>1280</dim>
				</port>
				<port id="1" precision="FP16">
					<dim>1</dim>
					<dim>1280</dim>
				</port>
			</input>
			<output>
				<port id="2" precision="FP16">
					<dim>1280</dim>
					<dim>1280</dim>
				</port>
			</output>
		</layer>
		<layer id="401" name="val_204/fq_weights_1/convert" type="Convert" version="opset1">
			<data destination_type="f32" />
			<input>
				<port id="0" precision="FP16">
					<dim>1280</dim>
					<dim>1280</dim>
				</port>
			</input>
			<output>
				<port id="1" precision="FP32">
					<dim>1280</dim>
					<dim>1280</dim>
				</port>
			</output>
		</layer>
		<layer id="402" name="node_linear_19" type="MatMul" version="opset1">
			<data transpose_a="false" transpose_b="false" />
			<input>
				<port id="0" precision="FP32">
					<dim>1</dim>
					<dim>1500</dim>
					<dim>1280</dim>
				</port>
				<port id="1" precision="FP32">
					<dim>1280</dim>
					<dim>1280</dim>
				</port>
			</input>
			<output>
				<port id="2" precision="FP32" names="linear_19">
					<dim>1</dim>
					<dim>1500</dim>
					<dim>1280</dim>
				</port>
			</output>
		</layer>
		<layer id="403" name="node_view_13" type="Reshape" version="opset1">
			<data special_zero="true" />
			<input>
				<port id="0" precision="FP32">
					<dim>1</dim>
					<dim>1500</dim>
					<dim>1280</dim>
				</port>
				<port id="1" precision="I64">
					<dim>4</dim>
				</port>
			</input>
			<output>
				<port id="2" precision="FP32" names="view_13">
					<dim>1</dim>
					<dim>1500</dim>
					<dim>20</dim>
					<dim>64</dim>
				</port>
			</output>
		</layer>
		<layer id="404" name="Constant_688" type="Const" version="opset1">
			<data element_type="i64" shape="4" offset="14762328" size="32" />
			<output>
				<port id="0" precision="I64">
					<dim>4</dim>
				</port>
			</output>
		</layer>
		<layer id="405" name="node_permute_14" type="Transpose" version="opset1">
			<input>
				<port id="0" precision="FP32">
					<dim>1</dim>
					<dim>1500</dim>
					<dim>20</dim>
					<dim>64</dim>
				</port>
				<port id="1" precision="I64">
					<dim>4</dim>
				</port>
			</input>
			<output>
				<port id="2" precision="FP32" names="permute_14">
					<dim>1</dim>
					<dim>20</dim>
					<dim>1500</dim>
					<dim>64</dim>
				</port>
			</output>
		</layer>
		<layer id="406" name="node_Reshape_228" type="Reshape" version="opset1">
			<data special_zero="true" />
			<input>
				<port id="0" precision="FP32">
					<dim>1</dim>
					<dim>20</dim>
					<dim>1500</dim>
					<dim>64</dim>
				</port>
				<port id="1" precision="I64">
					<dim>3</dim>
				</port>
			</input>
			<output>
				<port id="2" precision="FP32" names="val_242">
					<dim>20</dim>
					<dim>1500</dim>
					<dim>64</dim>
				</port>
			</output>
		</layer>
		<layer id="407" name="Constant_694" type="Const" version="opset1">
			<data element_type="i64" shape="3" offset="5424656" size="24" />
			<output>
				<port id="0" precision="I64">
					<dim>3</dim>
				</port>
			</output>
		</layer>
		<layer id="408" name="node_Transpose_229" type="Transpose" version="opset1">
			<input>
				<port id="0" precision="FP32">
					<dim>20</dim>
					<dim>1500</dim>
					<dim>64</dim>
				</port>
				<port id="1" precision="I64">
					<dim>3</dim>
				</port>
			</input>
			<output>
				<port id="2" precision="FP32" names="val_243">
					<dim>20</dim>
					<dim>64</dim>
					<dim>1500</dim>
				</port>
			</output>
…
		<edge from-layer="2787" from-port="1" to-layer="2788" to-port="1" />
		<edge from-layer="2788" from-port="2" to-layer="2790" to-port="0" />
		<edge from-layer="2789" from-port="0" to-layer="2790" to-port="1" />
		<edge from-layer="2790" from-port="2" to-layer="2791" to-port="0" />
		<edge from-layer="2791" from-port="1" to-layer="2792" to-port="1" />
		<edge from-layer="2792" from-port="2" to-layer="2794" to-port="0" />
		<edge from-layer="2793" from-port="0" to-layer="2794" to-port="1" />
		<edge from-layer="2794" from-port="2" to-layer="2795" to-port="0" />
		<edge from-layer="2795" from-port="1" to-layer="2804" to-port="0" />
		<edge from-layer="2796" from-port="0" to-layer="2797" to-port="0" />
		<edge from-layer="2797" from-port="1" to-layer="2800" to-port="0" />
		<edge from-layer="2798" from-port="0" to-layer="2799" to-port="0" />
		<edge from-layer="2799" from-port="1" to-layer="2800" to-port="1" />
		<edge from-layer="2800" from-port="2" to-layer="2802" to-port="0" />
		<edge from-layer="2801" from-port="0" to-layer="2802" to-port="1" />
		<edge from-layer="2802" from-port="2" to-layer="2803" to-port="0" />
		<edge from-layer="2803" from-port="1" to-layer="2804" to-port="1" />
		<edge from-layer="2804" from-port="2" to-layer="2806" to-port="0" />
		<edge from-layer="2805" from-port="0" to-layer="2806" to-port="1" />
		<edge from-layer="2806" from-port="2" to-layer="2807" to-port="1" />
		<edge from-layer="2807" from-port="2" to-layer="2880" to-port="0" />
		<edge from-layer="2807" from-port="2" to-layer="2812" to-port="0" />
		<edge from-layer="2808" from-port="0" to-layer="2811" to-port="0" />
		<edge from-layer="2809" from-port="0" to-layer="2811" to-port="1" />
		<edge from-layer="2810" from-port="0" to-layer="2811" to-port="2" />
		<edge from-layer="2811" from-port="3" to-layer="2812" to-port="1" />
		<edge from-layer="2812" from-port="2" to-layer="2814" to-port="0" />
		<edge from-layer="2813" from-port="0" to-layer="2814" to-port="1" />
		<edge from-layer="2814" from-port="2" to-layer="2816" to-port="0" />
		<edge from-layer="2815" from-port="0" to-layer="2816" to-port="1" />
		<edge from-layer="2816" from-port="2" to-layer="2840" to-port="0" />
		<edge from-layer="2816" from-port="2" to-layer="2859" to-port="0" />
		<edge from-layer="2816" from-port="2" to-layer="2825" to-port="0" />
		<edge from-layer="2817" from-port="0" to-layer="2818" to-port="0" />
		<edge from-layer="2818" from-port="1" to-layer="2821" to-port="0" />
		<edge from-layer="2819" from-port="0" to-layer="2820" to-port="0" />
		<edge from-layer="2820" from-port="1" to-layer="2821" to-port="1" />
		<edge from-layer="2821" from-port="2" to-layer="2823" to-port="0" />
		<edge from-layer="2822" from-port="0" to-layer="2823" to-port="1" />
		<edge from-layer="2823" from-port="2" to-layer="2824" to-port="0" />
		<edge from-layer="2824" from-port="1" to-layer="2825" to-port="1" />
		<edge from-layer="2825" from-port="2" to-layer="2827" to-port="0" />
		<edge from-layer="2826" from-port="0" to-layer="2827" to-port="1" />
		<edge from-layer="2827" from-port="2" to-layer="2828" to-port="0" />
		<edge from-layer="2828" from-port="2" to-layer="2830" to-port="0" />
		<edge from-layer="2829" from-port="0" to-layer="2830" to-port="1" />
		<edge from-layer="2830" from-port="2" to-layer="2831" to-port="0" />
		<edge from-layer="2831" from-port="2" to-layer="2849" to-port="0" />
		<edge from-layer="2832" from-port="0" to-layer="2833" to-port="0" />
		<edge from-layer="2833" from-port="1" to-layer="2836" to-port="0" />
		<edge from-layer="2834" from-port="0" to-layer="2835" to-port="0" />
		<edge from-layer="2835" from-port="1" to-layer="2836" to-port="1" />
		<edge from-layer="2836" from-port="2" to-layer="2838" to-port="0" />
		<edge from-layer="2837" from-port="0" to-layer="2838" to-port="1" />
		<edge from-layer="2838" from-port="2" to-layer="2839" to-port="0" />
		<edge from-layer="2839" from-port="1" to-layer="2840" to-port="1" />
		<edge from-layer="2840" from-port="2" to-layer="2841" to-port="0" />
		<edge from-layer="2841" from-port="2" to-layer="2843" to-port="0" />
		<edge from-layer="2842" from-port="0" to-layer="2843" to-port="1" />
		<edge from-layer="2843" from-port="2" to-layer="2844" to-port="0" />
		<edge from-layer="2844" from-port="2" to-layer="2846" to-port="0" />
		<edge from-layer="2845" from-port="0" to-layer="2846" to-port="1" />
		<edge from-layer="2846" from-port="2" to-layer="2847" to-port="0" />
		<edge from-layer="2847" from-port="2" to-layer="2848" to-port="0" />
		<edge from-layer="2848" from-port="2" to-layer="2849" to-port="1" />
		<edge from-layer="2849" from-port="2" to-layer="2850" to-port="0" />
		<edge from-layer="2850" from-port="1" to-layer="2865" to-port="0" />
		<edge from-layer="2851" from-port="0" to-layer="2852" to-port="0" />
		<edge from-layer="2852" from-port="1" to-layer="2855" to-port="0" />
		<edge from-layer="2853" from-port="0" to-layer="2854" to-port="0" />
		<edge from-layer="2854" from-port="1" to-layer="2855" to-port="1" />
		<edge from-layer="2855" from-port="2" to-layer="2857" to-port="0" />
		<edge from-layer="2856" from-port="0" to-layer="2857" to-port="1" />
		<edge from-layer="2857" from-port="2" to-layer="2858" to-port="0" />
		<edge from-layer="2858" from-port="1" to-layer="2859" to-port="1" />
		<edge from-layer="2859" from-port="2" to-layer="2861" to-port="0" />
		<edge from-layer="2860" from-port="0" to-layer="2861" to-port="1" />
		<edge from-layer="2861" from-port="2" to-layer="2862" to-port="0" />
		<edge from-layer="2862" from-port="2" to-layer="2864" to-port="0" />
		<edge from-layer="2863" from-port="0" to-layer="2864" to-port="1" />
		<edge from-layer="2864" from-port="2" to-layer="2865" to-port="1" />
		<edge from-layer="2865" from-port="2" to-layer="2867" to-port="0" />
		<edge from-layer="2866" from-port="0" to-layer="2867" to-port="1" />
		<edge from-layer="2867" from-port="2" to-layer="2868" to-port="0" />
		<edge from-layer="2868" from-port="2" to-layer="2877" to-port="0" />
		<edge from-layer="2869" from-port="0" to-layer="2870" to-port="0" />
		<edge from-layer="2870" from-port="1" to-layer="2873" to-port="0" />
		<edge from-layer="2871" from-port="0" to-layer="2872" to-port="0" />
		<edge from-layer="2872" from-port="1" to-layer="2873" to-port="1" />
		<edge from-layer="2873" from-port="2" to-layer="2875" to-port="0" />
		<edge from-layer="2874" from-port="0" to-layer="2875" to-port="1" />
		<edge from-layer="2875" from-port="2" to-layer="2876" to-port="0" />
		<edge from-layer="2876" from-port="1" to-layer="2877" to-port="1" />
		<edge from-layer="2877" from-port="2" to-layer="2879" to-port="0" />
		<edge from-layer="2878" from-port="0" to-layer="2879" to-port="1" />
		<edge from-layer="2879" from-port="2" to-layer="2880" to-port="1" />
		<edge from-layer="2880" from-port="2" to-layer="2913" to-port="0" />
		<edge from-layer="2880" from-port="2" to-layer="2885" to-port="0" />
		<edge from-layer="2881" from-port="0" to-layer="2884" to-port="0" />
		<edge from-layer="2882" from-port="0" to-layer="2884" to-port="1" />
		<edge from-layer="2883" from-port="0" to-layer="2884" to-port="2" />
		<edge from-layer="2884" from-port="3" to-layer="2885" to-port="1" />
		<edge from-layer="2885" from-port="2" to-layer="2887" to-port="0" />
		<edge from-layer="2886" from-port="0" to-layer="2887" to-port="1" />
		<edge from-layer="2887" from-port="2" to-layer="2889" to-port="0" />
		<edge from-layer="2888" from-port="0" to-layer="2889" to-port="1" />
		<edge from-layer="2889" from-port="2" to-layer="2898" to-port="0" />
		<edge from-layer="2890" from-port="0" to-layer="2891" to-port="0" />
		<edge from-layer="2891" from-port="1" to-layer="2894" to-port="0" />
		<edge from-layer="2892" from-port="0" to-layer="2893" to-port="0" />
		<edge from-layer="2893" from-port="1" to-layer="2894" to-port="1" />
		<edge from-layer="2894" from-port="2" to-layer="2896" to-port="0" />
		<edge from-layer="2895" from-port="0" to-layer="2896" to-port="1" />
		<edge from-layer="2896" from-port="2" to-layer="2897" to-port="0" />
		<edge from-layer="2897" from-port="1" to-layer="2898" to-port="1" />
		<edge from-layer="2898" from-port="2" to-layer="2900" to-port="0" />
		<edge from-layer="2899" from-port="0" to-layer="2900" to-port="1" />
		<edge from-layer="2900" from-port="2" to-layer="2901" to-port="0" />
		<edge from-layer="2901" from-port="1" to-layer="2910" to-port="0" />
		<edge from-layer="2902" from-port="0" to-layer="2903" to-port="0" />
		<edge from-layer="2903" from-port="1" to-layer="2906" to-port="0" />
		<edge from-layer="2904" from-port="0" to-layer="2905" to-port="0" />
		<edge from-layer="2905" from-port="1" to-layer="2906" to-port="1" />
		<edge from-layer="2906" from-port="2" to-layer="2908" to-port="0" />
		<edge from-layer="2907" from-port="0" to-layer="2908" to-port="1" />
		<edge from-layer="2908" from-port="2" to-layer="2909" to-port="0" />
		<edge from-layer="2909" from-port="1" to-layer="2910" to-port="1" />
		<edge from-layer="2910" from-port="2" to-layer="2912" to-port="0" />
		<edge from-layer="2911" from-port="0" to-layer="2912" to-port="1" />
		<edge from-layer="2912" from-port="2" to-layer="2913" to-port="1" />
		<edge from-layer="2913" from-port="2" to-layer="2918" to-port="0" />
		<edge from-layer="2913" from-port="2" to-layer="2986" to-port="0" />
		<edge from-layer="2914" from-port="0" to-layer="2917" to-port="0" />
		<edge from-layer="2915" from-port="0" to-layer="2917" to-port="1" />
		<edge from-layer="2916" from-port="0" to-layer="2917" to-port="2" />
		<edge from-layer="2917" from-port="3" to-layer="2918" to-port="1" />
		<edge from-layer="2918" from-port="2" to-layer="2920" to-port="0" />
		<edge from-layer="2919" from-port="0" to-layer="2920" to-port="1" />
		<edge from-layer="2920" from-port="2" to-layer="2922" to-port="0" />
		<edge from-layer="2921" from-port="0" to-layer="2922" to-port="1" />
		<edge from-layer="2922" from-port="2" to-layer="2946" to-port="0" />
		<edge from-layer="2922" from-port="2" to-layer="2965" to-port="0" />
		<edge from-layer="2922" from-port="2" to-layer="2931" to-port="0" />
		<edge from-layer="2923" from-port="0" to-layer="2924" to-port="0" />
		<edge from-layer="2924" from-port="1" to-layer="2927" to-port="0" />
		<edge from-layer="2925" from-port="0" to-layer="2926" to-port="0" />
		<edge from-layer="2926" from-port="1" to-layer="2927" to-port="1" />
		<edge from-layer="2927" from-port="2" to-layer="2929" to-port="0" />
		<edge from-layer="2928" from-port="0" to-layer="2929" to-port="1" />
		<edge from-layer="2929" from-port="2" to-layer="2930" to-port="0" />
		<edge from-layer="2930" from-port="1" to-layer="2931" to-port="1" />
		<edge from-layer="2931" from-port="2" to-layer="2933" to-port="0" />
		<edge from-layer="2932" from-port="0" to-layer="2933" to-port="1" />
		<edge from-layer="2933" from-port="2" to-layer="2934" to-port="0" />
		<edge from-layer="2934" from-port="2" to-layer="2936" to-port="0" />
		<edge from-layer="2935" from-port="0" to-layer="2936" to-port="1" />
		<edge from-layer="2936" from-port="2" to-layer="2937" to-port="0" />
		<edge from-layer="2937" from-port="2" to-layer="2955" to-port="0" />
		<edge from-layer="2938" from-port="0" to-layer="2939" to-port="0" />
		<edge from-layer="2939" from-port="1" to-layer="2942" to-port="0" />
		<edge from-layer="2940" from-port="0" to-layer="2941" to-port="0" />
		<edge from-layer="2941" from-port="1" to-layer="2942" to-port="1" />
		<edge from-layer="2942" from-port="2" to-layer="2944" to-port="0" />
		<edge from-layer="2943" from-port="0" to-layer="2944" to-port="1" />
		<edge from-layer="2944" from-port="2" to-layer="2945" to-port="0" />
		<edge from-layer="2945" from-port="1" to-layer="2946" to-port="1" />
		<edge from-layer="2946" from-port="2" to-layer="2947" to-port="0" />
		<edge from-layer="2947" from-port="2" to-layer="2949" to-port="0" />
		<edge from-layer="2948" from-port="0" to-layer="2949" to-port="1" />
		<edge from-layer="2949" from-port="2" to-layer="2950" to-port="0" />
		<edge from-layer="2950" from-port="2" to-layer="2952" to-port="0" />
		<edge from-layer="2951" from-port="0" to-layer="2952" to-port="1" />
		<edge from-layer="2952" from-port="2" to-layer="2953" to-port="0" />
		<edge from-layer="2953" from-port="2" to-layer="2954" to-port="0" />
		<edge from-layer="2954" from-port="2" to-layer="2955" to-port="1" />
		<edge from-layer="2955" from-port="2" to-layer="2956" to-port="0" />
		<edge from-layer="2956" from-port="1" to-layer="2971" to-port="0" />
		<edge from-layer="2957" from-port="0" to-layer="2958" to-port="0" />
		<edge from-layer="2958" from-port="1" to-layer="2961" to-port="0" />
		<edge from-layer="2959" from-port="0" to-layer="2960" to-port="0" />
		<edge from-layer="2960" from-port="1" to-layer="2961" to-port="1" />
		<edge from-layer="2961" from-port="2" to-layer="2963" to-port="0" />
		<edge from-layer="2962" from-port="0" to-layer="2963" to-port="1" />
		<edge from-layer="2963" from-port="2" to-layer="2964" to-port="0" />
		<edge from-layer="2964" from-port="1" to-layer="2965" to-port="1" />
		<edge from-layer="2965" from-port="2" to-layer="2967" to-port="0" />
		<edge from-layer="2966" from-port="0" to-layer="2967" to-port="1" />
		<edge from-layer="2967" from-port="2" to-layer="2968" to-port="0" />
		<edge from-layer="2968" from-port="2" to-layer="2970" to-port="0" />
		<edge from-layer="2969" from-port="0" to-layer="2970" to-port="1" />
		<edge from-layer="2970" from-port="2" to-layer="2971" to-port="1" />
		<edge from-layer="2971" from-port="2" to-layer="2973" to-port="0" />
		<edge from-layer="2972" from-port="0" to-layer="2973" to-port="1" />
		<edge from-layer="2973" from-port="2" to-layer="2974" to-port="0" />
		<edge from-layer="2974" from-port="2" to-layer="2983" to-port="0" />
		<edge from-layer="2975" from-port="0" to-layer="2976" to-port="0" />
		<edge from-layer="2976" from-port="1" to-layer="2979" to-port="0" />
		<edge from-layer="2977" from-port="0" to-layer="2978" to-port="0" />
		<edge from-layer="2978" from-port="1" to-layer="2979" to-port="1" />
		<edge from-layer="2979" from-port="2" to-layer="2981" to-port="0" />
		<edge from-layer="2980" from-port="0" to-layer="2981" to-port="1" />
		<edge from-layer="2981" from-port="2" to-layer="2982" to-port="0" />
		<edge from-layer="2982" from-port="1" to-layer="2983" to-port="1" />
		<edge from-layer="2983" from-port="2" to-layer="2985" to-port="0" />
		<edge from-layer="2984" from-port="0" to-layer="2985" to-port="1" />
		<edge from-layer="2985" from-port="2" to-layer="2986" to-port="1" />
		<edge from-layer="2986" from-port="2" to-layer="2991" to-port="0" />
		<edge from-layer="2986" from-port="2" to-layer="3019" to-port="0" />
		<edge from-layer="2987" from-port="0" to-layer="2990" to-port="0" />
		<edge from-layer="2988" from-port="0" to-layer="2990" to-port="1" />
		<edge from-layer="2989" from-port="0" to-layer="2990" to-port="2" />
		<edge from-layer="2990" from-port="3" to-layer="2991" to-port="1" />
		<edge from-layer="2991" from-port="2" to-layer="2993" to-port="0" />
		<edge from-layer="2992" from-port="0" to-layer="2993" to-port="1" />
		<edge from-layer="2993" from-port="2" to-layer="2995" to-port="0" />
		<edge from-layer="2994" from-port="0" to-layer="2995" to-port="1" />
		<edge from-layer="2995" from-port="2" to-layer="3004" to-port="0" />
		<edge from-layer="2996" from-port="0" to-layer="2997" to-port="0" />
		<edge from-layer="2997" from-port="1" to-layer="3000" to-port="0" />
		<edge from-layer="2998" from-port="0" to-layer="2999" to-port="0" />
		<edge from-layer="2999" from-port="1" to-layer="3000" to-port="1" />
		<edge from-layer="3000" from-port="2" to-layer="3002" to-port="0" />
		<edge from-layer="3001" from-port="0" to-layer="3002" to-port="1" />
		<edge from-layer="3002" from-port="2" to-layer="3003" to-port="0" />
		<edge from-layer="3003" from-port="1" to-layer="3004" to-port="1" />
		<edge from-layer="3004" from-port="2" to-layer="3006" to-port="0" />
		<edge from-layer="3005" from-port="0" to-layer="3006" to-port="1" />
		<edge from-layer="3006" from-port="2" to-layer="3007" to-port="0" />
		<edge from-layer="3007" from-port="1" to-layer="3016" to-port="0" />
		<edge from-layer="3008" from-port="0" to-layer="3009" to-port="0" />
		<edge from-layer="3009" from-port="1" to-layer="3012" to-port="0" />
		<edge from-layer="3010" from-port="0" to-layer="3011" to-port="0" />
		<edge from-layer="3011" from-port="1" to-layer="3012" to-port="1" />
		<edge from-layer="3012" from-port="2" to-layer="3014" to-port="0" />
		<edge from-layer="3013" from-port="0" to-layer="3014" to-port="1" />
		<edge from-layer="3014" from-port="2" to-layer="3015" to-port="0" />
		<edge from-layer="3015" from-port="1" to-layer="3016" to-port="1" />
		<edge from-layer="3016" from-port="2" to-layer="3018" to-port="0" />
		<edge from-layer="3017" from-port="0" to-layer="3018" to-port="1" />
		<edge from-layer="3018" from-port="2" to-layer="3019" to-port="1" />
		<edge from-layer="3019" from-port="2" to-layer="3092" to-port="0" />
		<edge from-layer="3019" from-port="2" to-layer="3024" to-port="0" />
		<edge from-layer="3020" from-port="0" to-layer="3023" to-port="0" />
		<edge from-layer="3021" from-port="0" to-layer="3023" to-port="1" />
		<edge from-layer="3022" from-port="0" to-layer="3023" to-port="2" />
		<edge from-layer="3023" from-port="3" to-layer="3024" to-port="1" />
		<edge from-layer="3024" from-port="2" to-layer="3026" to-port="0" />
		<edge from-layer="3025" from-port="0" to-layer="3026" to-port="1" />
		<edge from-layer="3026" from-port="2" to-layer="3028" to-port="0" />
		<edge from-layer="3027" from-port="0" to-layer="3028" to-port="1" />
		<edge from-layer="3028" from-port="2" to-layer="3052" to-port="0" />
		<edge from-layer="3028" from-port="2" to-layer="3037" to-port="0" />
		<edge from-layer="3028" from-port="2" to-layer="3071" to-port="0" />
		<edge from-layer="3029" from-port="0" to-layer="3030" to-port="0" />
		<edge from-layer="3030" from-port="1" to-layer="3033" to-port="0" />
		<edge from-layer="3031" from-port="0" to-layer="3032" to-port="0" />
		<edge from-layer="3032" from-port="1" to-layer="3033" to-port="1" />
		<edge from-layer="3033" from-port="2" to-layer="3035" to-port="0" />
		<edge from-layer="3034" from-port="0" to-layer="3035" to-port="1" />
		<edge from-layer="3035" from-port="2" to-layer="3036" to-port="0" />
		<edge from-layer="3036" from-port="1" to-layer="3037" to-port="1" />
		<edge from-layer="3037" from-port="2" to-layer="3039" to-port="0" />
		<edge from-layer="3038" from-port="0" to-layer="3039" to-port="1" />
		<edge from-layer="3039" from-port="2" to-layer="3040" to-port="0" />
		<edge from-layer="3040" from-port="2" to-layer="3042" to-port="0" />
		<edge from-layer="3041" from-port="0" to-layer="3042" to-port="1" />
		<edge from-layer="3042" from-port="2" to-layer="3043" to-port="0" />
		<edge from-layer="3043" from-port="2" to-layer="3061" to-port="0" />
		<edge from-layer="3044" from-port="0" to-layer="3045" to-port="0" />
		<edge from-layer="3045" from-port="1" to-layer="3048" to-port="0" />
		<edge from-layer="3046" from-port="0" to-layer="3047" to-port="0" />
		<edge from-layer="3047" from-port="1" to-layer="3048" to-port="1" />
		<edge from-layer="3048" from-port="2" to-layer="3050" to-port="0" />
		<edge from-layer="3049" from-port="0" to-layer="3050" to-port="1" />
		<edge from-layer="3050" from-port="2" to-layer="3051" to-port="0" />
		<edge from-layer="3051" from-port="1" to-layer="3052" to-port="1" />
		<edge from-layer="3052" from-port="2" to-layer="3053" to-port="0" />
		<edge from-layer="3053" from-port="2" to-layer="3055" to-port="0" />
		<edge from-layer="3054" from-port="0" to-layer="3055" to-port="1" />
		<edge from-layer="3055" from-port="2" to-layer="3056" to-port="0" />
		<edge from-layer="3056" from-port="2" to-layer="3058" to-port="0" />
		<edge from-layer="3057" from-port="0" to-layer="3058" to-port="1" />
		<edge from-layer="3058" from-port="2" to-layer="3059" to-port="0" />
		<edge from-layer="3059" from-port="2" to-layer="3060" to-port="0" />
		<edge from-layer="3060" from-port="2" to-layer="3061" to-port="1" />
		<edge from-layer="3061" from-port="2" to-layer="3062" to-port="0" />
		<edge from-layer="3062" from-port="1" to-layer="3077" to-port="0" />
		<edge from-layer="3063" from-port="0" to-layer="3064" to-port="0" />
		<edge from-layer="3064" from-port="1" to-layer="3067" to-port="0" />
		<edge from-layer="3065" from-port="0" to-layer="3066" to-port="0" />
		<edge from-layer="3066" from-port="1" to-layer="3067" to-port="1" />
		<edge from-layer="3067" from-port="2" to-layer="3069" to-port="0" />
		<edge from-layer="3068" from-port="0" to-layer="3069" to-port="1" />
		<edge from-layer="3069" from-port="2" to-layer="3070" to-port="0" />
		<edge from-layer="3070" from-port="1" to-layer="3071" to-port="1" />
		<edge from-layer="3071" from-port="2" to-layer="3073" to-port="0" />
		<edge from-layer="3072" from-port="0" to-layer="3073" to-port="1" />
		<edge from-layer="3073" from-port="2" to-layer="3074" to-port="0" />
		<edge from-layer="3074" from-port="2" to-layer="3076" to-port="0" />
		<edge from-layer="3075" from-port="0" to-layer="3076" to-port="1" />
		<edge from-layer="3076" from-port="2" to-layer="3077" to-port="1" />
		<edge from-layer="3077" from-port="2" to-layer="3079" to-port="0" />
		<edge from-layer="3078" from-port="0" to-layer="3079" to-port="1" />
		<edge from-layer="3079" from-port="2" to-layer="3080" to-port="0" />
		<edge from-layer="3080" from-port="2" to-layer="3089" to-port="0" />
		<edge from-layer="3081" from-port="0" to-layer="3082" to-port="0" />
		<edge from-layer="3082" from-port="1" to-layer="3085" to-port="0" />
		<edge from-layer="3083" from-port="0" to-layer="3084" to-port="0" />
		<edge from-layer="3084" from-port="1" to-layer="3085" to-port="1" />
		<edge from-layer="3085" from-port="2" to-layer="3087" to-port="0" />
		<edge from-layer="3086" from-port="0" to-layer="3087" to-port="1" />
		<edge from-layer="3087" from-port="2" to-layer="3088" to-port="0" />
		<edge from-layer="3088" from-port="1" to-layer="3089" to-port="1" />
		<edge from-layer="3089" from-port="2" to-layer="3091" to-port="0" />
		<edge from-layer="3090" from-port="0" to-layer="3091" to-port="1" />
		<edge from-layer="3091" from-port="2" to-layer="3092" to-port="1" />
		<edge from-layer="3092" from-port="2" to-layer="3125" to-port="0" />
		<edge from-layer="3092" from-port="2" to-layer="3097" to-port="0" />
		<edge from-layer="3093" from-port="0" to-layer="3096" to-port="0" />
		<edge from-layer="3094" from-port="0" to-layer="3096" to-port="1" />
		<edge from-layer="3095" from-port="0" to-layer="3096" to-port="2" />
		<edge from-layer="3096" from-port="3" to-layer="3097" to-port="1" />
		<edge from-layer="3097" from-port="2" to-layer="3099" to-port="0" />
		<edge from-layer="3098" from-port="0" to-layer="3099" to-port="1" />
		<edge from-layer="3099" from-port="2" to-layer="3101" to-port="0" />
		<edge from-layer="3100" from-port="0" to-layer="3101" to-port="1" />
		<edge from-layer="3101" from-port="2" to-layer="3110" to-port="0" />
		<edge from-layer="3102" from-port="0" to-layer="3103" to-port="0" />
		<edge from-layer="3103" from-port="1" to-layer="3106" to-port="0" />
		<edge from-layer="3104" from-port="0" to-layer="3105" to-port="0" />
		<edge from-layer="3105" from-port="1" to-layer="3106" to-port="1" />
		<edge from-layer="3106" from-port="2" to-layer="3108" to-port="0" />
		<edge from-layer="3107" from-port="0" to-layer="3108" to-port="1" />
		<edge from-layer="3108" from-port="2" to-layer="3109" to-port="0" />
		<edge from-layer="3109" from-port="1" to-layer="3110" to-port="1" />
		<edge from-layer="3110" from-port="2" to-layer="3112" to-port="0" />
		<edge from-layer="3111" from-port="0" to-layer="3112" to-port="1" />
		<edge from-layer="3112" from-port="2" to-layer="3113" to-port="0" />
		<edge from-layer="3113" from-port="1" to-layer="3122" to-port="0" />
		<edge from-layer="3114" from-port="0" to-layer="3115" to-port="0" />
		<edge from-layer="3115" from-port="1" to-layer="3118" to-port="0" />
		<edge from-layer="3116" from-port="0" to-layer="3117" to-port="0" />
		<edge from-layer="3117" from-port="1" to-layer="3118" to-port="1" />
		<edge from-layer="3118" from-port="2" to-layer="3120" to-port="0" />
		<edge from-layer="3119" from-port="0" to-layer="3120" to-port="1" />
		<edge from-layer="3120" from-port="2" to-layer="3121" to-port="0" />
		<edge from-layer="3121" from-port="1" to-layer="3122" to-port="1" />
		<edge from-layer="3122" from-port="2" to-layer="3124" to-port="0" />
		<edge from-layer="3123" from-port="0" to-layer="3124" to-port="1" />
		<edge from-layer="3124" from-port="2" to-layer="3125" to-port="1" />
		<edge from-layer="3125" from-port="2" to-layer="3198" to-port="0" />
		<edge from-layer="3125" from-port="2" to-layer="3130" to-port="0" />
		<edge from-layer="3126" from-port="0" to-layer="3129" to-port="0" />
		<edge from-layer="3127" from-port="0" to-layer="3129" to-port="1" />
		<edge from-layer="3128" from-port="0" to-layer="3129" to-port="2" />
		<edge from-layer="3129" from-port="3" to-layer="3130" to-port="1" />
		<edge from-layer="3130" from-port="2" to-layer="3132" to-port="0" />
		<edge from-layer="3131" from-port="0" to-layer="3132" to-port="1" />
		<edge from-layer="3132" from-port="2" to-layer="3134" to-port="0" />
		<edge from-layer="3133" from-port="0" to-layer="3134" to-port="1" />
		<edge from-layer="3134" from-port="2" to-layer="3158" to-port="0" />
		<edge from-layer="3134" from-port="2" to-layer="3177" to-port="0" />
		<edge from-layer="3134" from-port="2" to-layer="3143" to-port="0" />
		<edge from-layer="3135" from-port="0" to-layer="3136" to-port="0" />
		<edge from-layer="3136" from-port="1" to-layer="3139" to-port="0" />
		<edge from-layer="3137" from-port="0" to-layer="3138" to-port="0" />
		<edge from-layer="3138" from-port="1" to-layer="3139" to-port="1" />
		<edge from-layer="3139" from-port="2" to-layer="3141" to-port="0" />
		<edge from-layer="3140" from-port="0" to-layer="3141" to-port="1" />
		<edge from-layer="3141" from-port="2" to-layer="3142" to-port="0" />
		<edge from-layer="3142" from-port="1" to-layer="3143" to-port="1" />
		<edge from-layer="3143" from-port="2" to-layer="3145" to-port="0" />
		<edge from-layer="3144" from-port="0" to-layer="3145" to-port="1" />
		<edge from-layer="3145" from-port="2" to-layer="3146" to-port="0" />
		<edge from-layer="3146" from-port="2" to-layer="3148" to-port="0" />
		<edge from-layer="3147" from-port="0" to-layer="3148" to-port="1" />
		<edge from-layer="3148" from-port="2" to-layer="3149" to-port="0" />
		<edge from-layer="3149" from-port="2" to-layer="3167" to-port="0" />
		<edge from-layer="3150" from-port="0" to-layer="3151" to-port="0" />
		<edge from-layer="3151" from-port="1" to-layer="3154" to-port="0" />
		<edge from-layer="3152" from-port="0" to-layer="3153" to-port="0" />
		<edge from-layer="3153" from-port="1" to-layer="3154" to-port="1" />
		<edge from-layer="3154" from-port="2" to-layer="3156" to-port="0" />
		<edge from-layer="3155" from-port="0" to-layer="3156" to-port="1" />
		<edge from-layer="3156" from-port="2" to-layer="3157" to-port="0" />
		<edge from-layer="3157" from-port="1" to-layer="3158" to-port="1" />
		<edge from-layer="3158" from-port="2" to-layer="3159" to-port="0" />
		<edge from-layer="3159" from-port="2" to-layer="3161" to-port="0" />
		<edge from-layer="3160" from-port="0" to-layer="3161" to-port="1" />
		<edge from-layer="3161" from-port="2" to-layer="3162" to-port="0" />
		<edge from-layer="3162" from-port="2" to-layer="3164" to-port="0" />
		<edge from-layer="3163" from-port="0" to-layer="3164" to-port="1" />
		<edge from-layer="3164" from-port="2" to-layer="3165" to-port="0" />
		<edge from-layer="3165" from-port="2" to-layer="3166" to-port="0" />
		<edge from-layer="3166" from-port="2" to-layer="3167" to-port="1" />
		<edge from-layer="3167" from-port="2" to-layer="3168" to-port="0" />
		<edge from-layer="3168" from-port="1" to-layer="3183" to-port="0" />
		<edge from-layer="3169" from-port="0" to-layer="3170" to-port="0" />
		<edge from-layer="3170" from-port="1" to-layer="3173" to-port="0" />
		<edge from-layer="3171" from-port="0" to-layer="3172" to-port="0" />
		<edge from-layer="3172" from-port="1" to-layer="3173" to-port="1" />
		<edge from-layer="3173" from-port="2" to-layer="3175" to-port="0" />
		<edge from-layer="3174" from-port="0" to-layer="3175" to-port="1" />
		<edge from-layer="3175" from-port="2" to-layer="3176" to-port="0" />
		<edge from-layer="3176" from-port="1" to-layer="3177" to-port="1" />
		<edge from-layer="3177" from-port="2" to-layer="3179" to-port="0" />
		<edge from-layer="3178" from-port="0" to-layer="3179" to-port="1" />
		<edge from-layer="3179" from-port="2" to-layer="3180" to-port="0" />
		<edge from-layer="3180" from-port="2" to-layer="3182" to-port="0" />
		<edge from-layer="3181" from-port="0" to-layer="3182" to-port="1" />
		<edge from-layer="3182" from-port="2" to-layer="3183" to-port="1" />
		<edge from-layer="3183" from-port="2" to-layer="3185" to-port="0" />
		<edge from-layer="3184" from-port="0" to-layer="3185" to-port="1" />
		<edge from-layer="3185" from-port="2" to-layer="3186" to-port="0" />
		<edge from-layer="3186" from-port="2" to-layer="3195" to-port="0" />
		<edge from-layer="3187" from-port="0" to-layer="3188" to-port="0" />
		<edge from-layer="3188" from-port="1" to-layer="3191" to-port="0" />
		<edge from-layer="3189" from-port="0" to-layer="3190" to-port="0" />
		<edge from-layer="3190" from-port="1" to-layer="3191" to-port="1" />
		<edge from-layer="3191" from-port="2" to-layer="3193" to-port="0" />
		<edge from-layer="3192" from-port="0" to-layer="3193" to-port="1" />
		<edge from-layer="3193" from-port="2" to-layer="3194" to-port="0" />
		<edge from-layer="3194" from-port="1" to-layer="3195" to-port="1" />
		<edge from-layer="3195" from-port="2" to-layer="3197" to-port="0" />
		<edge from-layer="3196" from-port="0" to-layer="3197" to-port="1" />
		<edge from-layer="3197" from-port="2" to-layer="3198" to-port="1" />
		<edge from-layer="3198" from-port="2" to-layer="3203" to-port="0" />
		<edge from-layer="3198" from-port="2" to-layer="3231" to-port="0" />
		<edge from-layer="3199" from-port="0" to-layer="3202" to-port="0" />
		<edge from-layer="3200" from-port="0" to-layer="3202" to-port="1" />
		<edge from-layer="3201" from-port="0" to-layer="3202" to-port="2" />
		<edge from-layer="3202" from-port="3" to-layer="3203" to-port="1" />
		<edge from-layer="3203" from-port="2" to-layer="3205" to-port="0" />
		<edge from-layer="3204" from-port="0" to-layer="3205" to-port="1" />
		<edge from-layer="3205" from-port="2" to-layer="3207" to-port="0" />
		<edge from-layer="3206" from-port="0" to-layer="3207" to-port="1" />
		<edge from-layer="3207" from-port="2" to-layer="3216" to-port="0" />
		<edge from-layer="3208" from-port="0" to-layer="3209" to-port="0" />
		<edge from-layer="3209" from-port="1" to-layer="3212" to-port="0" />
		<edge from-layer="3210" from-port="0" to-layer="3211" to-port="0" />
		<edge from-layer="3211" from-port="1" to-layer="3212" to-port="1" />
		<edge from-layer="3212" from-port="2" to-layer="3214" to-port="0" />
		<edge from-layer="3213" from-port="0" to-layer="3214" to-port="1" />
		<edge from-layer="3214" from-port="2" to-layer="3215" to-port="0" />
		<edge from-layer="3215" from-port="1" to-layer="3216" to-port="1" />
		<edge from-layer="3216" from-port="2" to-layer="3218" to-port="0" />
		<edge from-layer="3217" from-port="0" to-layer="3218" to-port="1" />
		<edge from-layer="3218" from-port="2" to-layer="3219" to-port="0" />
		<edge from-layer="3219" from-port="1" to-layer="3228" to-port="0" />
		<edge from-layer="3220" from-port="0" to-layer="3221" to-port="0" />
		<edge from-layer="3221" from-port="1" to-layer="3224" to-port="0" />
		<edge from-layer="3222" from-port="0" to-layer="3223" to-port="0" />
		<edge from-layer="3223" from-port="1" to-layer="3224" to-port="1" />
		<edge from-layer="3224" from-port="2" to-layer="3226" to-port="0" />
		<edge from-layer="3225" from-port="0" to-layer="3226" to-port="1" />
		<edge from-layer="3226" from-port="2" to-layer="3227" to-port="0" />
		<edge from-layer="3227" from-port="1" to-layer="3228" to-port="1" />
		<edge from-layer="3228" from-port="2" to-layer="3230" to-port="0" />
		<edge from-layer="3229" from-port="0" to-layer="3230" to-port="1" />
		<edge from-layer="3230" from-port="2" to-layer="3231" to-port="1" />
		<edge from-layer="3231" from-port="2" to-layer="3236" to-port="0" />
		<edge from-layer="3231" from-port="2" to-layer="3304" to-port="0" />
		<edge from-layer="3232" from-port="0" to-layer="3235" to-port="0" />
		<edge from-layer="3233" from-port="0" to-layer="3235" to-port="1" />
		<edge from-layer="3234" from-port="0" to-layer="3235" to-port="2" />
		<edge from-layer="3235" from-port="3" to-layer="3236" to-port="1" />
		<edge from-layer="3236" from-port="2" to-layer="3238" to-port="0" />
		<edge from-layer="3237" from-port="0" to-layer="3238" to-port="1" />
		<edge from-layer="3238" from-port="2" to-layer="3240" to-port="0" />
		<edge from-layer="3239" from-port="0" to-layer="3240" to-port="1" />
		<edge from-layer="3240" from-port="2" to-layer="3249" to-port="0" />
		<edge from-layer="3240" from-port="2" to-layer="3283" to-port="0" />
		<edge from-layer="3240" from-port="2" to-layer="3264" to-port="0" />
		<edge from-layer="3241" from-port="0" to-layer="3242" to-port="0" />
		<edge from-layer="3242" from-port="1" to-layer="3245" to-port="0" />
		<edge from-layer="3243" from-port="0" to-layer="3244" to-port="0" />
		<edge from-layer="3244" from-port="1" to-layer="3245" to-port="1" />
		<edge from-layer="3245" from-port="2" to-layer="3247" to-port="0" />
		<edge from-layer="3246" from-port="0" to-layer="3247" to-port="1" />
		<edge from-layer="3247" from-port="2" to-layer="3248" to-port="0" />
		<edge from-layer="3248" from-port="1" to-layer="3249" to-port="1" />
		<edge from-layer="3249" from-port="2" to-layer="3251" to-port="0" />
		<edge from-layer="3250" from-port="0" to-layer="3251" to-port="1" />
		<edge from-layer="3251" from-port="2" to-layer="3252" to-port="0" />
		<edge from-layer="3252" from-port="2" to-layer="3254" to-port="0" />
		<edge from-layer="3253" from-port="0" to-layer="3254" to-port="1" />
		<edge from-layer="3254" from-port="2" to-layer="3255" to-port="0" />
		<edge from-layer="3255" from-port="2" to-layer="3273" to-port="0" />
		<edge from-layer="3256" from-port="0" to-layer="3257" to-port="0" />
		<edge from-layer="3257" from-port="1" to-layer="3260" to-port="0" />
		<edge from-layer="3258" from-port="0" to-layer="3259" to-port="0" />
		<edge from-layer="3259" from-port="1" to-layer="3260" to-port="1" />
		<edge from-layer="3260" from-port="2" to-layer="3262" to-port="0" />
		<edge from-layer="3261" from-port="0" to-layer="3262" to-port="1" />
		<edge from-layer="3262" from-port="2" to-layer="3263" to-port="0" />
		<edge from-layer="3263" from-port="1" to-layer="3264" to-port="1" />
		<edge from-layer="3264" from-port="2" to-layer="3265" to-port="0" />
		<edge from-layer="3265" from-port="2" to-layer="3267" to-port="0" />
		<edge from-layer="3266" from-port="0" to-layer="3267" to-port="1" />
		<edge from-layer="3267" from-port="2" to-layer="3268" to-port="0" />
		<edge from-layer="3268" from-port="2" to-layer="3270" to-port="0" />
		<edge from-layer="3269" from-port="0" to-layer="3270" to-port="1" />
		<edge from-layer="3270" from-port="2" to-layer="3271" to-port="0" />
		<edge from-layer="3271" from-port="2" to-layer="3272" to-port="0" />
		<edge from-layer="3272" from-port="2" to-layer="3273" to-port="1" />
		<edge from-layer="3273" from-port="2" to-layer="3274" to-port="0" />
		<edge from-layer="3274" from-port="1" to-layer="3289" to-port="0" />
		<edge from-layer="3275" from-port="0" to-layer="3276" to-port="0" />
		<edge from-layer="3276" from-port="1" to-layer="3279" to-port="0" />
		<edge from-layer="3277" from-port="0" to-layer="3278" to-port="0" />
		<edge from-layer="3278" from-port="1" to-layer="3279" to-port="1" />
		<edge from-layer="3279" from-port="2" to-layer="3281" to-port="0" />
		<edge from-layer="3280" from-port="0" to-layer="3281" to-port="1" />
		<edge from-layer="3281" from-port="2" to-layer="3282" to-port="0" />
		<edge from-layer="3282" from-port="1" to-layer="3283" to-port="1" />
		<edge from-layer="3283" from-port="2" to-layer="3285" to-port="0" />
		<edge from-layer="3284" from-port="0" to-layer="3285" to-port="1" />
		<edge from-layer="3285" from-port="2" to-layer="3286" to-port="0" />
		<edge from-layer="3286" from-port="2" to-layer="3288" to-port="0" />
		<edge from-layer="3287" from-port="0" to-layer="3288" to-port="1" />
		<edge from-layer="3288" from-port="2" to-layer="3289" to-port="1" />
		<edge from-layer="3289" from-port="2" to-layer="3291" to-port="0" />
		<edge from-layer="3290" from-port="0" to-layer="3291" to-port="1" />
		<edge from-layer="3291" from-port="2" to-layer="3292" to-port="0" />
		<edge from-layer="3292" from-port="2" to-layer="3301" to-port="0" />
		<edge from-layer="3293" from-port="0" to-layer="3294" to-port="0" />
		<edge from-layer="3294" from-port="1" to-layer="3297" to-port="0" />
		<edge from-layer="3295" from-port="0" to-layer="3296" to-port="0" />
		<edge from-layer="3296" from-port="1" to-layer="3297" to-port="1" />
		<edge from-layer="3297" from-port="2" to-layer="3299" to-port="0" />
		<edge from-layer="3298" from-port="0" to-layer="3299" to-port="1" />
		<edge from-layer="3299" from-port="2" to-layer="3300" to-port="0" />
		<edge from-layer="3300" from-port="1" to-layer="3301" to-port="1" />
		<edge from-layer="3301" from-port="2" to-layer="3303" to-port="0" />
		<edge from-layer="3302" from-port="0" to-layer="3303" to-port="1" />
		<edge from-layer="3303" from-port="2" to-layer="3304" to-port="1" />
		<edge from-layer="3304" from-port="2" to-layer="3309" to-port="0" />
		<edge from-layer="3304" from-port="2" to-layer="3337" to-port="0" />
		<edge from-layer="3305" from-port="0" to-layer="3308" to-port="0" />
		<edge from-layer="3306" from-port="0" to-layer="3308" to-port="1" />
		<edge from-layer="3307" from-port="0" to-layer="3308" to-port="2" />
		<edge from-layer="3308" from-port="3" to-layer="3309" to-port="1" />
		<edge from-layer="3309" from-port="2" to-layer="3311" to-port="0" />
		<edge from-layer="3310" from-port="0" to-layer="3311" to-port="1" />
		<edge from-layer="3311" from-port="2" to-layer="3313" to-port="0" />
		<edge from-layer="3312" from-port="0" to-layer="3313" to-port="1" />
		<edge from-layer="3313" from-port="2" to-layer="3322" to-port="0" />
		<edge from-layer="3314" from-port="0" to-layer="3315" to-port="0" />
		<edge from-layer="3315" from-port="1" to-layer="3318" to-port="0" />
		<edge from-layer="3316" from-port="0" to-layer="3317" to-port="0" />
		<edge from-layer="3317" from-port="1" to-layer="3318" to-port="1" />
		<edge from-layer="3318" from-port="2" to-layer="3320" to-port="0" />
		<edge from-layer="3319" from-port="0" to-layer="3320" to-port="1" />
		<edge from-layer="3320" from-port="2" to-layer="3321" to-port="0" />
		<edge from-layer="3321" from-port="1" to-layer="3322" to-port="1" />
		<edge from-layer="3322" from-port="2" to-layer="3324" to-port="0" />
		<edge from-layer="3323" from-port="0" to-layer="3324" to-port="1" />
		<edge from-layer="3324" from-port="2" to-layer="3325" to-port="0" />
		<edge from-layer="3325" from-port="1" to-layer="3334" to-port="0" />
		<edge from-layer="3326" from-port="0" to-layer="3327" to-port="0" />
		<edge from-layer="3327" from-port="1" to-layer="3330" to-port="0" />
		<edge from-layer="3328" from-port="0" to-layer="3329" to-port="0" />
		<edge from-layer="3329" from-port="1" to-layer="3330" to-port="1" />
		<edge from-layer="3330" from-port="2" to-layer="3332" to-port="0" />
		<edge from-layer="3331" from-port="0" to-layer="3332" to-port="1" />
		<edge from-layer="3332" from-port="2" to-layer="3333" to-port="0" />
		<edge from-layer="3333" from-port="1" to-layer="3334" to-port="1" />
		<edge from-layer="3334" from-port="2" to-layer="3336" to-port="0" />
		<edge from-layer="3335" from-port="0" to-layer="3336" to-port="1" />
		<edge from-layer="3336" from-port="2" to-layer="3337" to-port="1" />
		<edge from-layer="3337" from-port="2" to-layer="3342" to-port="0" />
		<edge from-layer="3337" from-port="2" to-layer="3410" to-port="0" />
		<edge from-layer="3338" from-port="0" to-layer="3341" to-port="0" />
		<edge from-layer="3339" from-port="0" to-layer="3341" to-port="1" />
		<edge from-layer="3340" from-port="0" to-layer="3341" to-port="2" />
		<edge from-layer="3341" from-port="3" to-layer="3342" to-port="1" />
		<edge from-layer="3342" from-port="2" to-layer="3344" to-port="0" />
		<edge from-layer="3343" from-port="0" to-layer="3344" to-port="1" />
		<edge from-layer="3344" from-port="2" to-layer="3346" to-port="0" />
		<edge from-layer="3345" from-port="0" to-layer="3346" to-port="1" />
		<edge from-layer="3346" from-port="2" to-layer="3370" to-port="0" />
		<edge from-layer="3346" from-port="2" to-layer="3355" to-port="0" />
		<edge from-layer="3346" from-port="2" to-layer="3389" to-port="0" />
		<edge from-layer="3347" from-port="0" to-layer="3348" to-port="0" />
		<edge from-layer="3348" from-port="1" to-layer="3351" to-port="0" />
		<edge from-layer="3349" from-port="0" to-layer="3350" to-port="0" />
		<edge from-layer="3350" from-port="1" to-layer="3351" to-port="1" />
		<edge from-layer="3351" from-port="2" to-layer="3353" to-port="0" />
		<edge from-layer="3352" from-port="0" to-layer="3353" to-port="1" />
		<edge from-layer="3353" from-port="2" to-layer="3354" to-port="0" />
		<edge from-layer="3354" from-port="1" to-layer="3355" to-port="1" />
		<edge from-layer="3355" from-port="2" to-layer="3357" to-port="0" />
		<edge from-layer="3356" from-port="0" to-layer="3357" to-port="1" />
		<edge from-layer="3357" from-port="2" to-layer="3358" to-port="0" />
		<edge from-layer="3358" from-port="2" to-layer="3360" to-port="0" />
		<edge from-layer="3359" from-port="0" to-layer="3360" to-port="1" />
		<edge from-layer="3360" from-port="2" to-layer="3361" to-port="0" />
		<edge from-layer="3361" from-port="2" to-layer="3379" to-port="0" />
		<edge from-layer="3362" from-port="0" to-layer="3363" to-port="0" />
		<edge from-layer="3363" from-port="1" to-layer="3366" to-port="0" />
		<edge from-layer="3364" from-port="0" to-layer="3365" to-port="0" />
		<edge from-layer="3365" from-port="1" to-layer="3366" to-port="1" />
		<edge from-layer="3366" from-port="2" to-layer="3368" to-port="0" />
		<edge from-layer="3367" from-port="0" to-layer="3368" to-port="1" />
		<edge from-layer="3368" from-port="2" to-layer="3369" to-port="0" />
		<edge from-layer="3369" from-port="1" to-layer="3370" to-port="1" />
		<edge from-layer="3370" from-port="2" to-layer="3371" to-port="0" />
		<edge from-layer="3371" from-port="2" to-layer="3373" to-port="0" />
		<edge from-layer="3372" from-port="0" to-layer="3373" to-port="1" />
		<edge from-layer="3373" from-port="2" to-layer="3374" to-port="0" />
		<edge from-layer="3374" from-port="2" to-layer="3376" to-port="0" />
		<edge from-layer="3375" from-port="0" to-layer="3376" to-port="1" />
		<edge from-layer="3376" from-port="2" to-layer="3377" to-port="0" />
		<edge from-layer="3377" from-port="2" to-layer="3378" to-port="0" />
		<edge from-layer="3378" from-port="2" to-layer="3379" to-port="1" />
		<edge from-layer="3379" from-port="2" to-layer="3380" to-port="0" />
		<edge from-layer="3380" from-port="1" to-layer="3395" to-port="0" />
		<edge from-layer="3381" from-port="0" to-layer="3382" to-port="0" />
		<edge from-layer="3382" from-port="1" to-layer="3385" to-port="0" />
		<edge from-layer="3383" from-port="0" to-layer="3384" to-port="0" />
		<edge from-layer="3384" from-port="1" to-layer="3385" to-port="1" />
		<edge from-layer="3385" from-port="2" to-layer="3387" to-port="0" />
		<edge from-layer="3386" from-port="0" to-layer="3387" to-port="1" />
		<edge from-layer="3387" from-port="2" to-layer="3388" to-port="0" />
		<edge from-layer="3388" from-port="1" to-layer="3389" to-port="1" />
		<edge from-layer="3389" from-port="2" to-layer="3391" to-port="0" />
		<edge from-layer="3390" from-port="0" to-layer="3391" to-port="1" />
		<edge from-layer="3391" from-port="2" to-layer="3392" to-port="0" />
		<edge from-layer="3392" from-port="2" to-layer="3394" to-port="0" />
		<edge from-layer="3393" from-port="0" to-layer="3394" to-port="1" />
		<edge from-layer="3394" from-port="2" to-layer="3395" to-port="1" />
		<edge from-layer="3395" from-port="2" to-layer="3397" to-port="0" />
		<edge from-layer="3396" from-port="0" to-layer="3397" to-port="1" />
		<edge from-layer="3397" from-port="2" to-layer="3398" to-port="0" />
		<edge from-layer="3398" from-port="2" to-layer="3407" to-port="0" />
		<edge from-layer="3399" from-port="0" to-layer="3400" to-port="0" />
		<edge from-layer="3400" from-port="1" to-layer="3403" to-port="0" />
		<edge from-layer="3401" from-port="0" to-layer="3402" to-port="0" />
		<edge from-layer="3402" from-port="1" to-layer="3403" to-port="1" />
		<edge from-layer="3403" from-port="2" to-layer="3405" to-port="0" />
		<edge from-layer="3404" from-port="0" to-layer="3405" to-port="1" />
		<edge from-layer="3405" from-port="2" to-layer="3406" to-port="0" />
		<edge from-layer="3406" from-port="1" to-layer="3407" to-port="1" />
		<edge from-layer="3407" from-port="2" to-layer="3409" to-port="0" />
		<edge from-layer="3408" from-port="0" to-layer="3409" to-port="1" />
		<edge from-layer="3409" from-port="2" to-layer="3410" to-port="1" />
		<edge from-layer="3410" from-port="2" to-layer="3415" to-port="0" />
		<edge from-layer="3410" from-port="2" to-layer="3443" to-port="0" />
		<edge from-layer="3411" from-port="0" to-layer="3414" to-port="0" />
		<edge from-layer="3412" from-port="0" to-layer="3414" to-port="1" />
		<edge from-layer="3413" from-port="0" to-layer="3414" to-port="2" />
		<edge from-layer="3414" from-port="3" to-layer="3415" to-port="1" />
		<edge from-layer="3415" from-port="2" to-layer="3417" to-port="0" />
		<edge from-layer="3416" from-port="0" to-layer="3417" to-port="1" />
		<edge from-layer="3417" from-port="2" to-layer="3419" to-port="0" />
		<edge from-layer="3418" from-port="0" to-layer="3419" to-port="1" />
		<edge from-layer="3419" from-port="2" to-layer="3428" to-port="0" />
		<edge from-layer="3420" from-port="0" to-layer="3421" to-port="0" />
		<edge from-layer="3421" from-port="1" to-layer="3424" to-port="0" />
		<edge from-layer="3422" from-port="0" to-layer="3423" to-port="0" />
		<edge from-layer="3423" from-port="1" to-layer="3424" to-port="1" />
		<edge from-layer="3424" from-port="2" to-layer="3426" to-port="0" />
		<edge from-layer="3425" from-port="0" to-layer="3426" to-port="1" />
		<edge from-layer="3426" from-port="2" to-layer="3427" to-port="0" />
		<edge from-layer="3427" from-port="1" to-layer="3428" to-port="1" />
		<edge from-layer="3428" from-port="2" to-layer="3430" to-port="0" />
		<edge from-layer="3429" from-port="0" to-layer="3430" to-port="1" />
		<edge from-layer="3430" from-port="2" to-layer="3431" to-port="0" />
		<edge from-layer="3431" from-port="1" to-layer="3440" to-port="0" />
		<edge from-layer="3432" from-port="0" to-layer="3433" to-port="0" />
		<edge from-layer="3433" from-port="1" to-layer="3436" to-port="0" />
		<edge from-layer="3434" from-port="0" to-layer="3435" to-port="0" />
		<edge from-layer="3435" from-port="1" to-layer="3436" to-port="1" />
		<edge from-layer="3436" from-port="2" to-layer="3438" to-port="0" />
		<edge from-layer="3437" from-port="0" to-layer="3438" to-port="1" />
		<edge from-layer="3438" from-port="2" to-layer="3439" to-port="0" />
		<edge from-layer="3439" from-port="1" to-layer="3440" to-port="1" />
		<edge from-layer="3440" from-port="2" to-layer="3442" to-port="0" />
		<edge from-layer="3441" from-port="0" to-layer="3442" to-port="1" />
		<edge from-layer="3442" from-port="2" to-layer="3443" to-port="1" />
		<edge from-layer="3443" from-port="2" to-layer="3448" to-port="0" />
		<edge from-layer="3444" from-port="0" to-layer="3447" to-port="0" />
		<edge from-layer="3445" from-port="0" to-layer="3447" to-port="1" />
		<edge from-layer="3446" from-port="0" to-layer="3447" to-port="2" />
		<edge from-layer="3447" from-port="3" to-layer="3448" to-port="1" />
		<edge from-layer="3448" from-port="2" to-layer="3450" to-port="0" />
		<edge from-layer="3449" from-port="0" to-layer="3450" to-port="1" />
		<edge from-layer="3450" from-port="2" to-layer="3452" to-port="0" />
		<edge from-layer="3451" from-port="0" to-layer="3452" to-port="1" />
		<edge from-layer="3452" from-port="2" to-layer="3453" to-port="0" />
	</edges>
	<rt_info>
		<nncf>
			<friendly_names_were_updated value="True" />
			<weight_compression>
				<advanced_parameters value="{'statistics_path': None, 'awq_params': {'subset_size': 32, 'percent_to_apply': 0.002, 'alpha_min': 0.0, 'alpha_max': 1.0, 'steps': 100}, 'scale_estimation_params': {'subset_size': 64, 'initial_steps': 5, 'scale_steps': 5, 'weight_penalty': -1.0}, 'gptq_params': {'damp_percent': 0.1, 'block_size': 128, 'subset_size': 128}, 'lora_correction_params': {'adapter_rank': 8, 'num_iterations': 3, 'apply_regularization': True, 'subset_size': 128, 'use_int8_adapters': True}}" />
				<all_layers value="False" />
				<awq value="False" />
				<backup_mode value="int8_asym" />
				<gptq value="False" />
				<group_size value="-1" />
				<ignored_scope value="[]" />
				<lora_correction value="False" />
				<mode value="int8_asym" />
				<ratio value="1" />
				<scale_estimation value="False" />
				<sensitivity_metric value="weight_quantization_error" />
			</weight_compression>
		</nncf>
	</rt_info>
</net>
