<?xml version="1.0"?>
<net name="main_graph" version="11">
	<layers>
		<layer id="0" name="mel" type="Parameter" version="opset1">
			<data shape="1,128,3000" element_type="f32" />
			<output>
				<port id="0" precision="FP32" names="mel">
					<dim>1</dim>
					<dim>128</dim>
					<dim>3000</dim>
				</port>
			</output>
		</layer>
		<layer id="1" name="conv1.weight_compressed" type="Const" version="opset1">
			<data element_type="f16" shape="1280, 128, 3" offset="0" size="983040" />
			<output>
				<port id="0" precision="FP16" names="conv1.weight">
					<dim>1280</dim>
					<dim>128</dim>
					<dim>3</dim>
				</port>
			</output>
		</layer>
		<layer id="2" name="conv1.weight" type="Convert" version="opset1">
			<data destination_type="f32" />
			<rt_info>
				<attribute name="decompression" version="0" />
			</rt_info>
			<input>
				<port id="0" precision="FP16">
					<dim>1280</dim>
					<dim>128</dim>
					<dim>3</dim>
				</port>
			</input>
			<output>
				<port id="1" precision="FP32">
					<dim>1280</dim>
					<dim>128</dim>
					<dim>3</dim>
				</port>
			</output>
		</layer>
		<layer id="3" name="node_conv1d/WithoutBiases" type="Convolution" version="opset1">
			<data strides="1" dilations="1" pads_begin="1" pads_end="1" auto_pad="explicit" />
			<input>
				<port id="0" precision="FP32">
					<dim>1</dim>
					<dim>128</dim>
					<dim>3000</dim>
				</port>
				<port id="1" precision="FP32">
					<dim>1280</dim>
					<dim>128</dim>
					<dim>3</dim>
				</port>
			</input>
			<output>
				<port id="2" precision="FP32">
					<dim>1</dim>
					<dim>1280</dim>
					<dim>3000</dim>
				</port>
			</output>
		</layer>
		<layer id="4" name="conv1.bias_compressed" type="Const" version="opset1">
			<data element_type="f16" shape="1280" offset="983040" size="2560" />
			<output>
				<port id="0" precision="FP16" names="conv1.bias">
					<dim>1280</dim>
				</port>
			</output>
		</layer>
		<layer id="5" name="conv1.bias" type="Convert" version="opset1">
			<data destination_type="f32" />
			<rt_info>
				<attribute name="decompression" version="0" />
			</rt_info>
			<input>
				<port id="0" precision="FP16">
					<dim>1280</dim>
				</port>
			</input>
			<output>
				<port id="1" precision="FP32">
					<dim>1280</dim>
				</port>
			</output>
		</layer>
		<layer id="6" name="Constant_497" type="Const" version="opset1">
			<data element_type="i64" shape="1" offset="985600" size="8" />
			<rt_info>
				<attribute name="precise" version="0" />
			</rt_info>
			<output>
				<port id="0" precision="I64">
					<dim>1</dim>
				</port>
			</output>
		</layer>
		<layer id="7" name="ShapeOf_503" type="ShapeOf" version="opset3">
			<data output_type="i64" />
			<input>
				<port id="0" precision="FP32">
					<dim>1280</dim>
				</port>
			</input>
			<output>
				<port id="1" precision="I64">
					<dim>1</dim>
				</port>
			</output>
		</layer>
		<layer id="8" name="ShapeOf_495" type="ShapeOf" version="opset3">
			<data output_type="i64" />
			<input>
				<port id="0" precision="FP32">
					<dim>1</dim>
					<dim>1280</dim>
					<dim>3000</dim>
				</port>
			</input>
			<output>
				<port id="1" precision="I64">
					<dim>3</dim>
				</port>
			</output>
		</layer>
		<layer id="9" name="ShapeOf_496" type="ShapeOf" version="opset3">
			<data output_type="i64" />
			<input>
				<port id="0" precision="I64">
					<dim>3</dim>
				</port>
			</input>
			<output>
				<port id="1" precision="I64">
					<dim>1</dim>
				</port>
			</output>
		</layer>
		<layer id="10" name="Constant_498" type="Const" version="opset1">
			<data element_type="i64" shape="1" offset="985608" size="8" />
			<rt_info>
				<attribute name="precise" version="0" />
			</rt_info>
			<output>
				<port id="0" precision="I64">
					<dim>1</dim>
				</port>
			</output>
		</layer>
		<layer id="11" name="Subtract_499" type="Subtract" version="opset1">
			<data auto_broadcast="numpy" />
			<input>
				<port id="0" precision="I64">
					<dim>1</dim>
				</port>
				<port id="1" precision="I64">
					<dim>1</dim>
				</port>
			</input>
			<output>
				<port id="2" precision="I64">
					<dim>1</dim>
				</port>
			</output>
		</layer>
		<layer id="12" name="Broadcast_500" type="Broadcast" version="opset3">
			<data mode="numpy" />
			<input>
				<port id="0" precision="I64">
					<dim>1</dim>
				</port>
				<port id="1" precision="I64">
					<dim>1</dim>
				</port>
			</input>
			<output>
				<port id="2" precision="I64">
					<dim>1</dim>
				</port>
			</output>
		</layer>
		<layer id="13" name="Concat_504" type="Concat" version="opset1">
			<data axis="0" />
			<input>
				<port id="0" precision="I64">
					<dim>1</dim>
				</port>
				<port id="1" precision="I64">
					<dim>1</dim>
				</port>
				<port id="2" precision="I64">
					<dim>1</dim>
				</port>
			</input>
			<output>
				<port id="3" precision="I64">
					<dim>3</dim>
				</port>
			</output>
		</layer>
		<layer id="14" name="Reshape_505" type="Reshape" version="opset1">
			<data special_zero="false" />
			<input>
				<port id="0" precision="FP32">
					<dim>1280</dim>
				</port>
				<port id="1" precision="I64">
					<dim>3</dim>
				</port>
			</input>
			<output>
				<port id="2" precision="FP32">
					<dim>1</dim>
					<dim>1280</dim>
					<dim>1</dim>
				</port>
			</output>
		</layer>
		<layer id="15" name="node_conv1d" type="Add" version="opset1">
			<data auto_broadcast="numpy" />
			<input>
				<port id="0" precision="FP32">
					<dim>1</dim>
					<dim>1280</dim>
					<dim>3000</dim>
				</port>
				<port id="1" precision="FP32">
					<dim>1</dim>
					<dim>1280</dim>
					<dim>1</dim>
				</port>
			</input>
			<output>
				<port id="2" precision="FP32" names="conv1d">
					<dim>1</dim>
					<dim>1280</dim>
					<dim>3000</dim>
				</port>
			</output>
		</layer>
		<layer id="16" name="node_gelu" type="Gelu" version="opset7">
			<data approximation_mode="ERF" />
			<input>
				<port id="0" precision="FP32">
					<dim>1</dim>
					<dim>1280</dim>
					<dim>3000</dim>
				</port>
			</input>
			<output>
				<port id="1" precision="FP32" names="gelu">
					<dim>1</dim>
					<dim>1280</dim>
					<dim>3000</dim>
				</port>
			</output>
		</layer>
		<layer id="17" name="conv2.weight_compressed" type="Const" version="opset1">
			<data element_type="f16" shape="1280, 1280, 3" offset="985616" size="9830400" />
			<output>
				<port id="0" precision="FP16" names="conv2.weight">
					<dim>1280</dim>
					<dim>1280</dim>
					<dim>3</dim>
				</port>
			</output>
		</layer>
		<layer id="18" name="conv2.weight" type="Convert" version="opset1">
			<data destination_type="f32" />
			<rt_info>
				<attribute name="decompression" version="0" />
			</rt_info>
			<input>
				<port id="0" precision="FP16">
					<dim>1280</dim>
					<dim>1280</dim>
					<dim>3</dim>
				</port>
			</input>
			<output>
				<port id="1" precision="FP32">
					<dim>1280</dim>
					<dim>1280</dim>
					<dim>3</dim>
				</port>
			</output>
		</layer>
		<layer id="19" name="node_conv1d_1/WithoutBiases" type="Convolution" version="opset1">
			<data strides="2" dilations="1" pads_begin="1" pads_end="1" auto_pad="explicit" />
			<input>
				<port id="0" precision="FP32">
					<dim>1</dim>
					<dim>1280</dim>
					<dim>3000</dim>
				</port>
				<port id="1" precision="FP32">
					<dim>1280</dim>
					<dim>1280</dim>
					<dim>3</dim>
				</port>
			</input>
			<output>
				<port id="2" precision="FP32">
					<dim>1</dim>
					<dim>1280</dim>
					<dim>1500</dim>
				</port>
			</output>
		</layer>
		<layer id="20" name="conv2.bias_compressed" type="Const" version="opset1">
			<data element_type="f16" shape="1280" offset="10816016" size="2560" />
			<output>
				<port id="0" precision="FP16" names="conv2.bias">
					<dim>1280</dim>
				</port>
			</output>
		</layer>
		<layer id="21" name="conv2.bias" type="Convert" version="opset1">
			<data destination_type="f32" />
			<rt_info>
				<attribute name="decompression" version="0" />
			</rt_info>
			<input>
				<port id="0" precision="FP16">
					<dim>1280</dim>
				</port>
			</input>
			<output>
				<port id="1" precision="FP32">
					<dim>1280</dim>
				</port>
			</output>
		</layer>
		<layer id="22" name="Constant_511" type="Const" version="opset1">
			<data element_type="i64" shape="1" offset="985600" size="8" />
			<rt_info>
				<attribute name="precise" version="0" />
			</rt_info>
			<output>
				<port id="0" precision="I64">
					<dim>1</dim>
				</port>
			</output>
		</layer>
		<layer id="23" name="ShapeOf_517" type="ShapeOf" version="opset3">
			<data output_type="i64" />
			<input>
				<port id="0" precision="FP32">
					<dim>1280</dim>
				</port>
			</input>
			<output>
				<port id="1" precision="I64">
					<dim>1</dim>
				</port>
			</output>
		</layer>
		<layer id="24" name="ShapeOf_509" type="ShapeOf" version="opset3">
			<data output_type="i64" />
			<input>
				<port id="0" precision="FP32">
					<dim>1</dim>
					<dim>1280</dim>
					<dim>1500</dim>
				</port>
			</input>
			<output>
				<port id="1" precision="I64">
					<dim>3</dim>
				</port>
			</output>
		</layer>
		<layer id="25" name="ShapeOf_510" type="ShapeOf" version="opset3">
			<data output_type="i64" />
			<input>
				<port id="0" precision="I64">
					<dim>3</dim>
				</port>
			</input>
			<output>
				<port id="1" precision="I64">
					<dim>1</dim>
				</port>
			</output>
		</layer>
		<layer id="26" name="Constant_512" type="Const" version="opset1">
			<data element_type="i64" shape="1" offset="985608" size="8" />
			<rt_info>
				<attribute name="precise" version="0" />
			</rt_info>
			<output>
				<port id="0" precision="I64">
					<dim>1</dim>
				</port>
			</output>
		</layer>
		<layer id="27" name="Subtract_513" type="Subtract" version="opset1">
			<data auto_broadcast="numpy" />
			<input>
				<port id="0" precision="I64">
					<dim>1</dim>
				</port>
				<port id="1" precision="I64">
					<dim>1</dim>
				</port>
			</input>
			<output>
				<port id="2" precision="I64">
					<dim>1</dim>
				</port>
			</output>
		</layer>
		<layer id="28" name="Broadcast_514" type="Broadcast" version="opset3">
			<data mode="numpy" />
			<input>
				<port id="0" precision="I64">
					<dim>1</dim>
				</port>
				<port id="1" precision="I64">
					<dim>1</dim>
				</port>
			</input>
			<output>
				<port id="2" precision="I64">
					<dim>1</dim>
				</port>
			</output>
		</layer>
		<layer id="29" name="Concat_518" type="Concat" version="opset1">
			<data axis="0" />
			<input>
				<port id="0" precision="I64">
					<dim>1</dim>
				</port>
				<port id="1" precision="I64">
					<dim>1</dim>
				</port>
				<port id="2" precision="I64">
					<dim>1</dim>
				</port>
			</input>
			<output>
				<port id="3" precision="I64">
					<dim>3</dim>
				</port>
			</output>
		</layer>
		<layer id="30" name="Reshape_519" type="Reshape" version="opset1">
			<data special_zero="false" />
			<input>
				<port id="0" precision="FP32">
					<dim>1280</dim>
				</port>
				<port id="1" precision="I64">
					<dim>3</dim>
				</port>
			</input>
			<output>
				<port id="2" precision="FP32">
					<dim>1</dim>
					<dim>1280</dim>
					<dim>1</dim>
				</port>
			</output>
		</layer>
		<layer id="31" name="node_conv1d_1" type="Add" version="opset1">
			<data auto_broadcast="numpy" />
			<input>
				<port id="0" precision="FP32">
					<dim>1</dim>
					<dim>1280</dim>
					<dim>1500</dim>
				</port>
				<port id="1" precision="FP32">
					<dim>1</dim>
					<dim>1280</dim>
					<dim>1</dim>
				</port>
			</input>
			<output>
				<port id="2" precision="FP32" names="conv1d_1">
					<dim>1</dim>
					<dim>1280</dim>
					<dim>1500</dim>
				</port>
			</output>
		</layer>
		<layer id="32" name="node_gelu_1" type="Gelu" version="opset7">
			<data approximation_mode="ERF" />
			<input>
				<port id="0" precision="FP32">
					<dim>1</dim>
					<dim>1280</dim>
					<dim>1500</dim>
				</port>
			</input>
			<output>
				<port id="1" precision="FP32" names="gelu_1">
					<dim>1</dim>
					<dim>1280</dim>
					<dim>1500</dim>
				</port>
			</output>
		</layer>
		<layer id="33" name="Constant_522" type="Const" version="opset1">
			<data element_type="i64" shape="3" offset="10818576" size="24" />
			<output>
				<port id="0" precision="I64">
					<dim>3</dim>
				</port>
			</output>
		</layer>
		<layer id="34" name="node_permute" type="Transpose" version="opset1">
			<input>
				<port id="0" precision="FP32">
					<dim>1</dim>
					<dim>1280</dim>
					<dim>1500</dim>
				</port>
				<port id="1" precision="I64">
					<dim>3</dim>
				</port>
			</input>
			<output>
				<port id="2" precision="FP32" names="permute">
					<dim>1</dim>
					<dim>1500</dim>
					<dim>1280</dim>
				</port>
			</output>
		</layer>
		<layer id="35" name="positional_embedding_compressed" type="Const" version="opset1">
			<data element_type="f16" shape="1500, 1280" offset="10818600" size="3840000" />
			<output>
				<port id="0" precision="FP16" names="positional_embedding">
					<dim>1500</dim>
					<dim>1280</dim>
				</port>
			</output>
		</layer>
		<layer id="36" name="positional_embedding" type="Convert" version="opset1">
			<data destination_type="f32" />
			<rt_info>
				<attribute name="decompression" version="0" />
			</rt_info>
			<input>
				<port id="0" precision="FP16">
					<dim>1500</dim>
					<dim>1280</dim>
				</port>
			</input>
			<output>
				<port id="1" precision="FP32">
					<dim>1500</dim>
					<dim>1280</dim>
				</port>
			</output>
		</layer>
		<layer id="37" name="node_add" type="Add" version="opset1">
			<data auto_broadcast="numpy" />
			<input>
				<port id="0" precision="FP32">
					<dim>1</dim>
					<dim>1500</dim>
					<dim>1280</dim>
				</port>
				<port id="1" precision="FP32">
					<dim>1500</dim>
					<dim>1280</dim>
				</port>
			</input>
			<output>
				<port id="2" precision="FP32" names="add">
					<dim>1</dim>
					<dim>1500</dim>
					<dim>1280</dim>
				</port>
			</output>
		</layer>
		<layer id="38" name="Constant_527" type="Const" version="opset1">
			<data element_type="i64" shape="" offset="14658600" size="8" />
			<output>
				<port id="0" precision="I64" />
			</output>
		</layer>
		<layer id="39" name="Constant_526" type="Const" version="opset1">
			<data element_type="i64" shape="" offset="14658608" size="8" />
			<output>
				<port id="0" precision="I64" />
			</output>
		</layer>
		<layer id="40" name="Constant_525" type="Const" version="opset1">
			<data element_type="i64" shape="" offset="985600" size="8" />
			<output>
				<port id="0" precision="I64" />
			</output>
		</layer>
		<layer id="41" name="Range_528" type="Range" version="opset4">
			<data output_type="i64" />
			<input>
				<port id="0" precision="I64" />
				<port id="1" precision="I64" />
				<port id="2" precision="I64" />
			</input>
			<output>
				<port id="3" precision="I64">
					<dim>1</dim>
				</port>
			</output>
		</layer>
		<layer id="42" name="MVN_529" type="MVN" version="opset6">
			<data eps="9.9999997473787516e-06" normalize_variance="true" eps_mode="INSIDE_SQRT" />
			<input>
				<port id="0" precision="FP32">
					<dim>1</dim>
					<dim>1500</dim>
					<dim>1280</dim>
				</port>
				<port id="1" precision="I64">
					<dim>1</dim>
				</port>
			</input>
			<output>
				<port id="2" precision="FP32">
					<dim>1</dim>
					<dim>1500</dim>
					<dim>1280</dim>
				</port>
			</output>
		</layer>
		<layer id="43" name="blocks.0.attn_ln.weight_compressed" type="Const" version="opset1">
			<data element_type="f16" shape="1280" offset="14658616" size="2560" />
			<output>
				<port id="0" precision="FP16" names="blocks.0.attn_ln.weight">
					<dim>1280</dim>
				</port>
			</output>
		</layer>
		<layer id="44" name="blocks.0.attn_ln.weight" type="Convert" version="opset1">
			<data destination_type="f32" />
			<rt_info>
				<attribute name="decompression" version="0" />
			</rt_info>
			<input>
				<port id="0" precision="FP16">
					<dim>1280</dim>
				</port>
			</input>
			<output>
				<port id="1" precision="FP32">
					<dim>1280</dim>
				</port>
			</output>
		</layer>
		<layer id="45" name="Multiply_530" type="Multiply" version="opset1">
			<data auto_broadcast="numpy" />
			<input>
				<port id="0" precision="FP32">
					<dim>1</dim>
					<dim>1500</dim>
					<dim>1280</dim>
				</port>
				<port id="1" precision="FP32">
					<dim>1280</dim>
				</port>
			</input>
			<output>
				<port id="2" precision="FP32">
					<dim>1</dim>
					<dim>1500</dim>
					<dim>1280</dim>
				</port>
			</output>
		</layer>
		<layer id="46" name="blocks.0.attn_ln.bias_compressed" type="Const" version="opset1">
			<data element_type="f16" shape="1280" offset="14661176" size="2560" />
			<output>
				<port id="0" precision="FP16" names="blocks.0.attn_ln.bias">
					<dim>1280</dim>
				</port>
			</output>
		</layer>
		<layer id="47" name="blocks.0.attn_ln.bias" type="Convert" version="opset1">
			<data destination_type="f32" />
			<rt_info>
				<attribute name="decompression" version="0" />
			</rt_info>
			<input>
				<port id="0" precision="FP16">
					<dim>1280</dim>
				</port>
			</input>
			<output>
				<port id="1" precision="FP32">
					<dim>1280</dim>
				</port>
			</output>
		</layer>
		<layer id="48" name="node_layer_norm" type="Add" version="opset1">
			<data auto_broadcast="numpy" />
			<input>
				<port id="0" precision="FP32">
					<dim>1</dim>
					<dim>1500</dim>
					<dim>1280</dim>
				</port>
				<port id="1" precision="FP32">
					<dim>1280</dim>
				</port>
			</input>
			<output>
				<port id="2" precision="FP32" names="layer_norm">
					<dim>1</dim>
					<dim>1500</dim>
					<dim>1280</dim>
				</port>
			</output>
		</layer>
		<layer id="49" name="val_2_compressed" type="Const" version="opset1">
			<data element_type="f16" shape="1280, 1280" offset="14663736" size="3276800" />
			<output>
				<port id="0" precision="FP16" names="val_2">
					<dim>1280</dim>
					<dim>1280</dim>
				</port>
			</output>
		</layer>
		<layer id="50" name="val_2" type="Convert" version="opset1">
			<data destination_type="f32" />
			<rt_info>
				<attribute name="decompression" version="0" />
			</rt_info>
			<input>
				<port id="0" precision="FP16">
					<dim>1280</dim>
					<dim>1280</dim>
				</port>
			</input>
			<output>
				<port id="1" precision="FP32">
					<dim>1280</dim>
					<dim>1280</dim>
				</port>
			</output>
		</layer>
		<layer id="51" name="node_MatMul_1" type="MatMul" version="opset1">
			<data transpose_a="false" transpose_b="false" />
			<input>
				<port id="0" precision="FP32">
					<dim>1</dim>
					<dim>1500</dim>
					<dim>1280</dim>
				</port>
				<port id="1" precision="FP32">
					<dim>1280</dim>
					<dim>1280</dim>
				</port>
			</input>
			<output>
				<port id="2" precision="FP32" names="val_3">
					<dim>1</dim>
					<dim>1500</dim>
					<dim>1280</dim>
				</port>
			</output>
		</layer>
		<layer id="52" name="blocks.0.attn.query.bias_compressed" type="Const" version="opset1">
			<data element_type="f16" shape="1280" offset="17940536" size="2560" />
			<output>
				<port id="0" precision="FP16" names="blocks.0.attn.query.bias">
					<dim>1280</dim>
				</port>
			</output>
		</layer>
		<layer id="53" name="blocks.0.attn.query.bias" type="Convert" version="opset1">
			<data destination_type="f32" />
			<rt_info>
				<attribute name="decompression" version="0" />
			</rt_info>
			<input>
				<port id="0" precision="FP16">
					<dim>1280</dim>
				</port>
			</input>
			<output>
				<port id="1" precision="FP32">
					<dim>1280</dim>
				</port>
			</output>
		</layer>
		<layer id="54" name="node_linear" type="Add" version="opset1">
			<data auto_broadcast="numpy" />
			<input>
				<port id="0" precision="FP32">
					<dim>1</dim>
					<dim>1500</dim>
					<dim>1280</dim>
				</port>
				<port id="1" precision="FP32">
					<dim>1280</dim>
				</port>
			</input>
			<output>
				<port id="2" precision="FP32" names="linear">
					<dim>1</dim>
					<dim>1500</dim>
					<dim>1280</dim>
				</port>
			</output>
		</layer>
		<layer id="55" name="val_12" type="Const" version="opset1">
			<data element_type="i64" shape="4" offset="17943096" size="32" />
			<rt_info>
				<attribute name="precise" version="0" />
			</rt_info>
			<output>
				<port id="0" precision="I64" names="val_12">
					<dim>4</dim>
				</port>
			</output>
		</layer>
		<layer id="56" name="node_view" type="Reshape" version="opset1">
			<data special_zero="true" />
			<input>
				<port id="0" precision="FP32">
					<dim>1</dim>
					<dim>1500</dim>
					<dim>1280</dim>
				</port>
				<port id="1" precision="I64">
					<dim>4</dim>
				</port>
			</input>
			<output>
				<port id="2" precision="FP32" names="view">
					<dim>1</dim>
					<dim>1500</dim>
					<dim>20</dim>
					<dim>64</dim>
				</port>
			</output>
		</layer>
		<layer id="57" name="Constant_538" type="Const" version="opset1">
			<data element_type="i64" shape="4" offset="17943128" size="32" />
			<output>
				<port id="0" precision="I64">
					<dim>4</dim>
				</port>
			</output>
		</layer>
		<layer id="58" name="node_permute_1" type="Transpose" version="opset1">
			<input>
				<port id="0" precision="FP32">
					<dim>1</dim>
					<dim>1500</dim>
					<dim>20</dim>
					<dim>64</dim>
				</port>
				<port id="1" precision="I64">
					<dim>4</dim>
				</port>
			</input>
			<output>
				<port id="2" precision="FP32" names="permute_1">
					<dim>1</dim>
					<dim>20</dim>
					<dim>1500</dim>
					<dim>64</dim>
				</port>
			</output>
		</layer>
		<layer id="59" name="val_48_compressed" type="Const" version="opset1">
			<data element_type="f16" shape="1" offset="17943160" size="2" />
			<output>
				<port id="0" precision="FP16" names="val_48">
					<dim>1</dim>
				</port>
			</output>
		</layer>
		<layer id="60" name="val_48" type="Convert" version="opset1">
			<data destination_type="f32" />
			<rt_info>
				<attribute name="decompression" version="0" />
			</rt_info>
			<input>
				<port id="0" precision="FP16">
					<dim>1</dim>
				</port>
			</input>
			<output>
				<port id="1" precision="FP32">
					<dim>1</dim>
				</port>
			</output>
		</layer>
		<layer id="61" name="node_Mul_47" type="Multiply" version="opset1">
			<data auto_broadcast="numpy" />
			<input>
				<port id="0" precision="FP32">
					<dim>1</dim>
					<dim>20</dim>
					<dim>1500</dim>
					<dim>64</dim>
				</port>
				<port id="1" precision="FP32">
					<dim>1</dim>
				</port>
			</input>
			<output>
				<port id="2" precision="FP32" names="val_49">
					<dim>1</dim>
					<dim>20</dim>
					<dim>1500</dim>
					<dim>64</dim>
				</port>
			</output>
		</layer>
		<layer id="62" name="val_4_compressed" type="Const" version="opset1">
			<data element_type="f16" shape="1280, 1280" offset="17943162" size="3276800" />
			<output>
				<port id="0" precision="FP16" names="val_4">
					<dim>1280</dim>
					<dim>1280</dim>
				</port>
			</output>
		</layer>
		<layer id="63" name="val_4" type="Convert" version="opset1">
			<data destination_type="f32" />
			<rt_info>
				<attribute name="decompression" version="0" />
			</rt_info>
			<input>
				<port id="0" precision="FP16">
					<dim>1280</dim>
					<dim>1280</dim>
				</port>
			</input>
			<output>
				<port id="1" precision="FP32">
					<dim>1280</dim>
					<dim>1280</dim>
				</port>
			</output>
		</layer>
		<layer id="64" name="node_linear_1" type="MatMul" version="opset1">
			<data transpose_a="false" transpose_b="false" />
			<input>
				<port id="0" precision="FP32">
					<dim>1</dim>
					<dim>1500</dim>
					<dim>1280</dim>
				</port>
				<port id="1" precision="FP32">
					<dim>1280</dim>
					<dim>1280</dim>
				</port>
			</input>
			<output>
				<port id="2" precision="FP32" names="linear_1">
					<dim>1</dim>
					<dim>1500</dim>
					<dim>1280</dim>
				</port>
			</output>
		</layer>
		<layer id="65" name="node_view_1" type="Reshape" version="opset1">
			<data special_zero="true" />
			<input>
				<port id="0" precision="FP32">
					<dim>1</dim>
					<dim>1500</dim>
					<dim>1280</dim>
				</port>
				<port id="1" precision="I64">
					<dim>4</dim>
				</port>
			</input>
			<output>
				<port id="2" precision="FP32" names="view_1">
					<dim>1</dim>
					<dim>1500</dim>
					<dim>20</dim>
					<dim>64</dim>
				</port>
			</output>
		</layer>
		<layer id="66" name="Constant_541" type="Const" version="opset1">
			<data element_type="i64" shape="4" offset="17943128" size="32" />
			<output>
				<port id="0" precision="I64">
					<dim>4</dim>
				</port>
			</output>
		</layer>
		<layer id="67" name="node_permute_2" type="Transpose" version="opset1">
			<input>
				<port id="0" precision="FP32">
					<dim>1</dim>
					<dim>1500</dim>
					<dim>20</dim>
					<dim>64</dim>
				</port>
				<port id="1" precision="I64">
					<dim>4</dim>
				</port>
			</input>
			<output>
				<port id="2" precision="FP32" names="permute_2">
					<dim>1</dim>
					<dim>20</dim>
					<dim>1500</dim>
					<dim>64</dim>
				</port>
			</output>
		</layer>
		<layer id="68" name="val_43" type="Const" version="opset1">
			<data element_type="i64" shape="3" offset="21219962" size="24" />
			<rt_info>
				<attribute name="precise" version="0" />
			</rt_info>
			<output>
				<port id="0" precision="I64" names="val_43">
					<dim>3</dim>
				</port>
			</output>
		</layer>
		<layer id="69" name="node_Reshape_42" type="Reshape" version="opset1">
			<data special_zero="true" />
			<input>
				<port id="0" precision="FP32">
					<dim>1</dim>
					<dim>20</dim>
					<dim>1500</dim>
					<dim>64</dim>
				</port>
				<port id="1" precision="I64">
					<dim>3</dim>
				</port>
			</input>
			<output>
				<port id="2" precision="FP32" names="val_44">
					<dim>20</dim>
					<dim>1500</dim>
					<dim>64</dim>
				</port>
			</output>
		</layer>
		<layer id="70" name="Constant_547" type="Const" version="opset1">
			<data element_type="i64" shape="3" offset="10818576" size="24" />
			<output>
				<port id="0" precision="I64">
					<dim>3</dim>
				</port>
			</output>
		</layer>
		<layer id="71" name="node_Transpose_43" type="Transpose" version="opset1">
			<input>
				<port id="0" precision="FP32">
					<dim>20</dim>
					<dim>1500</dim>
					<dim>64</dim>
				</port>
				<port id="1" precision="I64">
					<dim>3</dim>
				</port>
			</input>
			<output>
				<port id="2" precision="FP32" names="val_45">
					<dim>20</dim>
					<dim>64</dim>
					<dim>1500</dim>
				</port>
			</output>
		</layer>
		<layer id="72" name="val_46" type="Const" version="opset1">
			<data element_type="i64" shape="4" offset="21219986" size="32" />
			<rt_info>
				<attribute name="precise" version="0" />
			</rt_info>
			<output>
				<port id="0" precision="I64" names="val_46">
					<dim>4</dim>
				</port>
			</output>
		</layer>
		<layer id="73" name="node_Reshape_45" type="Reshape" version="opset1">
			<data special_zero="true" />
			<input>
				<port id="0" precision="FP32">
					<dim>20</dim>
					<dim>64</dim>
					<dim>1500</dim>
				</port>
				<port id="1" precision="I64">
					<dim>4</dim>
				</port>
			</input>
			<output>
				<port id="2" precision="FP32" names="val_47">
					<dim>1</dim>
					<dim>20</dim>
					<dim>64</dim>
					<dim>1500</dim>
				</port>
			</output>
		</layer>
		<layer id="74" name="node_Mul_50" type="Multiply" version="opset1">
			<data auto_broadcast="numpy" />
			<input>
				<port id="0" precision="FP32">
					<dim>1</dim>
					<dim>20</dim>
					<dim>64</dim>
					<dim>1500</dim>
				</port>
				<port id="1" precision="FP32">
					<dim>1</dim>
				</port>
			</input>
			<output>
				<port id="2" precision="FP32" names="val_52">
					<dim>1</dim>
					<dim>20</dim>
					<dim>64</dim>
					<dim>1500</dim>
				</port>
			</output>
		</layer>
		<layer id="75" name="node_MatMul_51" type="MatMul" version="opset1">
			<data transpose_a="false" transpose_b="false" />
			<input>
				<port id="0" precision="FP32">
					<dim>1</dim>
					<dim>20</dim>
					<dim>1500</dim>
					<dim>64</dim>
				</port>
				<port id="1" precision="FP32">
					<dim>1</dim>
					<dim>20</dim>
					<dim>64</dim>
					<dim>1500</dim>
				</port>
			</input>
			<output>
				<port id="2" precision="FP32" names="val_53">
					<dim>1</dim>
					<dim>20</dim>
					<dim>1500</dim>
					<dim>1500</dim>
				</port>
			</output>
		</layer>
		<layer id="76" name="node_Softmax_52" type="SoftMax" version="opset8">
			<data axis="-1" />
			<input>
				<port id="0" precision="FP32">
					<dim>1</dim>
					<dim>20</dim>
					<dim>1500</dim>
					<dim>1500</dim>
				</port>
			</input>
			<output>
				<port id="1" precision="FP32" names="val_54">
					<dim>1</dim>
					<dim>20</dim>
					<dim>1500</dim>
					<dim>1500</dim>
				</port>
			</output>
		</layer>
		<layer id="77" name="val_5_compressed" type="Const" version="opset1">
			<data element_type="f16" shape="1280, 1280" offset="21220018" size="3276800" />
			<output>
				<port id="0" precision="FP16" names="val_5">
					<dim>1280</dim>
					<dim>1280</dim>
				</port>
			</output>
		</layer>
		<layer id="78" name="val_5" type="Convert" version="opset1">
			<data destination_type="f32" />
			<rt_info>
				<attribute name="decompression" version="0" />
			</rt_info>
			<input>
				<port id="0" precision="FP16">
					<dim>1280</dim>
					<dim>1280</dim>
				</port>
			</input>
			<output>
				<port id="1" precision="FP32">
					<dim>1280</dim>
					<dim>1280</dim>
				</port>
			</output>
		</layer>
		<layer id="79" name="node_MatMul_4" type="MatMul" version="opset1">
			<data transpose_a="false" transpose_b="false" />
			<input>
				<port id="0" precision="FP32">
					<dim>1</dim>
					<dim>1500</dim>
					<dim>1280</dim>
				</port>
				<port id="1" precision="FP32">
					<dim>1280</dim>
					<dim>1280</dim>
				</port>
			</input>
			<output>
				<port id="2" precision="FP32" names="val_6">
					<dim>1</dim>
					<dim>1500</dim>
					<dim>1280</dim>
				</port>
			</output>
		</layer>
		<layer id="80" name="blocks.0.attn.value.bias_compressed" type="Const" version="opset1">
			<data element_type="f16" shape="1280" offset="24496818" size="2560" />
			<output>
				<port id="0" precision="FP16" names="blocks.0.attn.value.bias">
					<dim>1280</dim>
				</port>
			</output>
		</layer>
		<layer id="81" name="blocks.0.attn.value.bias" type="Convert" version="opset1">
			<data destination_type="f32" />
			<rt_info>
				<attribute name="decompression" version="0" />
			</rt_info>
			<input>
				<port id="0" precision="FP16">
					<dim>1280</dim>
				</port>
			</input>
			<output>
				<port id="1" precision="FP32">
					<dim>1280</dim>
				</port>
			</output>
		</layer>
		<layer id="82" name="node_linear_2" type="Add" version="opset1">
			<data auto_broadcast="numpy" />
			<input>
				<port id="0" precision="FP32">
					<dim>1</dim>
					<dim>1500</dim>
					<dim>1280</dim>
				</port>
				<port id="1" precision="FP32">
					<dim>1280</dim>
				</port>
			</input>
			<output>
				<port id="2" precision="FP32" names="linear_2">
					<dim>1</dim>
					<dim>1500</dim>
					<dim>1280</dim>
				</port>
			</output>
		</layer>
		<layer id="83" name="node_view_2" type="Reshape" version="opset1">
			<data special_zero="true" />
			<input>
				<port id="0" precision="FP32">
					<dim>1</dim>
					<dim>1500</dim>
					<dim>1280</dim>
				</port>
				<port id="1" precision="I64">
					<dim>4</dim>
				</port>
			</input>
			<output>
				<port id="2" precision="FP32" names="view_2">
					<dim>1</dim>
					<dim>1500</dim>
					<dim>20</dim>
					<dim>64</dim>
				</port>
			</output>
		</layer>
		<layer id="84" name="Constant_544" type="Const" version="opset1">
			<data element_type="i64" shape="4" offset="17943128" size="32" />
			<output>
				<port id="0" precision="I64">
					<dim>4</dim>
				</port>
			</output>
		</layer>
		<layer id="85" name="node_permute_3" type="Transpose" version="opset1">
			<input>
				<port id="0" precision="FP32">
					<dim>1</dim>
					<dim>1500</dim>
					<dim>20</dim>
					<dim>64</dim>
				</port>
				<port id="1" precision="I64">
					<dim>4</dim>
				</port>
			</input>
			<output>
				<port id="2" precision="FP32" names="permute_3">
					<dim>1</dim>
					<dim>20</dim>
					<dim>1500</dim>
					<dim>64</dim>
				</port>
			</output>
		</layer>
		<layer id="86" name="node_scaled_dot_product_attention" type="MatMul" version="opset1">
			<data transpose_a="false" transpose_b="false" />
			<input>
				<port id="0" precision="FP32">
					<dim>1</dim>
					<dim>20</dim>
					<dim>1500</dim>
					<dim>1500</dim>
				</port>
				<port id="1" precision="FP32">
					<dim>1</dim>
					<dim>20</dim>
					<dim>1500</dim>
					<dim>64</dim>
				</port>
			</input>
			<output>
				<port id="2" precision="FP32" names="scaled_dot_product_attention">
					<dim>1</dim>
					<dim>20</dim>
					<dim>1500</dim>
					<dim>64</dim>
				</port>
			</output>
		</layer>
		<layer id="87" name="Constant_555" type="Const" version="opset1">
			<data element_type="i64" shape="4" offset="17943128" size="32" />
			<output>
				<port id="0" precision="I64">
					<dim>4</dim>
				</port>
			</output>
		</layer>
		<layer id="88" name="node_permute_4" type="Transpose" version="opset1">
			<input>
				<port id="0" precision="FP32">
					<dim>1</dim>
					<dim>20</dim>
					<dim>1500</dim>
					<dim>64</dim>
				</port>
				<port id="1" precision="I64">
					<dim>4</dim>
				</port>
			</input>
			<output>
				<port id="2" precision="FP32" names="permute_4">
					<dim>1</dim>
					<dim>1500</dim>
					<dim>20</dim>
					<dim>64</dim>
				</port>
			</output>
		</layer>
		<layer id="89" name="val_59" type="Const" version="opset1">
			<data element_type="i64" shape="3" offset="24499378" size="24" />
			<rt_info>
				<attribute name="precise" version="0" />
			</rt_info>
			<output>
				<port id="0" precision="I64" names="val_59">
					<dim>3</dim>
				</port>
			</output>
		</layer>
		<layer id="90" name="node_view_3" type="Reshape" version="opset1">
			<data special_zero="true" />
			<input>
				<port id="0" precision="FP32">
					<dim>1</dim>
					<dim>1500</dim>
					<dim>20</dim>
					<dim>64</dim>
				</port>
				<port id="1" precision="I64">
					<dim>3</dim>
				</port>
			</input>
			<output>
				<port id="2" precision="FP32" names="view_3">
					<dim>1</dim>
					<dim>1500</dim>
					<dim>1280</dim>
				</port>
			</output>
		</layer>
		<layer id="91" name="val_60_compressed" type="Const" version="opset1">
			<data element_type="f16" shape="1280, 1280" offset="24499402" size="3276800" />
			<output>
				<port id="0" precision="FP16" names="val_60">
					<dim>1280</dim>
					<dim>1280</dim>
				</port>
			</output>
		</layer>
		<layer id="92" name="val_60" type="Convert" version="opset1">
			<data destination_type="f32" />
			<rt_info>
				<attribute name="decompression" version="0" />
			</rt_info>
			<input>
				<port id="0" precision="FP16">
					<dim>1280</dim>
					<dim>1280</dim>
				</port>
			</input>
			<output>
				<port id="1" precision="FP32">
					<dim>1280</dim>
					<dim>1280</dim>
				</port>
			</output>
		</layer>
		<layer id="93" name="node_MatMul_59" type="MatMul" version="opset1">
			<data transpose_a="false" transpose_b="false" />
			<input>
				<port id="0" precision="FP32">
					<dim>1</dim>
					<dim>1500</dim>
					<dim>1280</dim>
				</port>
				<port id="1" precision="FP32">
					<dim>1280</dim>
					<dim>1280</dim>
				</port>
			</input>
			<output>
				<port id="2" precision="FP32" names="val_61">
					<dim>1</dim>
					<dim>1500</dim>
					<dim>1280</dim>
				</port>
			</output>
		</layer>
		<layer id="94" name="blocks.0.attn.out.bias_compressed" type="Const" version="opset1">
			<data element_type="f16" shape="1280" offset="27776202" size="2560" />
			<output>
				<port id="0" precision="FP16" names="blocks.0.attn.out.bias">
					<dim>1280</dim>
				</port>
			</output>
		</layer>
		<layer id="95" name="blocks.0.attn.out.bias" type="Convert" version="opset1">
			<data destination_type="f32" />
			<rt_info>
				<attribute name="decompression" version="0" />
			</rt_info>
			<input>
				<port id="0" precision="FP16">
					<dim>1280</dim>
				</port>
			</input>
			<output>
				<port id="1" precision="FP32">
					<dim>1280</dim>
				</port>
			</output>
		</layer>
		<layer id="96" name="node_linear_3" type="Add" version="opset1">
			<data auto_broadcast="numpy" />
			<input>
				<port id="0" precision="FP32">
					<dim>1</dim>
					<dim>1500</dim>
					<dim>1280</dim>
				</port>
				<port id="1" precision="FP32">
					<dim>1280</dim>
				</port>
			</input>
			<output>
				<port id="2" precision="FP32" names="linear_3">
					<dim>1</dim>
					<dim>1500</dim>
					<dim>1280</dim>
				</port>
			</output>
		</layer>
		<layer id="97" name="node_add_1" type="Add" version="opset1">
			<data auto_broadcast="numpy" />
			<input>
				<port id="0" precision="FP32">
					<dim>1</dim>
					<dim>1500</dim>
					<dim>1280</dim>
				</port>
				<port id="1" precision="FP32">
					<dim>1</dim>
					<dim>1500</dim>
					<dim>1280</dim>
				</port>
			</input>
			<output>
				<port id="2" precision="FP32" names="add_1">
					<dim>1</dim>
					<dim>1500</dim>
					<dim>1280</dim>
				</port>
			</output>
		</layer>
		<layer id="98" name="Constant_563" type="Const" version="opset1">
			<data element_type="i64" shape="" offset="14658600" size="8" />
			<output>
				<port id="0" precision="I64" />
			</output>
		</layer>
		<layer id="99" name="Constant_562" type="Const" version="opset1">
			<data element_type="i64" shape="" offset="14658608" size="8" />
			<output>
				<port id="0" precision="I64" />
			</output>
		</layer>
		<layer id="100" name="Constant_561" type="Const" version="opset1">
			<data element_type="i64" shape="" offset="985600" size="8" />
			<output>
				<port id="0" precision="I64" />
			</output>
		</layer>
		<layer id="101" name="Range_564" type="Range" version="opset4">
			<data output_type="i64" />
			<input>
				<port id="0" precision="I64" />
				<port id="1" precision="I64" />
				<port id="2" precision="I64" />
			</input>
			<output>
				<port id="3" precision="I64">
					<dim>1</dim>
				</port>
			</output>
		</layer>
		<layer id="102" name="MVN_565" type="MVN" version="opset6">
			<data eps="9.9999997473787516e-06" normalize_variance="true" eps_mode="INSIDE_SQRT" />
			<input>
				<port id="0" precision="FP32">
					<dim>1</dim>
					<dim>1500</dim>
					<dim>1280</dim>
				</port>
				<port id="1" precision="I64">
					<dim>1</dim>
				</port>
			</input>
			<output>
				<port id="2" precision="FP32">
					<dim>1</dim>
					<dim>1500</dim>
					<dim>1280</dim>
				</port>
			</output>
		</layer>
		<layer id="103" name="blocks.0.mlp_ln.weight_compressed" type="Const" version="opset1">
			<data element_type="f16" shape="1280" offset="27778762" size="2560" />
			<output>
				<port id="0" precision="FP16" names="blocks.0.mlp_ln.weight">
					<dim>1280</dim>
				</port>
			</output>
		</layer>
		<layer id="104" name="blocks.0.mlp_ln.weight" type="Convert" version="opset1">
			<data destination_type="f32" />
			<rt_info>
				<attribute name="decompression" version="0" />
			</rt_info>
			<input>
				<port id="0" precision="FP16">
					<dim>1280</dim>
				</port>
			</input>
			<output>
				<port id="1" precision="FP32">
					<dim>1280</dim>
				</port>
			</output>
		</layer>
		<layer id="105" name="Multiply_566" type="Multiply" version="opset1">
			<data auto_broadcast="numpy" />
			<input>
				<port id="0" precision="FP32">
					<dim>1</dim>
					<dim>1500</dim>
					<dim>1280</dim>
				</port>
				<port id="1" precision="FP32">
					<dim>1280</dim>
				</port>
			</input>
			<output>
				<port id="2" precision="FP32">
					<dim>1</dim>
					<dim>1500</dim>
					<dim>1280</dim>
				</port>
			</output>
		</layer>
		<layer id="106" name="blocks.0.mlp_ln.bias_compressed" type="Const" version="opset1">
			<data element_type="f16" shape="1280" offset="27781322" size="2560" />
			<output>
				<port id="0" precision="FP16" names="blocks.0.mlp_ln.bias">
					<dim>1280</dim>
				</port>
			</output>
		</layer>
		<layer id="107" name="blocks.0.mlp_ln.bias" type="Convert" version="opset1">
			<data destination_type="f32" />
			<rt_info>
				<attribute name="decompression" version="0" />
			</rt_info>
			<input>
				<port id="0" precision="FP16">
					<dim>1280</dim>
				</port>
			</input>
			<output>
				<port id="1" precision="FP32">
					<dim>1280</dim>
				</port>
			</output>
		</layer>
		<layer id="108" name="node_layer_norm_1" type="Add" version="opset1">
			<data auto_broadcast="numpy" />
			<input>
				<port id="0" precision="FP32">
					<dim>1</dim>
					<dim>1500</dim>
					<dim>1280</dim>
				</port>
				<port id="1" precision="FP32">
					<dim>1280</dim>
				</port>
			</input>
			<output>
				<port id="2" precision="FP32" names="layer_norm_1">
					<dim>1</dim>
					<dim>1500</dim>
					<dim>1280</dim>
				</port>
			</output>
		</layer>
		<layer id="109" name="val_64_compressed" type="Const" version="opset1">
			<data element_type="f16" shape="1280, 5120" offset="27783882" size="13107200" />
			<output>
				<port id="0" precision="FP16" names="val_64">
					<dim>1280</dim>
					<dim>5120</dim>
				</port>
			</output>
		</layer>
		<layer id="110" name="val_64" type="Convert" version="opset1">
			<data destination_type="f32" />
			<rt_info>
				<attribute name="decompression" version="0" />
			</rt_info>
			<input>
				<port id="0" precision="FP16">
					<dim>1280</dim>
					<dim>5120</dim>
				</port>
			</input>
			<output>
				<port id="1" precision="FP32">
					<dim>1280</dim>
					<dim>5120</dim>
				</port>
			</output>
		</layer>
		<layer id="111" name="node_MatMul_61" type="MatMul" version="opset1">
			<data transpose_a="false" transpose_b="false" />
			<input>
				<port id="0" precision="FP32">
					<dim>1</dim>
					<dim>1500</dim>
					<dim>1280</dim>
				</port>
				<port id="1" precision="FP32">
					<dim>1280</dim>
					<dim>5120</dim>
				</port>
			</input>
			<output>
				<port id="2" precision="FP32" names="val_65">
					<dim>1</dim>
					<dim>1500</dim>
					<dim>5120</dim>
				</port>
			</output>
		</layer>
		<layer id="112" name="blocks.0.mlp.0.bias_compressed" type="Const" version="opset1">
			<data element_type="f16" shape="5120" offset="40891082" size="10240" />
			<output>
				<port id="0" precision="FP16" names="blocks.0.mlp.0.bias">
					<dim>5120</dim>
				</port>
			</output>
		</layer>
		<layer id="113" name="blocks.0.mlp.0.bias" type="Convert" version="opset1">
			<data destination_type="f32" />
			<rt_info>
				<attribute name="decompression" version="0" />
			</rt_info>
			<input>
				<port id="0" precision="FP16">
					<dim>5120</dim>
				</port>
			</input>
			<output>
				<port id="1" precision="FP32">
					<dim>5120</dim>
				</port>
			</output>
		</layer>
		<layer id="114" name="node_linear_4" type="Add" version="opset1">
			<data auto_broadcast="numpy" />
			<input>
				<port id="0" precision="FP32">
					<dim>1</dim>
					<dim>1500</dim>
					<dim>5120</dim>
				</port>
				<port id="1" precision="FP32">
					<dim>5120</dim>
				</port>
			</input>
			<output>
				<port id="2" precision="FP32" names="linear_4">
					<dim>1</dim>
					<dim>1500</dim>
					<dim>5120</dim>
				</port>
			</output>
		</layer>
		<layer id="115" name="node_gelu_2" type="Gelu" version="opset7">
			<data approximation_mode="ERF" />
			<input>
				<port id="0" precision="FP32">
					<dim>1</dim>
					<dim>1500</dim>
					<dim>5120</dim>
				</port>
			</input>
			<output>
				<port id="1" precision="FP32" names="gelu_2">
					<dim>1</dim>
					<dim>1500</dim>
					<dim>5120</dim>
				</port>
			</output>
		</layer>
		<layer id="116" name="val_66_compressed" type="Const" version="opset1">
			<data element_type="f16" shape="5120, 1280" offset="40901322" size="13107200" />
			<output>
				<port id="0" precision="FP16" names="val_66">
					<dim>5120</dim>
					<dim>1280</dim>
				</port>
			</output>
		</layer>
		<layer id="117" name="val_66" type="Convert" version="opset1">
			<data destination_type="f32" />
			<rt_info>
				<attribute name="decompression" version="0" />
			</rt_info>
			<input>
				<port id="0" precision="FP16">
					<dim>5120</dim>
					<dim>1280</dim>
				</port>
			</input>
			<output>
				<port id="1" precision="FP32">
					<dim>5120</dim>
					<dim>1280</dim>
				</port>
			</output>
		</layer>
		<layer id="118" name="node_MatMul_63" type="MatMul" version="opset1">
			<data transpose_a="false" transpose_b="false" />
			<input>
				<port id="0" precision="FP32">
					<dim>1</dim>
					<dim>1500</dim>
					<dim>5120</dim>
				</port>
				<port id="1" precision="FP32">
					<dim>5120</dim>
					<dim>1280</dim>
				</port>
			</input>
			<output>
				<port id="2" precision="FP32" names="val_67">
					<dim>1</dim>
					<dim>1500</dim>
					<dim>1280</dim>
				</port>
			</output>
		</layer>
		<layer id="119" name="blocks.0.mlp.2.bias_compressed" type="Const" version="opset1">
			<data element_type="f16" shape="1280" offset="54008522" size="2560" />
			<output>
				<port id="0" precision="FP16" names="blocks.0.mlp.2.bias">
					<dim>1280</dim>
				</port>
			</output>
		</layer>
		<layer id="120" name="blocks.0.mlp.2.bias" type="Convert" version="opset1">
			<data destination_type="f32" />
			<rt_info>
				<attribute name="decompression" version="0" />
			</rt_info>
			<input>
				<port id="0" precision="FP16">
					<dim>1280</dim>
				</port>
			</input>
			<output>
				<port id="1" precision="FP32">
					<dim>1280</dim>
				</port>
			</output>
		</layer>
		<layer id="121" name="node_linear_5" type="Add" version="opset1">
			<data auto_broadcast="numpy" />
			<input>
				<port id="0" precision="FP32">
					<dim>1</dim>
					<dim>1500</dim>
					<dim>1280</dim>
				</port>
				<port id="1" precision="FP32">
					<dim>1280</dim>
				</port>
			</input>
			<output>
				<port id="2" precision="FP32" names="linear_5">
					<dim>1</dim>
					<dim>1500</dim>
					<dim>1280</dim>
				</port>
			</output>
		</layer>
		<layer id="122" name="node_add_2" type="Add" version="opset1">
			<data auto_broadcast="numpy" />
			<input>
				<port id="0" precision="FP32">
					<dim>1</dim>
					<dim>1500</dim>
					<dim>1280</dim>
				</port>
				<port id="1" precision="FP32">
					<dim>1</dim>
					<dim>1500</dim>
					<dim>1280</dim>
				</port>
			</input>
			<output>
				<port id="2" precision="FP32" names="add_2">
					<dim>1</dim>
					<dim>1500</dim>
					<dim>1280</dim>
				</port>
			</output>
		</layer>
		<layer id="123" name="Constant_576" type="Const" version="opset1">
			<data element_type="i64" shape="" offset="14658600" size="8" />
			<output>
				<port id="0" precision="I64" />
			</output>
		</layer>
		<layer id="124" name="Constant_575" type="Const" version="opset1">
			<data element_type="i64" shape="" offset="14658608" size="8" />
			<output>
				<port id="0" precision="I64" />
			</output>
		</layer>
		<layer id="125" name="Constant_574" type="Const" version="opset1">
			<data element_type="i64" shape="" offset="985600" size="8" />
			<output>
				<port id="0" precision="I64" />
			</output>
		</layer>
		<layer id="126" name="Range_577" type="Range" version="opset4">
			<data output_type="i64" />
			<input>
				<port id="0" precision="I64" />
				<port id="1" precision="I64" />
				<port id="2" precision="I64" />
			</input>
			<output>
				<port id="3" precision="I64">
					<dim>1</dim>
				</port>
			</output>
		</layer>
		<layer id="127" name="MVN_578" type="MVN" version="opset6">
			<data eps="9.9999997473787516e-06" normalize_variance="true" eps_mode="INSIDE_SQRT" />
			<input>
				<port id="0" precision="FP32">
					<dim>1</dim>
					<dim>1500</dim>
					<dim>1280</dim>
				</port>
				<port id="1" precision="I64">
					<dim>1</dim>
				</port>
			</input>
			<output>
				<port id="2" precision="FP32">
					<dim>1</dim>
					<dim>1500</dim>
					<dim>1280</dim>
				</port>
			</output>
		</layer>
		<layer id="128" name="blocks.1.attn_ln.weight_compressed" type="Const" version="opset1">
			<data element_type="f16" shape="1280" offset="54011082" size="2560" />
			<output>
				<port id="0" precision="FP16" names="blocks.1.attn_ln.weight">
					<dim>1280</dim>
				</port>
			</output>
		</layer>
		<layer id="129" name="blocks.1.attn_ln.weight" type="Convert" version="opset1">
			<data destination_type="f32" />
			<rt_info>
				<attribute name="decompression" version="0" />
			</rt_info>
			<input>
				<port id="0" precision="FP16">
					<dim>1280</dim>
				</port>
			</input>
			<output>
				<port id="1" precision="FP32">
					<dim>1280</dim>
				</port>
			</output>
		</layer>
		<layer id="130" name="Multiply_579" type="Multiply" version="opset1">
			<data auto_broadcast="numpy" />
			<input>
				<port id="0" precision="FP32">
					<dim>1</dim>
					<dim>1500</dim>
					<dim>1280</dim>
				</port>
				<port id="1" precision="FP32">
					<dim>1280</dim>
				</port>
			</input>
			<output>
				<port id="2" precision="FP32">
					<dim>1</dim>
					<dim>1500</dim>
					<dim>1280</dim>
				</port>
			</output>
		</layer>
		<layer id="131" name="blocks.1.attn_ln.bias_compressed" type="Const" version="opset1">
			<data element_type="f16" shape="1280" offset="54013642" size="2560" />
			<output>
				<port id="0" precision="FP16" names="blocks.1.attn_ln.bias">
					<dim>1280</dim>
				</port>
			</output>
		</layer>
		<layer id="132" name="blocks.1.attn_ln.bias" type="Convert" version="opset1">
			<data destination_type="f32" />
			<rt_info>
				<attribute name="decompression" version="0" />
			</rt_info>
			<input>
				<port id="0" precision="FP16">
					<dim>1280</dim>
				</port>
			</input>
			<output>
				<port id="1" precision="FP32">
					<dim>1280</dim>
				</port>
			</output>
		</layer>
		<layer id="133" name="node_layer_norm_2" type="Add" version="opset1">
			<data auto_broadcast="numpy" />
			<input>
				<port id="0" precision="FP32">
					<dim>1</dim>
					<dim>1500</dim>
					<dim>1280</dim>
				</port>
				<port id="1" precision="FP32">
					<dim>1280</dim>
				</port>
			</input>
			<output>
				<port id="2" precision="FP32" names="layer_norm_2">
					<dim>1</dim>
					<dim>1500</dim>
					<dim>1280</dim>
				</port>
			</output>
		</layer>
		<layer id="134" name="val_70_compressed" type="Const" version="opset1">
			<data element_type="f16" shape="1280, 1280" offset="54016202" size="3276800" />
			<output>
				<port id="0" precision="FP16" names="val_70">
					<dim>1280</dim>
					<dim>1280</dim>
				</port>
			</output>
		</layer>
		<layer id="135" name="val_70" type="Convert" version="opset1">
			<data destination_type="f32" />
			<rt_info>
				<attribute name="decompression" version="0" />
			</rt_info>
			<input>
				<port id="0" precision="FP16">
					<dim>1280</dim>
					<dim>1280</dim>
				</port>
			</input>
			<output>
				<port id="1" precision="FP32">
					<dim>1280</dim>
					<dim>1280</dim>
				</port>
			</output>
		</layer>
		<layer id="136" name="node_MatMul_65" type="MatMul" version="opset1">
			<data transpose_a="false" transpose_b="false" />
			<input>
				<port id="0" precision="FP32">
					<dim>1</dim>
					<dim>1500</dim>
					<dim>1280</dim>
				</port>
				<port id="1" precision="FP32">
					<dim>1280</dim>
					<dim>1280</dim>
				</port>
			</input>
			<output>
				<port id="2" precision="FP32" names="val_71">
					<dim>1</dim>
					<dim>1500</dim>
					<dim>1280</dim>
				</port>
			</output>
		</layer>
		<layer id="137" name="blocks.1.attn.query.bias_compressed" type="Const" version="opset1">
			<data element_type="f16" shape="1280" offset="57293002" size="2560" />
			<output>
				<port id="0" precision="FP16" names="blocks.1.attn.query.bias">
					<dim>1280</dim>
				</port>
			</output>
		</layer>
		<layer id="138" name="blocks.1.attn.query.bias" type="Convert" version="opset1">
			<data destination_type="f32" />
			<rt_info>
				<attribute name="decompression" version="0" />
			</rt_info>
			<input>
				<port id="0" precision="FP16">
					<dim>1280</dim>
				</port>
			</input>
			<output>
				<port id="1" precision="FP32">
					<dim>1280</dim>
				</port>
			</output>
		</layer>
		<layer id="139" name="node_linear_6" type="Add" version="opset1">
			<data auto_broadcast="numpy" />
			<input>
				<port id="0" precision="FP32">
					<dim>1</dim>
					<dim>1500</dim>
					<dim>1280</dim>
				</port>
				<port id="1" precision="FP32">
					<dim>1280</dim>
				</port>
			</input>
			<output>
				<port id="2" precision="FP32" names="linear_6">
					<dim>1</dim>
					<dim>1500</dim>
					<dim>1280</dim>
				</port>
			</output>
		</layer>
		<layer id="140" name="node_view_4" type="Reshape" version="opset1">
			<data special_zero="true" />
			<input>
				<port id="0" precision="FP32">
					<dim>1</dim>
					<dim>1500</dim>
					<dim>1280</dim>
				</port>
				<port id="1" precision="I64">
					<dim>4</dim>
				</port>
			</input>
			<output>
				<port id="2" precision="FP32" names="view_4">
					<dim>1</dim>
					<dim>1500</dim>
					<dim>20</dim>
					<dim>64</dim>
				</port>
			</output>
		</layer>
		<layer id="141" name="Constant_587" type="Const" version="opset1">
			<data element_type="i64" shape="4" offset="17943128" size="32" />
			<output>
				<port id="0" precision="I64">
					<dim>4</dim>
				</port>
			</output>
		</layer>
		<layer id="142" name="node_permute_5" type="Transpose" version="opset1">
			<input>
				<port id="0" precision="FP32">
					<dim>1</dim>
					<dim>1500</dim>
					<dim>20</dim>
					<dim>64</dim>
				</port>
				<port id="1" precision="I64">
					<dim>4</dim>
				</port>
			</input>
			<output>
				<port id="2" precision="FP32" names="permute_5">
					<dim>1</dim>
					<dim>20</dim>
					<dim>1500</dim>
					<dim>64</dim>
				</port>
			</output>
		</layer>
		<layer id="143" name="node_Mul_109" type="Multiply" version="opset1">
			<data auto_broadcast="numpy" />
			<input>
				<port id="0" precision="FP32">
					<dim>1</dim>
					<dim>20</dim>
					<dim>1500</dim>
					<dim>64</dim>
				</port>
				<port id="1" precision="FP32">
					<dim>1</dim>
				</port>
			</input>
			<output>
				<port id="2" precision="FP32" names="val_115">
					<dim>1</dim>
					<dim>20</dim>
					<dim>1500</dim>
					<dim>64</dim>
				</port>
			</output>
		</layer>
		<layer id="144" name="val_72_compressed" type="Const" version="opset1">
			<data element_type="f16" shape="1280, 1280" offset="57295562" size="3276800" />
			<output>
				<port id="0" precision="FP16" names="val_72">
					<dim>1280</dim>
					<dim>1280</dim>
				</port>
			</output>
		</layer>
		<layer id="145" name="val_72" type="Convert" version="opset1">
			<data destination_type="f32" />
			<rt_info>
				<attribute name="decompression" version="0" />
			</rt_info>
			<input>
				<port id="0" precision="FP16">
					<dim>1280</dim>
					<dim>1280</dim>
				</port>
			</input>
			<output>
				<port id="1" precision="FP32">
					<dim>1280</dim>
					<dim>1280</dim>
				</port>
			</output>
		</layer>
		<layer id="146" name="node_linear_7" type="MatMul" version="opset1">
			<data transpose_a="false" transpose_b="false" />
			<input>
				<port id="0" precision="FP32">
					<dim>1</dim>
					<dim>1500</dim>
					<dim>1280</dim>
				</port>
				<port id="1" precision="FP32">
					<dim>1280</dim>
					<dim>1280</dim>
				</port>
			</input>
			<output>
				<port id="2" precision="FP32" names="linear_7">
					<dim>1</dim>
					<dim>1500</dim>
					<dim>1280</dim>
				</port>
			</output>
		</layer>
		<layer id="147" name="node_view_5" type="Reshape" version="opset1">
			<data special_zero="true" />
			<input>
				<port id="0" precision="FP32">
					<dim>1</dim>
					<dim>1500</dim>
					<dim>1280</dim>
				</port>
				<port id="1" precision="I64">
					<dim>4</dim>
				</port>
			</input>
			<output>
				<port id="2" precision="FP32" names="view_5">
					<dim>1</dim>
					<dim>1500</dim>
					<dim>20</dim>
					<dim>64</dim>
				</port>
			</output>
		</layer>
		<layer id="148" name="Constant_590" type="Const" version="opset1">
			<data element_type="i64" shape="4" offset="17943128" size="32" />
			<output>
				<port id="0" precision="I64">
					<dim>4</dim>
				</port>
			</output>
		</layer>
		<layer id="149" name="node_permute_6" type="Transpose" version="opset1">
			<input>
				<port id="0" precision="FP32">
					<dim>1</dim>
					<dim>1500</dim>
					<dim>20</dim>
					<dim>64</dim>
				</port>
				<port id="1" precision="I64">
					<dim>4</dim>
				</port>
			</input>
			<output>
				<port id="2" precision="FP32" names="permute_6">
					<dim>1</dim>
					<dim>20</dim>
					<dim>1500</dim>
					<dim>64</dim>
				</port>
			</output>
		</layer>
		<layer id="150" name="node_Reshape_104" type="Reshape" version="opset1">
			<data special_zero="true" />
			<input>
				<port id="0" precision="FP32">
					<dim>1</dim>
					<dim>20</dim>
					<dim>1500</dim>
					<dim>64</dim>
				</port>
				<port id="1" precision="I64">
					<dim>3</dim>
				</port>
			</input>
			<output>
				<port id="2" precision="FP32" names="val_110">
					<dim>20</dim>
					<dim>1500</dim>
					<dim>64</dim>
				</port>
			</output>
		</layer>
		<layer id="151" name="Constant_596" type="Const" version="opset1">
			<data element_type="i64" shape="3" offset="10818576" size="24" />
			<output>
				<port id="0" precision="I64">
					<dim>3</dim>
				</port>
			</output>
		</layer>
		<layer id="152" name="node_Transpose_105" type="Transpose" version="opset1">
			<input>
				<port id="0" precision="FP32">
					<dim>20</dim>
					<dim>1500</dim>
					<dim>64</dim>
				</port>
				<port id="1" precision="I64">
					<dim>3</dim>
				</port>
			</input>
			<output>
				<port id="2" precision="FP32" names="val_111">
					<dim>20</dim>
					<dim>64</dim>
					<dim>1500</dim>
				</port>
			</output>
		</layer>
		<layer id="153" name="node_Reshape_107" type="Reshape" version="opset1">
			<data special_zero="true" />
			<input>
				<port id="0" precision="FP32">
					<dim>20</dim>
					<dim>64</dim>
					<dim>1500</dim>
				</port>
				<port id="1" precision="I64">
					<dim>4</dim>
				</port>
			</input>
			<output>
				<port id="2" precision="FP32" names="val_113">
					<dim>1</dim>
					<dim>20</dim>
					<dim>64</dim>
					<dim>1500</dim>
				</port>
			</output>
		</layer>
		<layer id="154" name="node_Mul_112" type="Multiply" version="opset1">
			<data auto_broadcast="numpy" />
			<input>
				<port id="0" precision="FP32">
					<dim>1</dim>
					<dim>20</dim>
					<dim>64</dim>
					<dim>1500</dim>
				</port>
				<port id="1" precision="FP32">
					<dim>1</dim>
				</port>
			</input>
			<output>
				<port id="2" precision="FP32" names="val_118">
					<dim>1</dim>
					<dim>20</dim>
					<dim>64</dim>
					<dim>1500</dim>
				</port>
			</output>
		</layer>
		<layer id="155" name="node_MatMul_113" type="MatMul" version="opset1">
			<data transpose_a="false" transpose_b="false" />
			<input>
				<port id="0" precision="FP32">
					<dim>1</dim>
					<dim>20</dim>
					<dim>1500</dim>
					<dim>64</dim>
				</port>
				<port id="1" precision="FP32">
					<dim>1</dim>
					<dim>20</dim>
					<dim>64</dim>
					<dim>1500</dim>
				</port>
			</input>
			<output>
				<port id="2" precision="FP32" names="val_119">
					<dim>1</dim>
					<dim>20</dim>
					<dim>1500</dim>
					<dim>1500</dim>
				</port>
			</output>
		</layer>
		<layer id="156" name="node_Softmax_114" type="SoftMax" version="opset8">
			<data axis="-1" />
			<input>
				<port id="0" precision="FP32">
					<dim>1</dim>
					<dim>20</dim>
					<dim>1500</dim>
					<dim>1500</dim>
				</port>
			</input>
			<output>
				<port id="1" precision="FP32" names="val_120">
					<dim>1</dim>
					<dim>20</dim>
					<dim>1500</dim>
					<dim>1500</dim>
				</port>
			</output>
		</layer>
		<layer id="157" name="val_73_compressed" type="Const" version="opset1">
			<data element_type="f16" shape="1280, 1280" offset="60572362" size="3276800" />
			<output>
				<port id="0" precision="FP16" names="val_73">
					<dim>1280</dim>
					<dim>1280</dim>
				</port>
			</output>
		</layer>
		<layer id="158" name="val_73" type="Convert" version="opset1">
			<data destination_type="f32" />
			<rt_info>
				<attribute name="decompression" version="0" />
			</rt_info>
			<input>
				<port id="0" precision="FP16">
					<dim>1280</dim>
					<dim>1280</dim>
				</port>
			</input>
			<output>
				<port id="1" precision="FP32">
					<dim>1280</dim>
					<dim>1280</dim>
				</port>
			</output>
		</layer>
		<layer id="159" name="node_MatMul_68" type="MatMul" version="opset1">
			<data transpose_a="false" transpose_b="false" />
			<input>
				<port id="0" precision="FP32">
					<dim>1</dim>
					<dim>1500</dim>
					<dim>1280</dim>
				</port>
				<port id="1" precision="FP32">
					<dim>1280</dim>
					<dim>1280</dim>
				</port>
			</input>
			<output>
				<port id="2" precision="FP32" names="val_74">
					<dim>1</dim>
					<dim>1500</dim>
					<dim>1280</dim>
				</port>
			</output>
		</layer>
		<layer id="160" name="blocks.1.attn.value.bias_compressed" type="Const" version="opset1">
			<data element_type="f16" shape="1280" offset="63849162" size="2560" />
			<output>
				<port id="0" precision="FP16" names="blocks.1.attn.value.bias">
					<dim>1280</dim>
				</port>
			</output>
		</layer>
		<layer id="161" name="blocks.1.attn.value.bias" type="Convert" version="opset1">
			<data destination_type="f32" />
			<rt_info>
				<attribute name="decompression" version="0" />
			</rt_info>
			<input>
				<port id="0" precision="FP16">
					<dim>1280</dim>
				</port>
			</input>
			<output>
				<port id="1" precision="FP32">
					<dim>1280</dim>
				</port>
			</output>
		</layer>
		<layer id="162" name="node_linear_8" type="Add" version="opset1">
			<data auto_broadcast="numpy" />
			<input>
				<port id="0" precision="FP32">
					<dim>1</dim>
					<dim>1500</dim>
					<dim>1280</dim>
				</port>
				<port id="1" precision="FP32">
					<dim>1280</dim>
				</port>
			</input>
			<output>
				<port id="2" precision="FP32" names="linear_8">
					<dim>1</dim>
					<dim>1500</dim>
					<dim>1280</dim>
				</port>
			</output>
		</layer>
		<layer id="163" name="node_view_6" type="Reshape" version="opset1">
			<data special_zero="true" />
			<input>
				<port id="0" precision="FP32">
					<dim>1</dim>
					<dim>1500</dim>
					<dim>1280</dim>
				</port>
				<port id="1" precision="I64">
					<dim>4</dim>
				</port>
			</input>
			<output>
				<port id="2" precision="FP32" names="view_6">
					<dim>1</dim>
					<dim>1500</dim>
					<dim>20</dim>
					<dim>64</dim>
				</port>
			</output>
		</layer>
		<layer id="164" name="Constant_593" type="Const" version="opset1">
			<data element_type="i64" shape="4" offset="17943128" size="32" />
			<output>
				<port id="0" precision="I64">
					<dim>4</dim>
				</port>
			</output>
		</layer>
		<layer id="165" name="node_permute_7" type="Transpose" version="opset1">
			<input>
				<port id="0" precision="FP32">
					<dim>1</dim>
					<dim>1500</dim>
					<dim>20</dim>
					<dim>64</dim>
				</port>
				<port id="1" precision="I64">
					<dim>4</dim>
				</port>
			</input>
			<output>
				<port id="2" precision="FP32" names="permute_7">
					<dim>1</dim>
					<dim>20</dim>
					<dim>1500</dim>
					<dim>64</dim>
				</port>
			</output>
		</layer>
		<layer id="166" name="node_scaled_dot_product_attention_1" type="MatMul" version="opset1">
			<data transpose_a="false" transpose_b="false" />
			<input>
				<port id="0" precision="FP32">
					<dim>1</dim>
					<dim>20</dim>
					<dim>1500</dim>
					<dim>1500</dim>
				</port>
				<port id="1" precision="FP32">
					<dim>1</dim>
					<dim>20</dim>
					<dim>1500</dim>
					<dim>64</dim>
				</port>
			</input>
			<output>
				<port id="2" precision="FP32" names="scaled_dot_product_attention_1">
					<dim>1</dim>
					<dim>20</dim>
					<dim>1500</dim>
					<dim>64</dim>
				</port>
			</output>
		</layer>
		<layer id="167" name="Constant_604" type="Const" version="opset1">
			<data element_type="i64" shape="4" offset="17943128" size="32" />
			<output>
				<port id="0" precision="I64">
					<dim>4</dim>
				</port>
			</output>
		</layer>
		<layer id="168" name="node_permute_8" type="Transpose" version="opset1">
			<input>
				<port id="0" precision="FP32">
					<dim>1</dim>
					<dim>20</dim>
					<dim>1500</dim>
					<dim>64</dim>
				</port>
				<port id="1" precision="I64">
					<dim>4</dim>
				</port>
			</input>
			<output>
				<port id="2" precision="FP32" names="permute_8">
					<dim>1</dim>
					<dim>1500</dim>
					<dim>20</dim>
					<dim>64</dim>
				</port>
			</output>
		</layer>
		<layer id="169" name="node_view_7" type="Reshape" version="opset1">
			<data special_zero="true" />
			<input>
				<port id="0" precision="FP32">
					<dim>1</dim>
					<dim>1500</dim>
					<dim>20</dim>
					<dim>64</dim>
				</port>
				<port id="1" precision="I64">
					<dim>3</dim>
				</port>
			</input>
			<output>
				<port id="2" precision="FP32" names="view_7">
					<dim>1</dim>
					<dim>1500</dim>
					<dim>1280</dim>
				</port>
			</output>
		</layer>
		<layer id="170" name="val_126_compressed" type="Const" version="opset1">
			<data element_type="f16" shape="1280, 1280" offset="63851722" size="3276800" />
			<output>
				<port id="0" precision="FP16" names="val_126">
					<dim>1280</dim>
					<dim>1280</dim>
				</port>
			</output>
		</layer>
		<layer id="171" name="val_126" type="Convert" version="opset1">
			<data destination_type="f32" />
			<rt_info>
				<attribute name="decompression" version="0" />
			</rt_info>
			<input>
				<port id="0" precision="FP16">
					<dim>1280</dim>
					<dim>1280</dim>
				</port>
			</input>
			<output>
				<port id="1" precision="FP32">
					<dim>1280</dim>
					<dim>1280</dim>
				</port>
			</output>
		</layer>
		<layer id="172" name="node_MatMul_121" type="MatMul" version="opset1">
			<data transpose_a="false" transpose_b="false" />
			<input>
				<port id="0" precision="FP32">
					<dim>1</dim>
					<dim>1500</dim>
					<dim>1280</dim>
				</port>
				<port id="1" precision="FP32">
					<dim>1280</dim>
					<dim>1280</dim>
				</port>
			</input>
			<output>
				<port id="2" precision="FP32" names="val_127">
					<dim>1</dim>
					<dim>1500</dim>
					<dim>1280</dim>
				</port>
			</output>
		</layer>
		<layer id="173" name="blocks.1.attn.out.bias_compressed" type="Const" version="opset1">
			<data element_type="f16" shape="1280" offset="67128522" size="2560" />
			<output>
				<port id="0" precision="FP16" names="blocks.1.attn.out.bias">
					<dim>1280</dim>
				</port>
			</output>
		</layer>
		<layer id="174" name="blocks.1.attn.out.bias" type="Convert" version="opset1">
			<data destination_type="f32" />
			<rt_info>
				<attribute name="decompression" version="0" />
			</rt_info>
			<input>
				<port id="0" precision="FP16">
					<dim>1280</dim>
				</port>
			</input>
			<output>
				<port id="1" precision="FP32">
					<dim>1280</dim>
				</port>
			</output>
		</layer>
		<layer id="175" name="node_linear_9" type="Add" version="opset1">
			<data auto_broadcast="numpy" />
			<input>
				<port id="0" precision="FP32">
					<dim>1</dim>
					<dim>1500</dim>
					<dim>1280</dim>
				</port>
				<port id="1" precision="FP32">
					<dim>1280</dim>
				</port>
			</input>
			<output>
				<port id="2" precision="FP32" names="linear_9">
					<dim>1</dim>
					<dim>1500</dim>
					<dim>1280</dim>
				</port>
			</output>
		</layer>
		<layer id="176" name="node_add_3" type="Add" version="opset1">
			<data auto_broadcast="numpy" />
			<input>
				<port id="0" precision="FP32">
					<dim>1</dim>
					<dim>1500</dim>
					<dim>1280</dim>
				</port>
				<port id="1" precision="FP32">
					<dim>1</dim>
					<dim>1500</dim>
					<dim>1280</dim>
				</port>
			</input>
			<output>
				<port id="2" precision="FP32" names="add_3">
					<dim>1</dim>
					<dim>1500</dim>
					<dim>1280</dim>
				</port>
			</output>
		</layer>
		<layer id="177" name="Constant_612" type="Const" version="opset1">
			<data element_type="i64" shape="" offset="14658600" size="8" />
			<output>
				<port id="0" precision="I64" />
			</output>
		</layer>
		<layer id="178" name="Constant_611" type="Const" version="opset1">
			<data element_type="i64" shape="" offset="14658608" size="8" />
			<output>
				<port id="0" precision="I64" />
			</output>
		</layer>
		<layer id="179" name="Constant_610" type="Const" version="opset1">
			<data element_type="i64" shape="" offset="985600" size="8" />
			<output>
				<port id="0" precision="I64" />
			</output>
		</layer>
		<layer id="180" name="Range_613" type="Range" version="opset4">
			<data output_type="i64" />
			<input>
				<port id="0" precision="I64" />
				<port id="1" precision="I64" />
				<port id="2" precision="I64" />
			</input>
			<output>
				<port id="3" precision="I64">
					<dim>1</dim>
				</port>
			</output>
		</layer>
		<layer id="181" name="MVN_614" type="MVN" version="opset6">
			<data eps="9.9999997473787516e-06" normalize_variance="true" eps_mode="INSIDE_SQRT" />
			<input>
				<port id="0" precision="FP32">
					<dim>1</dim>
					<dim>1500</dim>
					<dim>1280</dim>
				</port>
				<port id="1" precision="I64">
					<dim>1</dim>
				</port>
			</input>
			<output>
				<port id="2" precision="FP32">
					<dim>1</dim>
					<dim>1500</dim>
					<dim>1280</dim>
				</port>
			</output>
		</layer>
		<layer id="182" name="blocks.1.mlp_ln.weight_compressed" type="Const" version="opset1">
			<data element_type="f16" shape="1280" offset="67131082" size="2560" />
			<output>
				<port id="0" precision="FP16" names="blocks.1.mlp_ln.weight">
					<dim>1280</dim>
				</port>
			</output>
		</layer>
		<layer id="183" name="blocks.1.mlp_ln.weight" type="Convert" version="opset1">
			<data destination_type="f32" />
			<rt_info>
				<attribute name="decompression" version="0" />
			</rt_info>
			<input>
				<port id="0" precision="FP16">
					<dim>1280</dim>
				</port>
			</input>
			<output>
				<port id="1" precision="FP32">
					<dim>1280</dim>
				</port>
			</output>
		</layer>
		<layer id="184" name="Multiply_615" type="Multiply" version="opset1">
			<data auto_broadcast="numpy" />
			<input>
				<port id="0" precision="FP32">
					<dim>1</dim>
					<dim>1500</dim>
					<dim>1280</dim>
				</port>
				<port id="1" precision="FP32">
					<dim>1280</dim>
				</port>
			</input>
			<output>
				<port id="2" precision="FP32">
					<dim>1</dim>
					<dim>1500</dim>
					<dim>1280</dim>
				</port>
			</output>
		</layer>
		<layer id="185" name="blocks.1.mlp_ln.bias_compressed" type="Const" version="opset1">
			<data element_type="f16" shape="1280" offset="67133642" size="2560" />
			<output>
				<port id="0" precision="FP16" names="blocks.1.mlp_ln.bias">
					<dim>1280</dim>
				</port>
			</output>
		</layer>
		<layer id="186" name="blocks.1.mlp_ln.bias" type="Convert" version="opset1">
			<data destination_type="f32" />
			<rt_info>
				<attribute name="decompression" version="0" />
			</rt_info>
			<input>
				<port id="0" precision="FP16">
					<dim>1280</dim>
				</port>
			</input>
			<output>
				<port id="1" precision="FP32">
					<dim>1280</dim>
				</port>
			</output>
		</layer>
		<layer id="187" name="node_layer_norm_3" type="Add" version="opset1">
			<data auto_broadcast="numpy" />
			<input>
				<port id="0" precision="FP32">
					<dim>1</dim>
					<dim>1500</dim>
					<dim>1280</dim>
				</port>
				<port id="1" precision="FP32">
					<dim>1280</dim>
				</port>
			</input>
			<output>
				<port id="2" precision="FP32" names="layer_norm_3">
					<dim>1</dim>
					<dim>1500</dim>
					<dim>1280</dim>
				</port>
			</output>
		</layer>
		<layer id="188" name="val_130_compressed" type="Const" version="opset1">
			<data element_type="f16" shape="1280, 5120" offset="67136202" size="13107200" />
			<output>
				<port id="0" precision="FP16" names="val_130">
					<dim>1280</dim>
					<dim>5120</dim>
				</port>
			</output>
		</layer>
		<layer id="189" name="val_130" type="Convert" version="opset1">
			<data destination_type="f32" />
			<rt_info>
				<attribute name="decompression" version="0" />
			</rt_info>
			<input>
				<port id="0" precision="FP16">
					<dim>1280</dim>
					<dim>5120</dim>
				</port>
			</input>
			<output>
				<port id="1" precision="FP32">
					<dim>1280</dim>
					<dim>5120</dim>
				</port>
			</output>
		</layer>
		<layer id="190" name="node_MatMul_123" type="MatMul" version="opset1">
			<data transpose_a="false" transpose_b="false" />
			<input>
				<port id="0" precision="FP32">
					<dim>1</dim>
					<dim>1500</dim>
					<dim>1280</dim>
				</port>
				<port id="1" precision="FP32">
					<dim>1280</dim>
					<dim>5120</dim>
				</port>
			</input>
			<output>
				<port id="2" precision="FP32" names="val_131">
					<dim>1</dim>
					<dim>1500</dim>
					<dim>5120</dim>
				</port>
			</output>
		</layer>
		<layer id="191" name="blocks.1.mlp.0.bias_compressed" type="Const" version="opset1">
			<data element_type="f16" shape="5120" offset="80243402" size="10240" />
			<output>
				<port id="0" precision="FP16" names="blocks.1.mlp.0.bias">
					<dim>5120</dim>
				</port>
			</output>
		</layer>
		<layer id="192" name="blocks.1.mlp.0.bias" type="Convert" version="opset1">
			<data destination_type="f32" />
			<rt_info>
				<attribute name="decompression" version="0" />
			</rt_info>
			<input>
				<port id="0" precision="FP16">
					<dim>5120</dim>
				</port>
			</input>
			<output>
				<port id="1" precision="FP32">
					<dim>5120</dim>
				</port>
			</output>
		</layer>
		<layer id="193" name="node_linear_10" type="Add" version="opset1">
			<data auto_broadcast="numpy" />
			<input>
				<port id="0" precision="FP32">
					<dim>1</dim>
					<dim>1500</dim>
					<dim>5120</dim>
				</port>
				<port id="1" precision="FP32">
					<dim>5120</dim>
				</port>
			</input>
			<output>
				<port id="2" precision="FP32" names="linear_10">
					<dim>1</dim>
					<dim>1500</dim>
					<dim>5120</dim>
				</port>
			</output>
		</layer>
		<layer id="194" name="node_gelu_3" type="Gelu" version="opset7">
			<data approximation_mode="ERF" />
			<input>
				<port id="0" precision="FP32">
					<dim>1</dim>
					<dim>1500</dim>
					<dim>5120</dim>
				</port>
			</input>
			<output>
				<port id="1" precision="FP32" names="gelu_3">
					<dim>1</dim>
					<dim>1500</dim>
					<dim>5120</dim>
				</port>
			</output>
		</layer>
		<layer id="195" name="val_132_compressed" type="Const" version="opset1">
			<data element_type="f16" shape="5120, 1280" offset="80253642" size="13107200" />
			<output>
				<port id="0" precision="FP16" names="val_132">
					<dim>5120</dim>
					<dim>1280</dim>
				</port>
			</output>
		</layer>
		<layer id="196" name="val_132" type="Convert" version="opset1">
			<data destination_type="f32" />
			<rt_info>
				<attribute name="decompression" version="0" />
			</rt_info>
			<input>
				<port id="0" precision="FP16">
					<dim>5120</dim>
					<dim>1280</dim>
				</port>
			</input>
			<output>
				<port id="1" precision="FP32">
					<dim>5120</dim>
					<dim>1280</dim>
				</port>
			</output>
		</layer>
		<layer id="197" name="node_MatMul_125" type="MatMul" version="opset1">
			<data transpose_a="false" transpose_b="false" />
			<input>
				<port id="0" precision="FP32">
					<dim>1</dim>
					<dim>1500</dim>
					<dim>5120</dim>
				</port>
				<port id="1" precision="FP32">
					<dim>5120</dim>
					<dim>1280</dim>
				</port>
			</input>
			<output>
				<port id="2" precision="FP32" names="val_133">
					<dim>1</dim>
					<dim>1500</dim>
					<dim>1280</dim>
				</port>
			</output>
		</layer>
		<layer id="198" name="blocks.1.mlp.2.bias_compressed" type="Const" version="opset1">
			<data element_type="f16" shape="1280" offset="93360842" size="2560" />
			<output>
				<port id="0" precision="FP16" names="blocks.1.mlp.2.bias">
					<dim>1280</dim>
				</port>
			</output>
		</layer>
		<layer id="199" name="blocks.1.mlp.2.bias" type="Convert" version="opset1">
			<data destination_type="f32" />
			<rt_info>
				<attribute name="decompression" version="0" />
			</rt_info>
			<input>
				<port id="0" precision="FP16">
					<dim>1280</dim>
				</port>
			</input>
			<output>
				<port id="1" precision="FP32">
					<dim>1280</dim>
				</port>
			</output>
		</layer>
		<layer id="200" name="node_linear_11" type="Add" version="opset1">
			<data auto_broadcast="numpy" />
			<input>
				<port id="0" precision="FP32">
					<dim>1</dim>
					<dim>1500</dim>
					<dim>1280</dim>
				</port>
				<port id="1" precision="FP32">
					<dim>1280</dim>
				</port>
			</input>
			<output>
				<port id="2" precision="FP32" names="linear_11">
					<dim>1</dim>
					<dim>1500</dim>
					<dim>1280</dim>
				</port>
			</output>
		</layer>
		<layer id="201" name="node_add_4" type="Add" version="opset1">
			<data auto_broadcast="numpy" />
			<input>
				<port id="0" precision="FP32">
					<dim>1</dim>
					<dim>1500</dim>
					<dim>1280</dim>
				</port>
				<port id="1" precision="FP32">
					<dim>1</dim>
					<dim>1500</dim>
					<dim>1280</dim>
				</port>
			</input>
			<output>
				<port id="2" precision="FP32" names="add_4">
					<dim>1</dim>
					<dim>1500</dim>
					<dim>1280</dim>
				</port>
			</output>
		</layer>
		<layer id="202" name="Constant_625" type="Const" version="opset1">
			<data element_type="i64" shape="" offset="14658600" size="8" />
			<output>
				<port id="0" precision="I64" />
			</output>
		</layer>
		<layer id="203" name="Constant_624" type="Const" version="opset1">
			<data element_type="i64" shape="" offset="14658608" size="8" />
			<output>
				<port id="0" precision="I64" />
			</output>
		</layer>
		<layer id="204" name="Constant_623" type="Const" version="opset1">
			<data element_type="i64" shape="" offset="985600" size="8" />
			<output>
				<port id="0" precision="I64" />
			</output>
		</layer>
		<layer id="205" name="Range_626" type="Range" version="opset4">
			<data output_type="i64" />
			<input>
				<port id="0" precision="I64" />
				<port id="1" precision="I64" />
				<port id="2" precision="I64" />
			</input>
			<output>
				<port id="3" precision="I64">
					<dim>1</dim>
				</port>
			</output>
		</layer>
		<layer id="206" name="MVN_627" type="MVN" version="opset6">
			<data eps="9.9999997473787516e-06" normalize_variance="true" eps_mode="INSIDE_SQRT" />
			<input>
				<port id="0" precision="FP32">
					<dim>1</dim>
					<dim>1500</dim>
					<dim>1280</dim>
				</port>
				<port id="1" precision="I64">
					<dim>1</dim>
				</port>
			</input>
			<output>
				<port id="2" precision="FP32">
					<dim>1</dim>
					<dim>1500</dim>
					<dim>1280</dim>
				</port>
			</output>
		</layer>
		<layer id="207" name="blocks.2.attn_ln.weight_compressed" type="Const" version="opset1">
			<data element_type="f16" shape="1280" offset="93363402" size="2560" />
			<output>
				<port id="0" precision="FP16" names="blocks.2.attn_ln.weight">
					<dim>1280</dim>
				</port>
			</output>
		</layer>
		<layer id="208" name="blocks.2.attn_ln.weight" type="Convert" version="opset1">
			<data destination_type="f32" />
			<rt_info>
				<attribute name="decompression" version="0" />
			</rt_info>
			<input>
				<port id="0" precision="FP16">
					<dim>1280</dim>
				</port>
			</input>
			<output>
				<port id="1" precision="FP32">
					<dim>1280</dim>
				</port>
			</output>
		</layer>
		<layer id="209" name="Multiply_628" type="Multiply" version="opset1">
			<data auto_broadcast="numpy" />
			<input>
				<port id="0" precision="FP32">
					<dim>1</dim>
					<dim>1500</dim>
					<dim>1280</dim>
				</port>
				<port id="1" precision="FP32">
					<dim>1280</dim>
				</port>
			</input>
			<output>
				<port id="2" precision="FP32">
					<dim>1</dim>
					<dim>1500</dim>
					<dim>1280</dim>
				</port>
			</output>
		</layer>
		<layer id="210" name="blocks.2.attn_ln.bias_compressed" type="Const" version="opset1">
			<data element_type="f16" shape="1280" offset="93365962" size="2560" />
			<output>
				<port id="0" precision="FP16" names="blocks.2.attn_ln.bias">
					<dim>1280</dim>
				</port>
			</output>
		</layer>
		<layer id="211" name="blocks.2.attn_ln.bias" type="Convert" version="opset1">
			<data destination_type="f32" />
			<rt_info>
				<attribute name="decompression" version="0" />
			</rt_info>
			<input>
				<port id="0" precision="FP16">
					<dim>1280</dim>
				</port>
			</input>
			<output>
				<port id="1" precision="FP32">
					<dim>1280</dim>
				</port>
			</output>
		</layer>
		<layer id="212" name="node_layer_norm_4" type="Add" version="opset1">
			<data auto_broadcast="numpy" />
			<input>
				<port id="0" precision="FP32">
					<dim>1</dim>
					<dim>1500</dim>
					<dim>1280</dim>
				</port>
				<port id="1" precision="FP32">
					<dim>1280</dim>
				</port>
			</input>
			<output>
				<port id="2" precision="FP32" names="layer_norm_4">
					<dim>1</dim>
					<dim>1500</dim>
					<dim>1280</dim>
				</port>
			</output>
		</layer>
		<layer id="213" name="val_136_compressed" type="Const" version="opset1">
			<data element_type="f16" shape="1280, 1280" offset="93368522" size="3276800" />
			<output>
				<port id="0" precision="FP16" names="val_136">
					<dim>1280</dim>
					<dim>1280</dim>
				</port>
			</output>
		</layer>
		<layer id="214" name="val_136" type="Convert" version="opset1">
			<data destination_type="f32" />
			<rt_info>
				<attribute name="decompression" version="0" />
			</rt_info>
			<input>
				<port id="0" precision="FP16">
					<dim>1280</dim>
					<dim>1280</dim>
				</port>
			</input>
			<output>
				<port id="1" precision="FP32">
					<dim>1280</dim>
					<dim>1280</dim>
				</port>
			</output>
		</layer>
		<layer id="215" name="node_MatMul_127" type="MatMul" version="opset1">
			<data transpose_a="false" transpose_b="false" />
			<input>
				<port id="0" precision="FP32">
					<dim>1</dim>
					<dim>1500</dim>
					<dim>1280</dim>
				</port>
				<port id="1" precision="FP32">
					<dim>1280</dim>
					<dim>1280</dim>
				</port>
			</input>
			<output>
				<port id="2" precision="FP32" names="val_137">
					<dim>1</dim>
					<dim>1500</dim>
					<dim>1280</dim>
				</port>
			</output>
		</layer>
		<layer id="216" name="blocks.2.attn.query.bias_compressed" type="Const" version="opset1">
			<data element_type="f16" shape="1280" offset="96645322" size="2560" />
			<output>
				<port id="0" precision="FP16" names="blocks.2.attn.query.bias">
					<dim>1280</dim>
				</port>
			</output>
		</layer>
		<layer id="217" name="blocks.2.attn.query.bias" type="Convert" version="opset1">
			<data destination_type="f32" />
			<rt_info>
				<attribute name="decompression" version="0" />
			</rt_info>
			<input>
				<port id="0" precision="FP16">
					<dim>1280</dim>
				</port>
			</input>
			<output>
				<port id="1" precision="FP32">
					<dim>1280</dim>
				</port>
			</output>
		</layer>
		<layer id="218" name="node_linear_12" type="Add" version="opset1">
			<data auto_broadcast="numpy" />
			<input>
				<port id="0" precision="FP32">
					<dim>1</dim>
					<dim>1500</dim>
					<dim>1280</dim>
				</port>
				<port id="1" precision="FP32">
					<dim>1280</dim>
				</port>
			</input>
			<output>
				<port id="2" precision="FP32" names="linear_12">
					<dim>1</dim>
					<dim>1500</dim>
					<dim>1280</dim>
				</port>
			</output>
		</layer>
		<layer id="219" name="node_view_8" type="Reshape" version="opset1">
			<data special_zero="true" />
			<input>
				<port id="0" precision="FP32">
					<dim>1</dim>
					<dim>1500</dim>
					<dim>1280</dim>
				</port>
				<port id="1" precision="I64">
					<dim>4</dim>
				</port>
			</input>
			<output>
				<port id="2" precision="FP32" names="view_8">
					<dim>1</dim>
					<dim>1500</dim>
					<dim>20</dim>
					<dim>64</dim>
				</port>
			</output>
		</layer>
		<layer id="220" name="Constant_636" type="Const" version="opset1">
			<data element_type="i64" shape="4" offset="17943128" size="32" />
			<output>
				<port id="0" precision="I64">
					<dim>4</dim>
				</port>
			</output>
		</layer>
		<layer id="221" name="node_permute_9" type="Transpose" version="opset1">
			<input>
				<port id="0" precision="FP32">
					<dim>1</dim>
					<dim>1500</dim>
					<dim>20</dim>
					<dim>64</dim>
				</port>
				<port id="1" precision="I64">
					<dim>4</dim>
				</port>
			</input>
			<output>
				<port id="2" precision="FP32" names="permute_9">
					<dim>1</dim>
					<dim>20</dim>
					<dim>1500</dim>
					<dim>64</dim>
				</port>
			</output>
		</layer>
		<layer id="222" name="node_Mul_171" type="Multiply" version="opset1">
			<data auto_broadcast="numpy" />
			<input>
				<port id="0" precision="FP32">
					<dim>1</dim>
					<dim>20</dim>
					<dim>1500</dim>
					<dim>64</dim>
				</port>
				<port id="1" precision="FP32">
					<dim>1</dim>
				</port>
			</input>
			<output>
				<port id="2" precision="FP32" names="val_181">
					<dim>1</dim>
					<dim>20</dim>
					<dim>1500</dim>
					<dim>64</dim>
				</port>
			</output>
		</layer>
		<layer id="223" name="val_138_compressed" type="Const" version="opset1">
			<data element_type="f16" shape="1280, 1280" offset="96647882" size="3276800" />
			<output>
				<port id="0" precision="FP16" names="val_138">
					<dim>1280</dim>
					<dim>1280</dim>
				</port>
			</output>
		</layer>
		<layer id="224" name="val_138" type="Convert" version="opset1">
			<data destination_type="f32" />
			<rt_info>
				<attribute name="decompression" version="0" />
			</rt_info>
			<input>
				<port id="0" precision="FP16">
					<dim>1280</dim>
					<dim>1280</dim>
				</port>
			</input>
			<output>
				<port id="1" precision="FP32">
					<dim>1280</dim>
					<dim>1280</dim>
				</port>
			</output>
		</layer>
		<layer id="225" name="node_linear_13" type="MatMul" version="opset1">
			<data transpose_a="false" transpose_b="false" />
			<input>
				<port id="0" precision="FP32">
					<dim>1</dim>
					<dim>1500</dim>
					<dim>1280</dim>
				</port>
				<port id="1" precision="FP32">
					<dim>1280</dim>
					<dim>1280</dim>
				</port>
			</input>
			<output>
				<port id="2" precision="FP32" names="linear_13">
					<dim>1</dim>
					<dim>1500</dim>
					<dim>1280</dim>
				</port>
			</output>
		</layer>
		<layer id="226" name="node_view_9" type="Reshape" version="opset1">
			<data special_zero="true" />
			<input>
				<port id="0" precision="FP32">
					<dim>1</dim>
					<dim>1500</dim>
					<dim>1280</dim>
				</port>
				<port id="1" precision="I64">
					<dim>4</dim>
				</port>
			</input>
			<output>
				<port id="2" precision="FP32" names="view_9">
					<dim>1</dim>
					<dim>1500</dim>
					<dim>20</dim>
					<dim>64</dim>
				</port>
			</output>
		</layer>
		<layer id="227" name="Constant_639" type="Const" version="opset1">
			<data element_type="i64" shape="4" offset="17943128" size="32" />
			<output>
				<port id="0" precision="I64">
					<dim>4</dim>
				</port>
			</output>
		</layer>
		<layer id="228" name="node_permute_10" type="Transpose" version="opset1">
			<input>
				<port id="0" precision="FP32">
					<dim>1</dim>
					<dim>1500</dim>
					<dim>20</dim>
					<dim>64</dim>
				</port>
				<port id="1" precision="I64">
					<dim>4</dim>
				</port>
			</input>
			<output>
				<port id="2" precision="FP32" names="permute_10">
					<dim>1</dim>
					<dim>20</dim>
					<dim>1500</dim>
					<dim>64</dim>
				</port>
			</output>
		</layer>
		<layer id="229" name="node_Reshape_166" type="Reshape" version="opset1">
			<data special_zero="true" />
			<input>
				<port id="0" precision="FP32">
					<dim>1</dim>
					<dim>20</dim>
					<dim>1500</dim>
					<dim>64</dim>
				</port>
				<port id="1" precision="I64">
					<dim>3</dim>
				</port>
			</input>
			<output>
				<port id="2" precision="FP32" names="val_176">
					<dim>20</dim>
					<dim>1500</dim>
					<dim>64</dim>
				</port>
			</output>
		</layer>
		<layer id="230" name="Constant_645" type="Const" version="opset1">
			<data element_type="i64" shape="3" offset="10818576" size="24" />
			<output>
				<port id="0" precision="I64">
					<dim>3</dim>
				</port>
			</output>
		</layer>
		<layer id="231" name="node_Transpose_167" type="Transpose" version="opset1">
			<input>
				<port id="0" precision="FP32">
					<dim>20</dim>
					<dim>1500</dim>
					<dim>64</dim>
				</port>
				<port id="1" precision="I64">
					<dim>3</dim>
				</port>
			</input>
			<output>
				<port id="2" precision="FP32" names="val_177">
					<dim>20</dim>
					<dim>64</dim>
					<dim>1500</dim>
				</port>
			</output>
		</layer>
		<layer id="232" name="node_Reshape_169" type="Reshape" version="opset1">
			<data special_zero="true" />
			<input>
				<port id="0" precision="FP32">
					<dim>20</dim>
					<dim>64</dim>
					<dim>1500</dim>
				</port>
				<port id="1" precision="I64">
					<dim>4</dim>
				</port>
			</input>
			<output>
				<port id="2" precision="FP32" names="val_179">
					<dim>1</dim>
					<dim>20</dim>
					<dim>64</dim>
					<dim>1500</dim>
				</port>
			</output>
		</layer>
		<layer id="233" name="node_Mul_174" type="Multiply" version="opset1">
			<data auto_broadcast="numpy" />
			<input>
				<port id="0" precision="FP32">
					<dim>1</dim>
					<dim>20</dim>
					<dim>64</dim>
					<dim>1500</dim>
				</port>
				<port id="1" precision="FP32">
					<dim>1</dim>
				</port>
			</input>
			<output>
				<port id="2" precision="FP32" names="val_184">
					<dim>1</dim>
					<dim>20</dim>
					<dim>64</dim>
					<dim>1500</dim>
				</port>
			</output>
		</layer>
		<layer id="234" name="node_MatMul_175" type="MatMul" version="opset1">
			<data transpose_a="false" transpose_b="false" />
			<input>
				<port id="0" precision="FP32">
					<dim>1</dim>
					<dim>20</dim>
					<dim>1500</dim>
					<dim>64</dim>
				</port>
				<port id="1" precision="FP32">
					<dim>1</dim>
					<dim>20</dim>
					<dim>64</dim>
					<dim>1500</dim>
				</port>
			</input>
			<output>
				<port id="2" precision="FP32" names="val_185">
					<dim>1</dim>
					<dim>20</dim>
					<dim>1500</dim>
					<dim>1500</dim>
				</port>
			</output>
		</layer>
		<layer id="235" name="node_Softmax_176" type="SoftMax" version="opset8">
			<data axis="-1" />
			<input>
				<port id="0" precision="FP32">
					<dim>1</dim>
					<dim>20</dim>
					<dim>1500</dim>
					<dim>1500</dim>
				</port>
			</input>
			<output>
				<port id="1" precision="FP32" names="val_186">
					<dim>1</dim>
					<dim>20</dim>
					<dim>1500</dim>
					<dim>1500</dim>
				</port>
			</output>
		</layer>
		<layer id="236" name="val_139_compressed" type="Const" version="opset1">
			<data element_type="f16" shape="1280, 1280" offset="99924682" size="3276800" />
			<output>
				<port id="0" precision="FP16" names="val_139">
					<dim>1280</dim>
					<dim>1280</dim>
				</port>
			</output>
		</layer>
		<layer id="237" name="val_139" type="Convert" version="opset1">
			<data destination_type="f32" />
			<rt_info>
				<attribute name="decompression" version="0" />
			</rt_info>
			<input>
				<port id="0" precision="FP16">
					<dim>1280</dim>
					<dim>1280</dim>
				</port>
			</input>
			<output>
				<port id="1" precision="FP32">
					<dim>1280</dim>
					<dim>1280</dim>
				</port>
			</output>
		</layer>
		<layer id="238" name="node_MatMul_130" type="MatMul" version="opset1">
			<data transpose_a="false" transpose_b="false" />
			<input>
				<port id="0" precision="FP32">
					<dim>1</dim>
					<dim>1500</dim>
					<dim>1280</dim>
				</port>
				<port id="1" precision="FP32">
					<dim>1280</dim>
					<dim>1280</dim>
				</port>
			</input>
			<output>
				<port id="2" precision="FP32" names="val_140">
					<dim>1</dim>
					<dim>1500</dim>
					<dim>1280</dim>
				</port>
			</output>
		</layer>
		<layer id="239" name="blocks.2.attn.value.bias_compressed" type="Const" version="opset1">
			<data element_type="f16" shape="1280" offset="103201482" size="2560" />
			<output>
				<port id="0" precision="FP16" names="blocks.2.attn.value.bias">
					<dim>1280</dim>
				</port>
			</output>
		</layer>
		<layer id="240" name="blocks.2.attn.value.bias" type="Convert" version="opset1">
			<data destination_type="f32" />
			<rt_info>
				<attribute name="decompression" version="0" />
			</rt_info>
			<input>
				<port id="0" precision="FP16">
					<dim>1280</dim>
				</port>
			</input>
			<output>
				<port id="1" precision="FP32">
					<dim>1280</dim>
				</port>
			</output>
		</layer>
		<layer id="241" name="node_linear_14" type="Add" version="opset1">
			<data auto_broadcast="numpy" />
			<input>
				<port id="0" precision="FP32">
					<dim>1</dim>
					<dim>1500</dim>
					<dim>1280</dim>
				</port>
				<port id="1" precision="FP32">
					<dim>1280</dim>
				</port>
			</input>
			<output>
				<port id="2" precision="FP32" names="linear_14">
					<dim>1</dim>
					<dim>1500</dim>
					<dim>1280</dim>
				</port>
			</output>
		</layer>
		<layer id="242" name="node_view_10" type="Reshape" version="opset1">
			<data special_zero="true" />
			<input>
				<port id="0" precision="FP32">
					<dim>1</dim>
					<dim>1500</dim>
					<dim>1280</dim>
				</port>
				<port id="1" precision="I64">
					<dim>4</dim>
				</port>
			</input>
			<output>
				<port id="2" precision="FP32" names="view_10">
					<dim>1</dim>
					<dim>1500</dim>
					<dim>20</dim>
					<dim>64</dim>
				</port>
			</output>
		</layer>
		<layer id="243" name="Constant_642" type="Const" version="opset1">
			<data element_type="i64" shape="4" offset="17943128" size="32" />
			<output>
				<port id="0" precision="I64">
					<dim>4</dim>
				</port>
			</output>
		</layer>
		<layer id="244" name="node_permute_11" type="Transpose" version="opset1">
			<input>
				<port id="0" precision="FP32">
					<dim>1</dim>
					<dim>1500</dim>
					<dim>20</dim>
					<dim>64</dim>
				</port>
				<port id="1" precision="I64">
					<dim>4</dim>
				</port>
			</input>
			<output>
				<port id="2" precision="FP32" names="permute_11">
					<dim>1</dim>
					<dim>20</dim>
					<dim>1500</dim>
					<dim>64</dim>
				</port>
			</output>
		</layer>
		<layer id="245" name="node_scaled_dot_product_attention_2" type="MatMul" version="opset1">
			<data transpose_a="false" transpose_b="false" />
			<input>
				<port id="0" precision="FP32">
					<dim>1</dim>
					<dim>20</dim>
					<dim>1500</dim>
					<dim>1500</dim>
				</port>
				<port id="1" precision="FP32">
					<dim>1</dim>
					<dim>20</dim>
					<dim>1500</dim>
					<dim>64</dim>
				</port>
			</input>
			<output>
				<port id="2" precision="FP32" names="scaled_dot_product_attention_2">
					<dim>1</dim>
					<dim>20</dim>
					<dim>1500</dim>
					<dim>64</dim>
				</port>
			</output>
		</layer>
		<layer id="246" name="Constant_653" type="Const" version="opset1">
			<data element_type="i64" shape="4" offset="17943128" size="32" />
			<output>
				<port id="0" precision="I64">
					<dim>4</dim>
				</port>
			</output>
		</layer>
		<layer id="247" name="node_permute_12" type="Transpose" version="opset1">
			<input>
				<port id="0" precision="FP32">
					<dim>1</dim>
					<dim>20</dim>
					<dim>1500</dim>
					<dim>64</dim>
				</port>
				<port id="1" precision="I64">
					<dim>4</dim>
				</port>
			</input>
			<output>
				<port id="2" precision="FP32" names="permute_12">
					<dim>1</dim>
					<dim>1500</dim>
					<dim>20</dim>
					<dim>64</dim>
				</port>
			</output>
		</layer>
		<layer id="248" name="node_view_11" type="Reshape" version="opset1">
			<data special_zero="true" />
			<input>
				<port id="0" precision="FP32">
					<dim>1</dim>
					<dim>1500</dim>
					<dim>20</dim>
					<dim>64</dim>
				</port>
				<port id="1" precision="I64">
					<dim>3</dim>
				</port>
			</input>
			<output>
				<port id="2" precision="FP32" names="view_11">
					<dim>1</dim>
					<dim>1500</dim>
					<dim>1280</dim>
				</port>
			</output>
		</layer>
		<layer id="249" name="val_192_compressed" type="Const" version="opset1">
			<data element_type="f16" shape="1280, 1280" offset="103204042" size="3276800" />
			<output>
				<port id="0" precision="FP16" names="val_192">
					<dim>1280</dim>
					<dim>1280</dim>
				</port>
			</output>
		</layer>
		<layer id="250" name="val_192" type="Convert" version="opset1">
			<data destination_type="f32" />
			<rt_info>
				<attribute name="decompression" version="0" />
			</rt_info>
			<input>
				<port id="0" precision="FP16">
					<dim>1280</dim>
					<dim>1280</dim>
				</port>
			</input>
			<output>
				<port id="1" precision="FP32">
					<dim>1280</dim>
					<dim>1280</dim>
				</port>
			</output>
		</layer>
		<layer id="251" name="node_MatMul_183" type="MatMul" version="opset1">
			<data transpose_a="false" transpose_b="false" />
			<input>
				<port id="0" precision="FP32">
					<dim>1</dim>
					<dim>1500</dim>
					<dim>1280</dim>
				</port>
				<port id="1" precision="FP32">
					<dim>1280</dim>
					<dim>1280</dim>
				</port>
			</input>
			<output>
				<port id="2" precision="FP32" names="val_193">
					<dim>1</dim>
					<dim>1500</dim>
					<dim>1280</dim>
				</port>
			</output>
		</layer>
		<layer id="252" name="blocks.2.attn.out.bias_compressed" type="Const" version="opset1">
			<data element_type="f16" shape="1280" offset="106480842" size="2560" />
			<output>
				<port id="0" precision="FP16" names="blocks.2.attn.out.bias">
					<dim>1280</dim>
				</port>
			</output>
		</layer>
		<layer id="253" name="blocks.2.attn.out.bias" type="Convert" version="opset1">
			<data destination_type="f32" />
			<rt_info>
				<attribute name="decompression" version="0" />
			</rt_info>
			<input>
				<port id="0" precision="FP16">
					<dim>1280</dim>
				</port>
			</input>
			<output>
				<port id="1" precision="FP32">
					<dim>1280</dim>
				</port>
			</output>
		</layer>
		<layer id="254" name="node_linear_15" type="Add" version="opset1">
			<data auto_broadcast="numpy" />
			<input>
				<port id="0" precision="FP32">
					<dim>1</dim>
					<dim>1500</dim>
					<dim>1280</dim>
				</port>
				<port id="1" precision="FP32">
					<dim>1280</dim>
				</port>
			</input>
			<output>
				<port id="2" precision="FP32" names="linear_15">
					<dim>1</dim>
					<dim>1500</dim>
					<dim>1280</dim>
				</port>
			</output>
		</layer>
		<layer id="255" name="node_add_5" type="Add" version="opset1">
			<data auto_broadcast="numpy" />
			<input>
				<port id="0" precision="FP32">
					<dim>1</dim>
					<dim>1500</dim>
					<dim>1280</dim>
				</port>
				<port id="1" precision="FP32">
					<dim>1</dim>
					<dim>1500</dim>
					<dim>1280</dim>
				</port>
			</input>
			<output>
				<port id="2" precision="FP32" names="add_5">
					<dim>1</dim>
					<dim>1500</dim>
					<dim>1280</dim>
				</port>
			</output>
		</layer>
		<layer id="256" name="Constant_661" type="Const" version="opset1">
			<data element_type="i64" shape="" offset="14658600" size="8" />
			<output>
				<port id="0" precision="I64" />
			</output>
		</layer>
		<layer id="257" name="Constant_660" type="Const" version="opset1">
			<data element_type="i64" shape="" offset="14658608" size="8" />
			<output>
				<port id="0" precision="I64" />
			</output>
		</layer>
		<layer id="258" name="Constant_659" type="Const" version="opset1">
			<data element_type="i64" shape="" offset="985600" size="8" />
			<output>
				<port id="0" precision="I64" />
			</output>
		</layer>
		<layer id="259" name="Range_662" type="Range" version="opset4">
			<data output_type="i64" />
			<input>
				<port id="0" precision="I64" />
				<port id="1" precision="I64" />
				<port id="2" precision="I64" />
			</input>
			<output>
				<port id="3" precision="I64">
					<dim>1</dim>
				</port>
			</output>
		</layer>
		<layer id="260" name="MVN_663" type="MVN" version="opset6">
			<data eps="9.9999997473787516e-06" normalize_variance="true" eps_mode="INSIDE_SQRT" />
			<input>
				<port id="0" precision="FP32">
					<dim>1</dim>
					<dim>1500</dim>
					<dim>1280</dim>
				</port>
				<port id="1" precision="I64">
					<dim>1</dim>
				</port>
			</input>
			<output>
				<port id="2" precision="FP32">
					<dim>1</dim>
					<dim>1500</dim>
					<dim>1280</dim>
				</port>
			</output>
		</layer>
		<layer id="261" name="blocks.2.mlp_ln.weight_compressed" type="Const" version="opset1">
			<data element_type="f16" shape="1280" offset="106483402" size="2560" />
			<output>
				<port id="0" precision="FP16" names="blocks.2.mlp_ln.weight">
					<dim>1280</dim>
				</port>
			</output>
		</layer>
		<layer id="262" name="blocks.2.mlp_ln.weight" type="Convert" version="opset1">
			<data destination_type="f32" />
			<rt_info>
				<attribute name="decompression" version="0" />
			</rt_info>
			<input>
				<port id="0" precision="FP16">
					<dim>1280</dim>
				</port>
			</input>
			<output>
				<port id="1" precision="FP32">
					<dim>1280</dim>
				</port>
			</output>
		</layer>
		<layer id="263" name="Multiply_664" type="Multiply" version="opset1">
			<data auto_broadcast="numpy" />
			<input>
				<port id="0" precision="FP32">
					<dim>1</dim>
					<dim>1500</dim>
					<dim>1280</dim>
				</port>
				<port id="1" precision="FP32">
					<dim>1280</dim>
				</port>
			</input>
			<output>
				<port id="2" precision="FP32">
					<dim>1</dim>
					<dim>1500</dim>
					<dim>1280</dim>
				</port>
			</output>
		</layer>
		<layer id="264" name="blocks.2.mlp_ln.bias_compressed" type="Const" version="opset1">
			<data element_type="f16" shape="1280" offset="106485962" size="2560" />
			<output>
				<port id="0" precision="FP16" names="blocks.2.mlp_ln.bias">
					<dim>1280</dim>
				</port>
			</output>
		</layer>
		<layer id="265" name="blocks.2.mlp_ln.bias" type="Convert" version="opset1">
			<data destination_type="f32" />
			<rt_info>
				<attribute name="decompression" version="0" />
			</rt_info>
			<input>
				<port id="0" precision="FP16">
					<dim>1280</dim>
				</port>
			</input>
			<output>
				<port id="1" precision="FP32">
					<dim>1280</dim>
				</port>
			</output>
		</layer>
		<layer id="266" name="node_layer_norm_5" type="Add" version="opset1">
			<data auto_broadcast="numpy" />
			<input>
				<port id="0" precision="FP32">
					<dim>1</dim>
					<dim>1500</dim>
					<dim>1280</dim>
				</port>
				<port id="1" precision="FP32">
					<dim>1280</dim>
				</port>
			</input>
			<output>
				<port id="2" precision="FP32" names="layer_norm_5">
					<dim>1</dim>
					<dim>1500</dim>
					<dim>1280</dim>
				</port>
			</output>
		</layer>
		<layer id="267" name="val_196_compressed" type="Const" version="opset1">
			<data element_type="f16" shape="1280, 5120" offset="106488522" size="13107200" />
			<output>
				<port id="0" precision="FP16" names="val_196">
					<dim>1280</dim>
					<dim>5120</dim>
				</port>
			</output>
		</layer>
		<layer id="268" name="val_196" type="Convert" version="opset1">
			<data destination_type="f32" />
			<rt_info>
				<attribute name="decompression" version="0" />
			</rt_info>
			<input>
				<port id="0" precision="FP16">
					<dim>1280</dim>
					<dim>5120</dim>
				</port>
			</input>
			<output>
				<port id="1" precision="FP32">
					<dim>1280</dim>
					<dim>5120</dim>
				</port>
			</output>
		</layer>
		<layer id="269" name="node_MatMul_185" type="MatMul" version="opset1">
			<data transpose_a="false" transpose_b="false" />
			<input>
				<port id="0" precision="FP32">
					<dim>1</dim>
					<dim>1500</dim>
					<dim>1280</dim>
				</port>
				<port id="1" precision="FP32">
					<dim>1280</dim>
					<dim>5120</dim>
				</port>
			</input>
			<output>
				<port id="2" precision="FP32" names="val_197">
					<dim>1</dim>
					<dim>1500</dim>
					<dim>5120</dim>
				</port>
			</output>
		</layer>
		<layer id="270" name="blocks.2.mlp.0.bias_compressed" type="Const" version="opset1">
			<data element_type="f16" shape="5120" offset="119595722" size="10240" />
			<output>
				<port id="0" precision="FP16" names="blocks.2.mlp.0.bias">
					<dim>5120</dim>
				</port>
			</output>
		</layer>
		<layer id="271" name="blocks.2.mlp.0.bias" type="Convert" version="opset1">
			<data destination_type="f32" />
			<rt_info>
				<attribute name="decompression" version="0" />
			</rt_info>
			<input>
				<port id="0" precision="FP16">
					<dim>5120</dim>
				</port>
			</input>
			<output>
				<port id="1" precision="FP32">
					<dim>5120</dim>
				</port>
			</output>
		</layer>
		<layer id="272" name="node_linear_16" type="Add" version="opset1">
			<data auto_broadcast="numpy" />
			<input>
				<port id="0" precision="FP32">
					<dim>1</dim>
					<dim>1500</dim>
					<dim>5120</dim>
				</port>
				<port id="1" precision="FP32">
					<dim>5120</dim>
				</port>
			</input>
			<output>
				<port id="2" precision="FP32" names="linear_16">
					<dim>1</dim>
					<dim>1500</dim>
					<dim>5120</dim>
				</port>
			</output>
		</layer>
		<layer id="273" name="node_gelu_4" type="Gelu" version="opset7">
			<data approximation_mode="ERF" />
			<input>
				<port id="0" precision="FP32">
					<dim>1</dim>
					<dim>1500</dim>
					<dim>5120</dim>
				</port>
			</input>
			<output>
				<port id="1" precision="FP32" names="gelu_4">
					<dim>1</dim>
					<dim>1500</dim>
					<dim>5120</dim>
				</port>
			</output>
		</layer>
		<layer id="274" name="val_198_compressed" type="Const" version="opset1">
			<data element_type="f16" shape="5120, 1280" offset="119605962" size="13107200" />
			<output>
				<port id="0" precision="FP16" names="val_198">
					<dim>5120</dim>
					<dim>1280</dim>
				</port>
			</output>
		</layer>
		<layer id="275" name="val_198" type="Convert" version="opset1">
			<data destination_type="f32" />
			<rt_info>
				<attribute name="decompression" version="0" />
			</rt_info>
			<input>
				<port id="0" precision="FP16">
					<dim>5120</dim>
					<dim>1280</dim>
				</port>
			</input>
			<output>
				<port id="1" precision="FP32">
					<dim>5120</dim>
					<dim>1280</dim>
				</port>
			</output>
		</layer>
		<layer id="276" name="node_MatMul_187" type="MatMul" version="opset1">
			<data transpose_a="false" transpose_b="false" />
			<input>
				<port id="0" precision="FP32">
					<dim>1</dim>
					<dim>1500</dim>
					<dim>5120</dim>
				</port>
				<port id="1" precision="FP32">
					<dim>5120</dim>
					<dim>1280</dim>
				</port>
			</input>
			<output>
				<port id="2" precision="FP32" names="val_199">
					<dim>1</dim>
					<dim>1500</dim>
					<dim>1280</dim>
				</port>
			</output>
		</layer>
		<layer id="277" name="blocks.2.mlp.2.bias_compressed" type="Const" version="opset1">
			<data element_type="f16" shape="1280" offset="132713162" size="2560" />
			<output>
				<port id="0" precision="FP16" names="blocks.2.mlp.2.bias">
					<dim>1280</dim>
				</port>
			</output>
		</layer>
		<layer id="278" name="blocks.2.mlp.2.bias" type="Convert" version="opset1">
			<data destination_type="f32" />
			<rt_info>
				<attribute name="decompression" version="0" />
			</rt_info>
			<input>
				<port id="0" precision="FP16">
					<dim>1280</dim>
				</port>
			</input>
			<output>
				<port id="1" precision="FP32">
					<dim>1280</dim>
				</port>
			</output>
		</layer>
		<layer id="279" name="node_linear_17" type="Add" version="opset1">
			<data auto_broadcast="numpy" />
			<input>
				<port id="0" precision="FP32">
					<dim>1</dim>
					<dim>1500</dim>
					<dim>1280</dim>
				</port>
				<port id="1" precision="FP32">
					<dim>1280</dim>
				</port>
			</input>
			<output>
				<port id="2" precision="FP32" names="linear_17">
					<dim>1</dim>
					<dim>1500</dim>
					<dim>1280</dim>
				</port>
			</output>
		</layer>
		<layer id="280" name="node_add_6" type="Add" version="opset1">
			<data auto_broadcast="numpy" />
			<input>
				<port id="0" precision="FP32">
					<dim>1</dim>
					<dim>1500</dim>
					<dim>1280</dim>
				</port>
				<port id="1" precision="FP32">
					<dim>1</dim>
					<dim>1500</dim>
					<dim>1280</dim>
				</port>
			</input>
			<output>
				<port id="2" precision="FP32" names="add_6">
					<dim>1</dim>
					<dim>1500</dim>
					<dim>1280</dim>
				</port>
			</output>
		</layer>
		<layer id="281" name="Constant_674" type="Const" version="opset1">
			<data element_type="i64" shape="" offset="14658600" size="8" />
			<output>
				<port id="0" precision="I64" />
			</output>
		</layer>
		<layer id="282" name="Constant_673" type="Const" version="opset1">
			<data element_type="i64" shape="" offset="14658608" size="8" />
			<output>
				<port id="0" precision="I64" />
			</output>
		</layer>
		<layer id="283" name="Constant_672" type="Const" version="opset1">
			<data element_type="i64" shape="" offset="985600" size="8" />
			<output>
				<port id="0" precision="I64" />
			</output>
		</layer>
		<layer id="284" name="Range_675" type="Range" version="opset4">
			<data output_type="i64" />
			<input>
				<port id="0" precision="I64" />
				<port id="1" precision="I64" />
				<port id="2" precision="I64" />
			</input>
			<output>
				<port id="3" precision="I64">
					<dim>1</dim>
				</port>
			</output>
		</layer>
		<layer id="285" name="MVN_676" type="MVN" version="opset6">
			<data eps="9.9999997473787516e-06" normalize_variance="true" eps_mode="INSIDE_SQRT" />
			<input>
				<port id="0" precision="FP32">
					<dim>1</dim>
					<dim>1500</dim>
					<dim>1280</dim>
				</port>
				<port id="1" precision="I64">
					<dim>1</dim>
				</port>
			</input>
			<output>
				<port id="2" precision="FP32">
					<dim>1</dim>
					<dim>1500</dim>
					<dim>1280</dim>
				</port>
			</output>
		</layer>
		<layer id="286" name="blocks.3.attn_ln.weight_compressed" type="Const" version="opset1">
			<data element_type="f16" shape="1280" offset="132715722" size="2560" />
			<output>
				<port id="0" precision="FP16" names="blocks.3.attn_ln.weight">
					<dim>1280</dim>
				</port>
			</output>
		</layer>
		<layer id="287" name="blocks.3.attn_ln.weight" type="Convert" version="opset1">
			<data destination_type="f32" />
			<rt_info>
				<attribute name="decompression" version="0" />
			</rt_info>
			<input>
				<port id="0" precision="FP16">
					<dim>1280</dim>
				</port>
			</input>
			<output>
				<port id="1" precision="FP32">
					<dim>1280</dim>
				</port>
			</output>
		</layer>
		<layer id="288" name="Multiply_677" type="Multiply" version="opset1">
			<data auto_broadcast="numpy" />
			<input>
				<port id="0" precision="FP32">
					<dim>1</dim>
					<dim>1500</dim>
					<dim>1280</dim>
				</port>
				<port id="1" precision="FP32">
					<dim>1280</dim>
				</port>
			</input>
			<output>
				<port id="2" precision="FP32">
					<dim>1</dim>
					<dim>1500</dim>
					<dim>1280</dim>
				</port>
			</output>
		</layer>
		<layer id="289" name="blocks.3.attn_ln.bias_compressed" type="Const" version="opset1">
			<data element_type="f16" shape="1280" offset="132718282" size="2560" />
			<output>
				<port id="0" precision="FP16" names="blocks.3.attn_ln.bias">
					<dim>1280</dim>
				</port>
			</output>
		</layer>
		<layer id="290" name="blocks.3.attn_ln.bias" type="Convert" version="opset1">
			<data destination_type="f32" />
			<rt_info>
				<attribute name="decompression" version="0" />
			</rt_info>
			<input>
				<port id="0" precision="FP16">
					<dim>1280</dim>
				</port>
			</input>
			<output>
				<port id="1" precision="FP32">
					<dim>1280</dim>
				</port>
			</output>
		</layer>
		<layer id="291" name="node_layer_norm_6" type="Add" version="opset1">
			<data auto_broadcast="numpy" />
			<input>
				<port id="0" precision="FP32">
					<dim>1</dim>
					<dim>1500</dim>
					<dim>1280</dim>
				</port>
				<port id="1" precision="FP32">
					<dim>1280</dim>
				</port>
			</input>
			<output>
				<port id="2" precision="FP32" names="layer_norm_6">
					<dim>1</dim>
					<dim>1500</dim>
					<dim>1280</dim>
				</port>
			</output>
		</layer>
		<layer id="292" name="val_202_compressed" type="Const" version="opset1">
			<data element_type="f16" shape="1280, 1280" offset="132720842" size="3276800" />
			<output>
				<port id="0" precision="FP16" names="val_202">
					<dim>1280</dim>
					<dim>1280</dim>
				</port>
			</output>
		</layer>
		<layer id="293" name="val_202" type="Convert" version="opset1">
			<data destination_type="f32" />
			<rt_info>
				<attribute name="decompression" version="0" />
			</rt_info>
			<input>
				<port id="0" precision="FP16">
					<dim>1280</dim>
					<dim>1280</dim>
				</port>
			</input>
			<output>
				<port id="1" precision="FP32">
					<dim>1280</dim>
					<dim>1280</dim>
				</port>
			</output>
		</layer>
		<layer id="294" name="node_MatMul_189" type="MatMul" version="opset1">
			<data transpose_a="false" transpose_b="false" />
			<input>
				<port id="0" precision="FP32">
					<dim>1</dim>
					<dim>1500</dim>
					<dim>1280</dim>
				</port>
				<port id="1" precision="FP32">
					<dim>1280</dim>
					<dim>1280</dim>
				</port>
			</input>
			<output>
				<port id="2" precision="FP32" names="val_203">
					<dim>1</dim>
					<dim>1500</dim>
					<dim>1280</dim>
				</port>
			</output>
		</layer>
		<layer id="295" name="blocks.3.attn.query.bias_compressed" type="Const" version="opset1">
			<data element_type="f16" shape="1280" offset="135997642" size="2560" />
			<output>
				<port id="0" precision="FP16" names="blocks.3.attn.query.bias">
					<dim>1280</dim>
				</port>
			</output>
		</layer>
		<layer id="296" name="blocks.3.attn.query.bias" type="Convert" version="opset1">
			<data destination_type="f32" />
			<rt_info>
				<attribute name="decompression" version="0" />
			</rt_info>
			<input>
				<port id="0" precision="FP16">
					<dim>1280</dim>
				</port>
			</input>
			<output>
				<port id="1" precision="FP32">
					<dim>1280</dim>
				</port>
			</output>
		</layer>
		<layer id="297" name="node_linear_18" type="Add" version="opset1">
			<data auto_broadcast="numpy" />
			<input>
				<port id="0" precision="FP32">
					<dim>1</dim>
					<dim>1500</dim>
					<dim>1280</dim>
				</port>
				<port id="1" precision="FP32">
					<dim>1280</dim>
				</port>
			</input>
			<output>
				<port id="2" precision="FP32" names="linear_18">
					<dim>1</dim>
					<dim>1500</dim>
					<dim>1280</dim>
				</port>
			</output>
		</layer>
		<layer id="298" name="node_view_12" type="Reshape" version="opset1">
			<data special_zero="true" />
			<input>
				<port id="0" precision="FP32">
					<dim>1</dim>
					<dim>1500</dim>
					<dim>1280</dim>
				</port>
				<port id="1" precision="I64">
					<dim>4</dim>
				</port>
			</input>
			<output>
				<port id="2" precision="FP32" names="view_12">
					<dim>1</dim>
					<dim>1500</dim>
					<dim>20</dim>
					<dim>64</dim>
				</port>
			</output>
		</layer>
		<layer id="299" name="Constant_685" type="Const" version="opset1">
			<data element_type="i64" shape="4" offset="17943128" size="32" />
			<output>
				<port id="0" precision="I64">
					<dim>4</dim>
				</port>
			</output>
		</layer>
		<layer id="300" name="node_permute_13" type="Transpose" version="opset1">
			<input>
				<port id="0" precision="FP32">
					<dim>1</dim>
					<dim>1500</dim>
					<dim>20</dim>
					<dim>64</dim>
				</port>
				<port id="1" precision="I64">
					<dim>4</dim>
				</port>
			</input>
			<output>
				<port id="2" precision="FP32" names="permute_13">
					<dim>1</dim>
					<dim>20</dim>
					<dim>1500</dim>
					<dim>64</dim>
				</port>
			</output>
		</layer>
		<layer id="301" name="node_Mul_233" type="Multiply" version="opset1">
			<data auto_broadcast="numpy" />
			<input>
				<port id="0" precision="FP32">
					<dim>1</dim>
					<dim>20</dim>
					<dim>1500</dim>
					<dim>64</dim>
				</port>
				<port id="1" precision="FP32">
					<dim>1</dim>
				</port>
			</input>
			<output>
				<port id="2" precision="FP32" names="val_247">
					<dim>1</dim>
					<dim>20</dim>
					<dim>1500</dim>
					<dim>64</dim>
				</port>
			</output>
		</layer>
		<layer id="302" name="val_204_compressed" type="Const" version="opset1">
			<data element_type="f16" shape="1280, 1280" offset="136000202" size="3276800" />
			<output>
				<port id="0" precision="FP16" names="val_204">
					<dim>1280</dim>
					<dim>1280</dim>
				</port>
			</output>
		</layer>
		<layer id="303" name="val_204" type="Convert" version="opset1">
			<data destination_type="f32" />
			<rt_info>
				<attribute name="decompression" version="0" />
			</rt_info>
			<input>
				<port id="0" precision="FP16">
					<dim>1280</dim>
					<dim>1280</dim>
				</port>
			</input>
			<output>
				<port id="1" precision="FP32">
					<dim>1280</dim>
					<dim>1280</dim>
				</port>
			</output>
		</layer>
		<layer id="304" name="node_linear_19" type="MatMul" version="opset1">
			<data transpose_a="false" transpose_b="false" />
			<input>
				<port id="0" precision="FP32">
					<dim>1</dim>
					<dim>1500</dim>
					<dim>1280</dim>
				</port>
				<port id="1" precision="FP32">
					<dim>1280</dim>
					<dim>1280</dim>
				</port>
			</input>
			<output>
				<port id="2" precision="FP32" names="linear_19">
					<dim>1</dim>
					<dim>1500</dim>
					<dim>1280</dim>
				</port>
			</output>
		</layer>
		<layer id="305" name="node_view_13" type="Reshape" version="opset1">
			<data special_zero="true" />
			<input>
				<port id="0" precision="FP32">
					<dim>1</dim>
					<dim>1500</dim>
					<dim>1280</dim>
				</port>
				<port id="1" precision="I64">
					<dim>4</dim>
				</port>
			</input>
			<output>
				<port id="2" precision="FP32" names="view_13">
					<dim>1</dim>
					<dim>1500</dim>
					<dim>20</dim>
					<dim>64</dim>
				</port>
			</output>
		</layer>
		<layer id="306" name="Constant_688" type="Const" version="opset1">
			<data element_type="i64" shape="4" offset="17943128" size="32" />
			<output>
				<port id="0" precision="I64">
					<dim>4</dim>
				</port>
			</output>
		</layer>
		<layer id="307" name="node_permute_14" type="Transpose" version="opset1">
			<input>
				<port id="0" precision="FP32">
					<dim>1</dim>
					<dim>1500</dim>
					<dim>20</dim>
					<dim>64</dim>
				</port>
				<port id="1" precision="I64">
					<dim>4</dim>
				</port>
			</input>
			<output>
				<port id="2" precision="FP32" names="permute_14">
					<dim>1</dim>
					<dim>20</dim>
					<dim>1500</dim>
					<dim>64</dim>
				</port>
			</output>
		</layer>
		<layer id="308" name="node_Reshape_228" type="Reshape" version="opset1">
			<data special_zero="true" />
			<input>
				<port id="0" precision="FP32">
					<dim>1</dim>
					<dim>20</dim>
					<dim>1500</dim>
					<dim>64</dim>
				</port>
				<port id="1" precision="I64">
					<dim>3</dim>
				</port>
			</input>
			<output>
				<port id="2" precision="FP32" names="val_242">
					<dim>20</dim>
					<dim>1500</dim>
					<dim>64</dim>
				</port>
			</output>
		</layer>
		<layer id="309" name="Constant_694" type="Const" version="opset1">
			<data element_type="i64" shape="3" offset="10818576" size="24" />
			<output>
				<port id="0" precision="I64">
					<dim>3</dim>
				</port>
			</output>
		</layer>
		<layer id="310" name="node_Transpose_229" type="Transpose" version="opset1">
			<input>
				<port id="0" precision="FP32">
					<dim>20</dim>
					<dim>1500</dim>
					<dim>64</dim>
				</port>
				<port id="1" precision="I64">
					<dim>3</dim>
				</port>
			</input>
			<output>
				<port id="2" precision="FP32" names="val_243">
					<dim>20</dim>
					<dim>64</dim>
					<dim>1500</dim>
				</port>
			</output>
		</layer>
		<layer id="311" name="node_Reshape_231" type="Reshape" version="opset1">
			<data special_zero="true" />
			<input>
				<port id="0" precision="FP32">
					<dim>20</dim>
					<dim>64</dim>
					<dim>1500</dim>
				</port>
				<port id="1" precision="I64">
					<dim>4</dim>
				</port>
			</input>
			<output>
				<port id="2" precision="FP32" names="val_245">
					<dim>1</dim>
					<dim>20</dim>
					<dim>64</dim>
					<dim>1500</dim>
				</port>
			</output>
		</layer>
		<layer id="312" name="node_Mul_236" type="Multiply" version="opset1">
			<data auto_broadcast="numpy" />
			<input>
				<port id="0" precision="FP32">
					<dim>1</dim>
					<dim>20</dim>
					<dim>64</dim>
					<dim>1500</dim>
				</port>
				<port id="1" precision="FP32">
					<dim>1</dim>
				</port>
			</input>
			<output>
				<port id="2" precision="FP32" names="val_250">
					<dim>1</dim>
					<dim>20</dim>
					<dim>64</dim>
					<dim>1500</dim>
				</port>
			</output>
		</layer>
		<layer id="313" name="node_MatMul_237" type="MatMul" version="opset1">
			<data transpose_a="false" transpose_b="false" />
			<input>
				<port id="0" precision="FP32">
					<dim>1</dim>
					<dim>20</dim>
					<dim>1500</dim>
					<dim>64</dim>
				</port>
				<port id="1" precision="FP32">
					<dim>1</dim>
					<dim>20</dim>
					<dim>64</dim>
					<dim>1500</dim>
				</port>
			</input>
			<output>
				<port id="2" precision="FP32" names="val_251">
					<dim>1</dim>
					<dim>20</dim>
					<dim>1500</dim>
					<dim>1500</dim>
				</port>
			</output>
		</layer>
		<layer id="314" name="node_Softmax_238" type="SoftMax" version="opset8">
			<data axis="-1" />
			<input>
				<port id="0" precision="FP32">
					<dim>1</dim>
					<dim>20</dim>
					<dim>1500</dim>
					<dim>1500</dim>
				</port>
			</input>
			<output>
				<port id="1" precision="FP32" names="val_252">
					<dim>1</dim>
					<dim>20</dim>
					<dim>1500</dim>
					<dim>1500</dim>
				</port>
			</output>
		</layer>
		<layer id="315" name="val_205_compressed" type="Const" version="opset1">
			<data element_type="f16" shape="1280, 1280" offset="139277002" size="3276800" />
			<output>
				<port id="0" precision="FP16" names="val_205">
					<dim>1280</dim>
					<dim>1280</dim>
				</port>
			</output>
		</layer>
		<layer id="316" name="val_205" type="Convert" version="opset1">
			<data destination_type="f32" />
			<rt_info>
				<attribute name="decompression" version="0" />
			</rt_info>
			<input>
				<port id="0" precision="FP16">
					<dim>1280</dim>
					<dim>1280</dim>
				</port>
			</input>
			<output>
				<port id="1" precision="FP32">
					<dim>1280</dim>
					<dim>1280</dim>
				</port>
			</output>
		</layer>
		<layer id="317" name="node_MatMul_192" type="MatMul" version="opset1">
			<data transpose_a="false" transpose_b="false" />
			<input>
				<port id="0" precision="FP32">
					<dim>1</dim>
					<dim>1500</dim>
					<dim>1280</dim>
				</port>
				<port id="1" precision="FP32">
					<dim>1280</dim>
					<dim>1280</dim>
				</port>
			</input>
			<output>
				<port id="2" precision="FP32" names="val_206">
					<dim>1</dim>
					<dim>1500</dim>
					<dim>1280</dim>
				</port>
			</output>
		</layer>
		<layer id="318" name="blocks.3.attn.value.bias_compressed" type="Const" version="opset1">
			<data element_type="f16" shape="1280" offset="142553802" size="2560" />
			<output>
				<port id="0" precision="FP16" names="blocks.3.attn.value.bias">
					<dim>1280</dim>
				</port>
			</output>
		</layer>
		<layer id="319" name="blocks.3.attn.value.bias" type="Convert" version="opset1">
			<data destination_type="f32" />
			<rt_info>
				<attribute name="decompression" version="0" />
			</rt_info>
			<input>
				<port id="0" precision="FP16">
					<dim>1280</dim>
				</port>
			</input>
			<output>
				<port id="1" precision="FP32">
					<dim>1280</dim>
				</port>
			</output>
		</layer>
		<layer id="320" name="node_linear_20" type="Add" version="opset1">
			<data auto_broadcast="numpy" />
			<input>
				<port id="0" precision="FP32">
					<dim>1</dim>
					<dim>1500</dim>
					<dim>1280</dim>
				</port>
				<port id="1" precision="FP32">
					<dim>1280</dim>
				</port>
			</input>
			<output>
				<port id="2" precision="FP32" names="linear_20">
					<dim>1</dim>
					<dim>1500</dim>
					<dim>1280</dim>
				</port>
			</output>
		</layer>
		<layer id="321" name="node_view_14" type="Reshape" version="opset1">
			<data special_zero="true" />
			<input>
				<port id="0" precision="FP32">
					<dim>1</dim>
					<dim>1500</dim>
					<dim>1280</dim>
				</port>
				<port id="1" precision="I64">
					<dim>4</dim>
				</port>
			</input>
			<output>
				<port id="2" precision="FP32" names="view_14">
					<dim>1</dim>
					<dim>1500</dim>
					<dim>20</dim>
					<dim>64</dim>
				</port>
			</output>
		</layer>
		<layer id="322" name="Constant_691" type="Const" version="opset1">
			<data element_type="i64" shape="4" offset="17943128" size="32" />
			<output>
				<port id="0" precision="I64">
					<dim>4</dim>
				</port>
			</output>
		</layer>
		<layer id="323" name="node_permute_15" type="Transpose" version="opset1">
			<input>
				<port id="0" precision="FP32">
					<dim>1</dim>
					<dim>1500</dim>
					<dim>20</dim>
					<dim>64</dim>
				</port>
				<port id="1" precision="I64">
					<dim>4</dim>
				</port>
			</input>
			<output>
				<port id="2" precision="FP32" names="permute_15">
					<dim>1</dim>
					<dim>20</dim>
					<dim>1500</dim>
					<dim>64</dim>
				</port>
			</output>
		</layer>
		<layer id="324" name="node_scaled_dot_product_attention_3" type="MatMul" version="opset1">
			<data transpose_a="false" transpose_b="false" />
			<input>
				<port id="0" precision="FP32">
					<dim>1</dim>
					<dim>20</dim>
					<dim>1500</dim>
					<dim>1500</dim>
				</port>
				<port id="1" precision="FP32">
					<dim>1</dim>
					<dim>20</dim>
					<dim>1500</dim>
					<dim>64</dim>
				</port>
			</input>
			<output>
				<port id="2" precision="FP32" names="scaled_dot_product_attention_3">
					<dim>1</dim>
					<dim>20</dim>
					<dim>1500</dim>
					<dim>64</dim>
				</port>
			</output>
		</layer>
		<layer id="325" name="Constant_702" type="Const" version="opset1">
			<data element_type="i64" shape="4" offset="17943128" size="32" />
			<output>
				<port id="0" precision="I64">
					<dim>4</dim>
				</port>
			</output>
		</layer>
		<layer id="326" name="node_permute_16" type="Transpose" version="opset1">
			<input>
				<port id="0" precision="FP32">
					<dim>1</dim>
					<dim>20</dim>
					<dim>1500</dim>
					<dim>64</dim>
				</port>
				<port id="1" precision="I64">
					<dim>4</dim>
				</port>
			</input>
			<output>
				<port id="2" precision="FP32" names="permute_16">
					<dim>1</dim>
					<dim>1500</dim>
					<dim>20</dim>
					<dim>64</dim>
				</port>
			</output>
		</layer>
		<layer id="327" name="node_view_15" type="Reshape" version="opset1">
			<data special_zero="true" />
			<input>
				<port id="0" precision="FP32">
					<dim>1</dim>
					<dim>1500</dim>
					<dim>20</dim>
					<dim>64</dim>
				</port>
				<port id="1" precision="I64">
					<dim>3</dim>
				</port>
			</input>
			<output>
				<port id="2" precision="FP32" names="view_15">
					<dim>1</dim>
					<dim>1500</dim>
					<dim>1280</dim>
				</port>
			</output>
		</layer>
		<layer id="328" name="val_258_compressed" type="Const" version="opset1">
			<data element_type="f16" shape="1280, 1280" offset="142556362" size="3276800" />
			<output>
				<port id="0" precision="FP16" names="val_258">
					<dim>1280</dim>
					<dim>1280</dim>
				</port>
			</output>
		</layer>
		<layer id="329" name="val_258" type="Convert" version="opset1">
			<data destination_type="f32" />
			<rt_info>
				<attribute name="decompression" version="0" />
			</rt_info>
			<input>
				<port id="0" precision="FP16">
					<dim>1280</dim>
					<dim>1280</dim>
				</port>
			</input>
			<output>
				<port id="1" precision="FP32">
					<dim>1280</dim>
					<dim>1280</dim>
				</port>
			</output>
		</layer>
		<layer id="330" name="node_MatMul_245" type="MatMul" version="opset1">
			<data transpose_a="false" transpose_b="false" />
			<input>
				<port id="0" precision="FP32">
					<dim>1</dim>
					<dim>1500</dim>
					<dim>1280</dim>
				</port>
				<port id="1" precision="FP32">
					<dim>1280</dim>
					<dim>1280</dim>
				</port>
			</input>
			<output>
				<port id="2" precision="FP32" names="val_259">
					<dim>1</dim>
					<dim>1500</dim>
					<dim>1280</dim>
				</port>
			</output>
		</layer>
		<layer id="331" name="blocks.3.attn.out.bias_compressed" type="Const" version="opset1">
			<data element_type="f16" shape="1280" offset="145833162" size="2560" />
			<output>
				<port id="0" precision="FP16" names="blocks.3.attn.out.bias">
					<dim>1280</dim>
				</port>
			</output>
		</layer>
		<layer id="332" name="blocks.3.attn.out.bias" type="Convert" version="opset1">
			<data destination_type="f32" />
			<rt_info>
				<attribute name="decompression" version="0" />
			</rt_info>
			<input>
				<port id="0" precision="FP16">
					<dim>1280</dim>
				</port>
			</input>
			<output>
				<port id="1" precision="FP32">
					<dim>1280</dim>
				</port>
			</output>
		</layer>
		<layer id="333" name="node_linear_21" type="Add" version="opset1">
			<data auto_broadcast="numpy" />
			<input>
				<port id="0" precision="FP32">
					<dim>1</dim>
					<dim>1500</dim>
					<dim>1280</dim>
				</port>
				<port id="1" precision="FP32">
					<dim>1280</dim>
				</port>
			</input>
			<output>
				<port id="2" precision="FP32" names="linear_21">
					<dim>1</dim>
					<dim>1500</dim>
					<dim>1280</dim>
				</port>
			</output>
		</layer>
		<layer id="334" name="node_add_7" type="Add" version="opset1">
			<data auto_broadcast="numpy" />
			<input>
				<port id="0" precision="FP32">
					<dim>1</dim>
					<dim>1500</dim>
					<dim>1280</dim>
				</port>
				<port id="1" precision="FP32">
					<dim>1</dim>
					<dim>1500</dim>
					<dim>1280</dim>
				</port>
			</input>
			<output>
				<port id="2" precision="FP32" names="add_7">
					<dim>1</dim>
					<dim>1500</dim>
					<dim>1280</dim>
				</port>
			</output>
		</layer>
		<layer id="335" name="Constant_710" type="Const" version="opset1">
			<data element_type="i64" shape="" offset="14658600" size="8" />
			<output>
				<port id="0" precision="I64" />
			</output>
		</layer>
		<layer id="336" name="Constant_709" type="Const" version="opset1">
			<data element_type="i64" shape="" offset="14658608" size="8" />
			<output>
				<port id="0" precision="I64" />
			</output>
		</layer>
		<layer id="337" name="Constant_708" type="Const" version="opset1">
			<data element_type="i64" shape="" offset="985600" size="8" />
			<output>
				<port id="0" precision="I64" />
			</output>
		</layer>
		<layer id="338" name="Range_711" type="Range" version="opset4">
			<data output_type="i64" />
			<input>
				<port id="0" precision="I64" />
				<port id="1" precision="I64" />
				<port id="2" precision="I64" />
			</input>
			<output>
				<port id="3" precision="I64">
					<dim>1</dim>
				</port>
			</output>
		</layer>
		<layer id="339" name="MVN_712" type="MVN" version="opset6">
			<data eps="9.9999997473787516e-06" normalize_variance="true" eps_mode="INSIDE_SQRT" />
			<input>
				<port id="0" precision="FP32">
					<dim>1</dim>
					<dim>1500</dim>
					<dim>1280</dim>
				</port>
				<port id="1" precision="I64">
					<dim>1</dim>
				</port>
			</input>
			<output>
				<port id="2" precision="FP32">
					<dim>1</dim>
					<dim>1500</dim>
					<dim>1280</dim>
				</port>
			</output>
		</layer>
		<layer id="340" name="blocks.3.mlp_ln.weight_compressed" type="Const" version="opset1">
			<data element_type="f16" shape="1280" offset="145835722" size="2560" />
			<output>
				<port id="0" precision="FP16" names="blocks.3.mlp_ln.weight">
					<dim>1280</dim>
				</port>
			</output>
		</layer>
		<layer id="341" name="blocks.3.mlp_ln.weight" type="Convert" version="opset1">
			<data destination_type="f32" />
			<rt_info>
				<attribute name="decompression" version="0" />
			</rt_info>
			<input>
				<port id="0" precision="FP16">
					<dim>1280</dim>
				</port>
			</input>
			<output>
				<port id="1" precision="FP32">
					<dim>1280</dim>
				</port>
			</output>
		</layer>
		<layer id="342" name="Multiply_713" type="Multiply" version="opset1">
			<data auto_broadcast="numpy" />
			<input>
				<port id="0" precision="FP32">
					<dim>1</dim>
					<dim>1500</dim>
					<dim>1280</dim>
				</port>
				<port id="1" precision="FP32">
					<dim>1280</dim>
				</port>
			</input>
			<output>
				<port id="2" precision="FP32">
					<dim>1</dim>
					<dim>1500</dim>
					<dim>1280</dim>
				</port>
			</output>
		</layer>
		<layer id="343" name="blocks.3.mlp_ln.bias_compressed" type="Const" version="opset1">
			<data element_type="f16" shape="1280" offset="145838282" size="2560" />
			<output>
				<port id="0" precision="FP16" names="blocks.3.mlp_ln.bias">
					<dim>1280</dim>
				</port>
			</output>
		</layer>
		<layer id="344" name="blocks.3.mlp_ln.bias" type="Convert" version="opset1">
			<data destination_type="f32" />
			<rt_info>
				<attribute name="decompression" version="0" />
			</rt_info>
			<input>
				<port id="0" precision="FP16">
					<dim>1280</dim>
				</port>
			</input>
			<output>
				<port id="1" precision="FP32">
					<dim>1280</dim>
				</port>
			</output>
		</layer>
		<layer id="345" name="node_layer_norm_7" type="Add" version="opset1">
			<data auto_broadcast="numpy" />
			<input>
				<port id="0" precision="FP32">
					<dim>1</dim>
					<dim>1500</dim>
					<dim>1280</dim>
				</port>
				<port id="1" precision="FP32">
					<dim>1280</dim>
				</port>
			</input>
			<output>
				<port id="2" precision="FP32" names="layer_norm_7">
					<dim>1</dim>
					<dim>1500</dim>
					<dim>1280</dim>
				</port>
			</output>
		</layer>
		<layer id="346" name="val_262_compressed" type="Const" version="opset1">
			<data element_type="f16" shape="1280, 5120" offset="145840842" size="13107200" />
			<output>
				<port id="0" precision="FP16" names="val_262">
					<dim>1280</dim>
					<dim>5120</dim>
				</port>
			</output>
		</layer>
		<layer id="347" name="val_262" type="Convert" version="opset1">
			<data destination_type="f32" />
			<rt_info>
				<attribute name="decompression" version="0" />
			</rt_info>
			<input>
				<port id="0" precision="FP16">
					<dim>1280</dim>
					<dim>5120</dim>
				</port>
			</input>
			<output>
				<port id="1" precision="FP32">
					<dim>1280</dim>
					<dim>5120</dim>
				</port>
			</output>
		</layer>
		<layer id="348" name="node_MatMul_247" type="MatMul" version="opset1">
			<data transpose_a="false" transpose_b="false" />
			<input>
				<port id="0" precision="FP32">
					<dim>1</dim>
					<dim>1500</dim>
					<dim>1280</dim>
				</port>
				<port id="1" precision="FP32">
					<dim>1280</dim>
					<dim>5120</dim>
				</port>
			</input>
			<output>
				<port id="2" precision="FP32" names="val_263">
					<dim>1</dim>
					<dim>1500</dim>
					<dim>5120</dim>
				</port>
			</output>
		</layer>
		<layer id="349" name="blocks.3.mlp.0.bias_compressed" type="Const" version="opset1">
			<data element_type="f16" shape="5120" offset="158948042" size="10240" />
			<output>
				<port id="0" precision="FP16" names="blocks.3.mlp.0.bias">
					<dim>5120</dim>
				</port>
			</output>
		</layer>
		<layer id="350" name="blocks.3.mlp.0.bias" type="Convert" version="opset1">
			<data destination_type="f32" />
			<rt_info>
				<attribute name="decompression" version="0" />
			</rt_info>
			<input>
				<port id="0" precision="FP16">
					<dim>5120</dim>
				</port>
			</input>
			<output>
				<port id="1" precision="FP32">
					<dim>5120</dim>
				</port>
			</output>
		</layer>
		<layer id="351" name="node_linear_22" type="Add" version="opset1">
			<data auto_broadcast="numpy" />
			<input>
				<port id="0" precision="FP32">
					<dim>1</dim>
					<dim>1500</dim>
					<dim>5120</dim>
				</port>
				<port id="1" precision="FP32">
					<dim>5120</dim>
				</port>
			</input>
			<output>
				<port id="2" precision="FP32" names="linear_22">
					<dim>1</dim>
					<dim>1500</dim>
					<dim>5120</dim>
				</port>
			</output>
		</layer>
		<layer id="352" name="node_gelu_5" type="Gelu" version="opset7">
			<data approximation_mode="ERF" />
			<input>
				<port id="0" precision="FP32">
					<dim>1</dim>
					<dim>1500</dim>
					<dim>5120</dim>
				</port>
			</input>
			<output>
				<port id="1" precision="FP32" names="gelu_5">
					<dim>1</dim>
					<dim>1500</dim>
					<dim>5120</dim>
				</port>
			</output>
		</layer>
		<layer id="353" name="val_264_compressed" type="Const" version="opset1">
			<data element_type="f16" shape="5120, 1280" offset="158958282" size="13107200" />
			<output>
				<port id="0" precision="FP16" names="val_264">
					<dim>5120</dim>
					<dim>1280</dim>
				</port>
			</output>
		</layer>
		<layer id="354" name="val_264" type="Convert" version="opset1">
			<data destination_type="f32" />
			<rt_info>
				<attribute name="decompression" version="0" />
			</rt_info>
			<input>
				<port id="0" precision="FP16">
					<dim>5120</dim>
					<dim>1280</dim>
				</port>
			</input>
			<output>
				<port id="1" precision="FP32">
					<dim>5120</dim>
					<dim>1280</dim>
				</port>
			</output>
		</layer>
		<layer id="355" name="node_MatMul_249" type="MatMul" version="opset1">
			<data transpose_a="false" transpose_b="false" />
			<input>
				<port id="0" precision="FP32">
					<dim>1</dim>
					<dim>1500</dim>
					<dim>5120</dim>
				</port>
				<port id="1" precision="FP32">
					<dim>5120</dim>
					<dim>1280</dim>
				</port>
			</input>
			<output>
				<port id="2" precision="FP32" names="val_265">
					<dim>1</dim>
					<dim>1500</dim>
					<dim>1280</dim>
				</port>
			</output>
		</layer>
		<layer id="356" name="blocks.3.mlp.2.bias_compressed" type="Const" version="opset1">
			<data element_type="f16" shape="1280" offset="172065482" size="2560" />
			<output>
				<port id="0" precision="FP16" names="blocks.3.mlp.2.bias">
					<dim>1280</dim>
				</port>
			</output>
		</layer>
		<layer id="357" name="blocks.3.mlp.2.bias" type="Convert" version="opset1">
			<data destination_type="f32" />
			<rt_info>
				<attribute name="decompression" version="0" />
			</rt_info>
			<input>
				<port id="0" precision="FP16">
					<dim>1280</dim>
				</port>
			</input>
			<output>
				<port id="1" precision="FP32">
					<dim>1280</dim>
				</port>
			</output>
		</layer>
		<layer id="358" name="node_linear_23" type="Add" version="opset1">
			<data auto_broadcast="numpy" />
			<input>
				<port id="0" precision="FP32">
					<dim>1</dim>
					<dim>1500</dim>
					<dim>1280</dim>
				</port>
				<port id="1" precision="FP32">
					<dim>1280</dim>
				</port>
			</input>
			<output>
				<port id="2" precision="FP32" names="linear_23">
					<dim>1</dim>
					<dim>1500</dim>
					<dim>1280</dim>
				</port>
			</output>
		</layer>
		<layer id="359" name="node_add_8" type="Add" version="opset1">
			<data auto_broadcast="numpy" />
			<input>
				<port id="0" precision="FP32">
					<dim>1</dim>
					<dim>1500</dim>
					<dim>1280</dim>
				</port>
				<port id="1" precision="FP32">
					<dim>1</dim>
					<dim>1500</dim>
					<dim>1280</dim>
				</port>
			</input>
			<output>
				<port id="2" precision="FP32" names="add_8">
					<dim>1</dim>
					<dim>1500</dim>
					<dim>1280</dim>
				</port>
			</output>
		</layer>
		<layer id="360" name="Constant_723" type="Const" version="opset1">
			<data element_type="i64" shape="" offset="14658600" size="8" />
			<output>
				<port id="0" precision="I64" />
			</output>
		</layer>
		<layer id="361" name="Constant_722" type="Const" version="opset1">
			<data element_type="i64" shape="" offset="14658608" size="8" />
			<output>
				<port id="0" precision="I64" />
			</output>
		</layer>
		<layer id="362" name="Constant_721" type="Const" version="opset1">
			<data element_type="i64" shape="" offset="985600" size="8" />
			<output>
				<port id="0" precision="I64" />
			</output>
		</layer>
		<layer id="363" name="Range_724" type="Range" version="opset4">
			<data output_type="i64" />
			<input>
				<port id="0" precision="I64" />
				<port id="1" precision="I64" />
				<port id="2" precision="I64" />
			</input>
			<output>
				<port id="3" precision="I64">
					<dim>1</dim>
				</port>
			</output>
		</layer>
		<layer id="364" name="MVN_725" type="MVN" version="opset6">
			<data eps="9.9999997473787516e-06" normalize_variance="true" eps_mode="INSIDE_SQRT" />
			<input>
				<port id="0" precision="FP32">
					<dim>1</dim>
					<dim>1500</dim>
					<dim>1280</dim>
				</port>
				<port id="1" precision="I64">
					<dim>1</dim>
				</port>
			</input>
			<output>
				<port id="2" precision="FP32">
					<dim>1</dim>
					<dim>1500</dim>
					<dim>1280</dim>
				</port>
			</output>
		</layer>
		<layer id="365" name="blocks.4.attn_ln.weight_compressed" type="Const" version="opset1">
			<data element_type="f16" shape="1280" offset="172068042" size="2560" />
			<output>
				<port id="0" precision="FP16" names="blocks.4.attn_ln.weight">
					<dim>1280</dim>
				</port>
			</output>
		</layer>
		<layer id="366" name="blocks.4.attn_ln.weight" type="Convert" version="opset1">
			<data destination_type="f32" />
			<rt_info>
				<attribute name="decompression" version="0" />
			</rt_info>
			<input>
				<port id="0" precision="FP16">
					<dim>1280</dim>
				</port>
			</input>
			<output>
				<port id="1" precision="FP32">
					<dim>1280</dim>
				</port>
			</output>
		</layer>
		<layer id="367" name="Multiply_726" type="Multiply" version="opset1">
			<data auto_broadcast="numpy" />
			<input>
				<port id="0" precision="FP32">
					<dim>1</dim>
					<dim>1500</dim>
					<dim>1280</dim>
				</port>
				<port id="1" precision="FP32">
					<dim>1280</dim>
				</port>
			</input>
			<output>
				<port id="2" precision="FP32">
					<dim>1</dim>
					<dim>1500</dim>
					<dim>1280</dim>
				</port>
			</output>
		</layer>
		<layer id="368" name="blocks.4.attn_ln.bias_compressed" type="Const" version="opset1">
			<data element_type="f16" shape="1280" offset="172070602" size="2560" />
			<output>
				<port id="0" precision="FP16" names="blocks.4.attn_ln.bias">
					<dim>1280</dim>
				</port>
			</output>
		</layer>
		<layer id="369" name="blocks.4.attn_ln.bias" type="Convert" version="opset1">
			<data destination_type="f32" />
			<rt_info>
				<attribute name="decompression" version="0" />
			</rt_info>
			<input>
				<port id="0" precision="FP16">
					<dim>1280</dim>
				</port>
			</input>
			<output>
				<port id="1" precision="FP32">
					<dim>1280</dim>
				</port>
			</output>
		</layer>
		<layer id="370" name="node_layer_norm_8" type="Add" version="opset1">
			<data auto_broadcast="numpy" />
			<input>
				<port id="0" precision="FP32">
					<dim>1</dim>
					<dim>1500</dim>
					<dim>1280</dim>
				</port>
				<port id="1" precision="FP32">
					<dim>1280</dim>
				</port>
			</input>
			<output>
				<port id="2" precision="FP32" names="layer_norm_8">
					<dim>1</dim>
					<dim>1500</dim>
					<dim>1280</dim>
				</port>
			</output>
		</layer>
		<layer id="371" name="val_268_compressed" type="Const" version="opset1">
			<data element_type="f16" shape="1280, 1280" offset="172073162" size="3276800" />
			<output>
				<port id="0" precision="FP16" names="val_268">
					<dim>1280</dim>
					<dim>1280</dim>
				</port>
			</output>
		</layer>
		<layer id="372" name="val_268" type="Convert" version="opset1">
			<data destination_type="f32" />
			<rt_info>
				<attribute name="decompression" version="0" />
			</rt_info>
			<input>
				<port id="0" precision="FP16">
					<dim>1280</dim>
					<dim>1280</dim>
				</port>
			</input>
			<output>
				<port id="1" precision="FP32">
					<dim>1280</dim>
					<dim>1280</dim>
				</port>
			</output>
		</layer>
		<layer id="373" name="node_MatMul_251" type="MatMul" version="opset1">
			<data transpose_a="false" transpose_b="false" />
			<input>
				<port id="0" precision="FP32">
					<dim>1</dim>
					<dim>1500</dim>
					<dim>1280</dim>
				</port>
				<port id="1" precision="FP32">
					<dim>1280</dim>
					<dim>1280</dim>
				</port>
			</input>
			<output>
				<port id="2" precision="FP32" names="val_269">
					<dim>1</dim>
					<dim>1500</dim>
					<dim>1280</dim>
				</port>
			</output>
		</layer>
		<layer id="374" name="blocks.4.attn.query.bias_compressed" type="Const" version="opset1">
			<data element_type="f16" shape="1280" offset="175349962" size="2560" />
			<output>
				<port id="0" precision="FP16" names="blocks.4.attn.query.bias">
					<dim>1280</dim>
				</port>
			</output>
		</layer>
		<layer id="375" name="blocks.4.attn.query.bias" type="Convert" version="opset1">
			<data destination_type="f32" />
			<rt_info>
				<attribute name="decompression" version="0" />
			</rt_info>
			<input>
				<port id="0" precision="FP16">
					<dim>1280</dim>
				</port>
			</input>
			<output>
				<port id="1" precision="FP32">
					<dim>1280</dim>
				</port>
			</output>
		</layer>
		<layer id="376" name="node_linear_24" type="Add" version="opset1">
			<data auto_broadcast="numpy" />
			<input>
				<port id="0" precision="FP32">
					<dim>1</dim>
					<dim>1500</dim>
					<dim>1280</dim>
				</port>
				<port id="1" precision="FP32">
					<dim>1280</dim>
				</port>
			</input>
			<output>
				<port id="2" precision="FP32" names="linear_24">
					<dim>1</dim>
					<dim>1500</dim>
					<dim>1280</dim>
				</port>
			</output>
		</layer>
		<layer id="377" name="node_view_16" type="Reshape" version="opset1">
			<data special_zero="true" />
			<input>
				<port id="0" precision="FP32">
					<dim>1</dim>
					<dim>1500</dim>
					<dim>1280</dim>
				</port>
				<port id="1" precision="I64">
					<dim>4</dim>
				</port>
			</input>
			<output>
				<port id="2" precision="FP32" names="view_16">
					<dim>1</dim>
					<dim>1500</dim>
					<dim>20</dim>
					<dim>64</dim>
				</port>
			</output>
		</layer>
		<layer id="378" name="Constant_734" type="Const" version="opset1">
			<data element_type="i64" shape="4" offset="17943128" size="32" />
			<output>
				<port id="0" precision="I64">
					<dim>4</dim>
				</port>
			</output>
		</layer>
		<layer id="379" name="node_permute_17" type="Transpose" version="opset1">
			<input>
				<port id="0" precision="FP32">
					<dim>1</dim>
					<dim>1500</dim>
					<dim>20</dim>
					<dim>64</dim>
				</port>
				<port id="1" precision="I64">
					<dim>4</dim>
				</port>
			</input>
			<output>
				<port id="2" precision="FP32" names="permute_17">
					<dim>1</dim>
					<dim>20</dim>
					<dim>1500</dim>
					<dim>64</dim>
				</port>
			</output>
		</layer>
		<layer id="380" name="node_Mul_295" type="Multiply" version="opset1">
			<data auto_broadcast="numpy" />
			<input>
				<port id="0" precision="FP32">
					<dim>1</dim>
					<dim>20</dim>
					<dim>1500</dim>
					<dim>64</dim>
				</port>
				<port id="1" precision="FP32">
					<dim>1</dim>
				</port>
			</input>
			<output>
				<port id="2" precision="FP32" names="val_313">
					<dim>1</dim>
					<dim>20</dim>
					<dim>1500</dim>
					<dim>64</dim>
				</port>
			</output>
		</layer>
		<layer id="381" name="val_270_compressed" type="Const" version="opset1">
			<data element_type="f16" shape="1280, 1280" offset="175352522" size="3276800" />
			<output>
				<port id="0" precision="FP16" names="val_270">
					<dim>1280</dim>
					<dim>1280</dim>
				</port>
			</output>
		</layer>
		<layer id="382" name="val_270" type="Convert" version="opset1">
			<data destination_type="f32" />
			<rt_info>
				<attribute name="decompression" version="0" />
			</rt_info>
			<input>
				<port id="0" precision="FP16">
					<dim>1280</dim>
					<dim>1280</dim>
				</port>
			</input>
			<output>
				<port id="1" precision="FP32">
					<dim>1280</dim>
					<dim>1280</dim>
				</port>
			</output>
		</layer>
		<layer id="383" name="node_linear_25" type="MatMul" version="opset1">
			<data transpose_a="false" transpose_b="false" />
			<input>
				<port id="0" precision="FP32">
					<dim>1</dim>
					<dim>1500</dim>
					<dim>1280</dim>
				</port>
				<port id="1" precision="FP32">
					<dim>1280</dim>
					<dim>1280</dim>
				</port>
			</input>
			<output>
				<port id="2" precision="FP32" names="linear_25">
					<dim>1</dim>
					<dim>1500</dim>
					<dim>1280</dim>
				</port>
			</output>
		</layer>
		<layer id="384" name="node_view_17" type="Reshape" version="opset1">
			<data special_zero="true" />
			<input>
				<port id="0" precision="FP32">
					<dim>1</dim>
					<dim>1500</dim>
					<dim>1280</dim>
				</port>
				<port id="1" precision="I64">
					<dim>4</dim>
				</port>
			</input>
			<output>
				<port id="2" precision="FP32" names="view_17">
					<dim>1</dim>
					<dim>1500</dim>
					<dim>20</dim>
					<dim>64</dim>
				</port>
			</output>
		</layer>
		<layer id="385" name="Constant_737" type="Const" version="opset1">
			<data element_type="i64" shape="4" offset="17943128" size="32" />
			<output>
				<port id="0" precision="I64">
					<dim>4</dim>
				</port>
			</output>
		</layer>
		<layer id="386" name="node_permute_18" type="Transpose" version="opset1">
			<input>
				<port id="0" precision="FP32">
					<dim>1</dim>
					<dim>1500</dim>
					<dim>20</dim>
					<dim>64</dim>
				</port>
				<port id="1" precision="I64">
					<dim>4</dim>
				</port>
			</input>
			<output>
				<port id="2" precision="FP32" names="permute_18">
					<dim>1</dim>
					<dim>20</dim>
					<dim>1500</dim>
					<dim>64</dim>
				</port>
			</output>
		</layer>
		<layer id="387" name="node_Reshape_290" type="Reshape" version="opset1">
			<data special_zero="true" />
			<input>
				<port id="0" precision="FP32">
					<dim>1</dim>
					<dim>20</dim>
					<dim>1500</dim>
					<dim>64</dim>
				</port>
				<port id="1" precision="I64">
					<dim>3</dim>
				</port>
			</input>
			<output>
				<port id="2" precision="FP32" names="val_308">
					<dim>20</dim>
					<dim>1500</dim>
					<dim>64</dim>
				</port>
			</output>
		</layer>
		<layer id="388" name="Constant_743" type="Const" version="opset1">
			<data element_type="i64" shape="3" offset="10818576" size="24" />
			<output>
				<port id="0" precision="I64">
					<dim>3</dim>
				</port>
			</output>
		</layer>
		<layer id="389" name="node_Transpose_291" type="Transpose" version="opset1">
…
		<edge from-layer="1912" from-port="1" to-layer="1913" to-port="1" />
		<edge from-layer="1913" from-port="2" to-layer="1914" to-port="1" />
		<edge from-layer="1914" from-port="2" to-layer="1919" to-port="0" />
		<edge from-layer="1914" from-port="2" to-layer="1939" to-port="0" />
		<edge from-layer="1915" from-port="0" to-layer="1918" to-port="0" />
		<edge from-layer="1916" from-port="0" to-layer="1918" to-port="1" />
		<edge from-layer="1917" from-port="0" to-layer="1918" to-port="2" />
		<edge from-layer="1918" from-port="3" to-layer="1919" to-port="1" />
		<edge from-layer="1919" from-port="2" to-layer="1922" to-port="0" />
		<edge from-layer="1920" from-port="0" to-layer="1921" to-port="0" />
		<edge from-layer="1921" from-port="1" to-layer="1922" to-port="1" />
		<edge from-layer="1922" from-port="2" to-layer="1925" to-port="0" />
		<edge from-layer="1923" from-port="0" to-layer="1924" to-port="0" />
		<edge from-layer="1924" from-port="1" to-layer="1925" to-port="1" />
		<edge from-layer="1925" from-port="2" to-layer="1928" to-port="0" />
		<edge from-layer="1926" from-port="0" to-layer="1927" to-port="0" />
		<edge from-layer="1927" from-port="1" to-layer="1928" to-port="1" />
		<edge from-layer="1928" from-port="2" to-layer="1931" to-port="0" />
		<edge from-layer="1929" from-port="0" to-layer="1930" to-port="0" />
		<edge from-layer="1930" from-port="1" to-layer="1931" to-port="1" />
		<edge from-layer="1931" from-port="2" to-layer="1932" to-port="0" />
		<edge from-layer="1932" from-port="1" to-layer="1935" to-port="0" />
		<edge from-layer="1933" from-port="0" to-layer="1934" to-port="0" />
		<edge from-layer="1934" from-port="1" to-layer="1935" to-port="1" />
		<edge from-layer="1935" from-port="2" to-layer="1938" to-port="0" />
		<edge from-layer="1936" from-port="0" to-layer="1937" to-port="0" />
		<edge from-layer="1937" from-port="1" to-layer="1938" to-port="1" />
		<edge from-layer="1938" from-port="2" to-layer="1939" to-port="1" />
		<edge from-layer="1939" from-port="2" to-layer="1944" to-port="0" />
		<edge from-layer="1939" from-port="2" to-layer="1993" to-port="0" />
		<edge from-layer="1940" from-port="0" to-layer="1943" to-port="0" />
		<edge from-layer="1941" from-port="0" to-layer="1943" to-port="1" />
		<edge from-layer="1942" from-port="0" to-layer="1943" to-port="2" />
		<edge from-layer="1943" from-port="3" to-layer="1944" to-port="1" />
		<edge from-layer="1944" from-port="2" to-layer="1947" to-port="0" />
		<edge from-layer="1945" from-port="0" to-layer="1946" to-port="0" />
		<edge from-layer="1946" from-port="1" to-layer="1947" to-port="1" />
		<edge from-layer="1947" from-port="2" to-layer="1950" to-port="0" />
		<edge from-layer="1948" from-port="0" to-layer="1949" to-port="0" />
		<edge from-layer="1949" from-port="1" to-layer="1950" to-port="1" />
		<edge from-layer="1950" from-port="2" to-layer="1963" to-port="0" />
		<edge from-layer="1950" from-port="2" to-layer="1976" to-port="0" />
		<edge from-layer="1950" from-port="2" to-layer="1953" to-port="0" />
		<edge from-layer="1951" from-port="0" to-layer="1952" to-port="0" />
		<edge from-layer="1952" from-port="1" to-layer="1953" to-port="1" />
		<edge from-layer="1953" from-port="2" to-layer="1956" to-port="0" />
		<edge from-layer="1954" from-port="0" to-layer="1955" to-port="0" />
		<edge from-layer="1955" from-port="1" to-layer="1956" to-port="1" />
		<edge from-layer="1956" from-port="2" to-layer="1957" to-port="0" />
		<edge from-layer="1957" from-port="2" to-layer="1959" to-port="0" />
		<edge from-layer="1958" from-port="0" to-layer="1959" to-port="1" />
		<edge from-layer="1959" from-port="2" to-layer="1960" to-port="0" />
		<edge from-layer="1960" from-port="2" to-layer="1972" to-port="0" />
		<edge from-layer="1961" from-port="0" to-layer="1962" to-port="0" />
		<edge from-layer="1962" from-port="1" to-layer="1963" to-port="1" />
		<edge from-layer="1963" from-port="2" to-layer="1964" to-port="0" />
		<edge from-layer="1964" from-port="2" to-layer="1966" to-port="0" />
		<edge from-layer="1965" from-port="0" to-layer="1966" to-port="1" />
		<edge from-layer="1966" from-port="2" to-layer="1967" to-port="0" />
		<edge from-layer="1967" from-port="2" to-layer="1969" to-port="0" />
		<edge from-layer="1968" from-port="0" to-layer="1969" to-port="1" />
		<edge from-layer="1969" from-port="2" to-layer="1970" to-port="0" />
		<edge from-layer="1970" from-port="2" to-layer="1971" to-port="0" />
		<edge from-layer="1971" from-port="2" to-layer="1972" to-port="1" />
		<edge from-layer="1972" from-port="2" to-layer="1973" to-port="0" />
		<edge from-layer="1973" from-port="1" to-layer="1983" to-port="0" />
		<edge from-layer="1974" from-port="0" to-layer="1975" to-port="0" />
		<edge from-layer="1975" from-port="1" to-layer="1976" to-port="1" />
		<edge from-layer="1976" from-port="2" to-layer="1979" to-port="0" />
		<edge from-layer="1977" from-port="0" to-layer="1978" to-port="0" />
		<edge from-layer="1978" from-port="1" to-layer="1979" to-port="1" />
		<edge from-layer="1979" from-port="2" to-layer="1980" to-port="0" />
		<edge from-layer="1980" from-port="2" to-layer="1982" to-port="0" />
		<edge from-layer="1981" from-port="0" to-layer="1982" to-port="1" />
		<edge from-layer="1982" from-port="2" to-layer="1983" to-port="1" />
		<edge from-layer="1983" from-port="2" to-layer="1985" to-port="0" />
		<edge from-layer="1984" from-port="0" to-layer="1985" to-port="1" />
		<edge from-layer="1985" from-port="2" to-layer="1986" to-port="0" />
		<edge from-layer="1986" from-port="2" to-layer="1989" to-port="0" />
		<edge from-layer="1987" from-port="0" to-layer="1988" to-port="0" />
		<edge from-layer="1988" from-port="1" to-layer="1989" to-port="1" />
		<edge from-layer="1989" from-port="2" to-layer="1992" to-port="0" />
		<edge from-layer="1990" from-port="0" to-layer="1991" to-port="0" />
		<edge from-layer="1991" from-port="1" to-layer="1992" to-port="1" />
		<edge from-layer="1992" from-port="2" to-layer="1993" to-port="1" />
		<edge from-layer="1993" from-port="2" to-layer="1998" to-port="0" />
		<edge from-layer="1993" from-port="2" to-layer="2018" to-port="0" />
		<edge from-layer="1994" from-port="0" to-layer="1997" to-port="0" />
		<edge from-layer="1995" from-port="0" to-layer="1997" to-port="1" />
		<edge from-layer="1996" from-port="0" to-layer="1997" to-port="2" />
		<edge from-layer="1997" from-port="3" to-layer="1998" to-port="1" />
		<edge from-layer="1998" from-port="2" to-layer="2001" to-port="0" />
		<edge from-layer="1999" from-port="0" to-layer="2000" to-port="0" />
		<edge from-layer="2000" from-port="1" to-layer="2001" to-port="1" />
		<edge from-layer="2001" from-port="2" to-layer="2004" to-port="0" />
		<edge from-layer="2002" from-port="0" to-layer="2003" to-port="0" />
		<edge from-layer="2003" from-port="1" to-layer="2004" to-port="1" />
		<edge from-layer="2004" from-port="2" to-layer="2007" to-port="0" />
		<edge from-layer="2005" from-port="0" to-layer="2006" to-port="0" />
		<edge from-layer="2006" from-port="1" to-layer="2007" to-port="1" />
		<edge from-layer="2007" from-port="2" to-layer="2010" to-port="0" />
		<edge from-layer="2008" from-port="0" to-layer="2009" to-port="0" />
		<edge from-layer="2009" from-port="1" to-layer="2010" to-port="1" />
		<edge from-layer="2010" from-port="2" to-layer="2011" to-port="0" />
		<edge from-layer="2011" from-port="1" to-layer="2014" to-port="0" />
		<edge from-layer="2012" from-port="0" to-layer="2013" to-port="0" />
		<edge from-layer="2013" from-port="1" to-layer="2014" to-port="1" />
		<edge from-layer="2014" from-port="2" to-layer="2017" to-port="0" />
		<edge from-layer="2015" from-port="0" to-layer="2016" to-port="0" />
		<edge from-layer="2016" from-port="1" to-layer="2017" to-port="1" />
		<edge from-layer="2017" from-port="2" to-layer="2018" to-port="1" />
		<edge from-layer="2018" from-port="2" to-layer="2072" to-port="0" />
		<edge from-layer="2018" from-port="2" to-layer="2023" to-port="0" />
		<edge from-layer="2019" from-port="0" to-layer="2022" to-port="0" />
		<edge from-layer="2020" from-port="0" to-layer="2022" to-port="1" />
		<edge from-layer="2021" from-port="0" to-layer="2022" to-port="2" />
		<edge from-layer="2022" from-port="3" to-layer="2023" to-port="1" />
		<edge from-layer="2023" from-port="2" to-layer="2026" to-port="0" />
		<edge from-layer="2024" from-port="0" to-layer="2025" to-port="0" />
		<edge from-layer="2025" from-port="1" to-layer="2026" to-port="1" />
		<edge from-layer="2026" from-port="2" to-layer="2029" to-port="0" />
		<edge from-layer="2027" from-port="0" to-layer="2028" to-port="0" />
		<edge from-layer="2028" from-port="1" to-layer="2029" to-port="1" />
		<edge from-layer="2029" from-port="2" to-layer="2032" to-port="0" />
		<edge from-layer="2029" from-port="2" to-layer="2042" to-port="0" />
		<edge from-layer="2029" from-port="2" to-layer="2055" to-port="0" />
		<edge from-layer="2030" from-port="0" to-layer="2031" to-port="0" />
		<edge from-layer="2031" from-port="1" to-layer="2032" to-port="1" />
		<edge from-layer="2032" from-port="2" to-layer="2035" to-port="0" />
		<edge from-layer="2033" from-port="0" to-layer="2034" to-port="0" />
		<edge from-layer="2034" from-port="1" to-layer="2035" to-port="1" />
		<edge from-layer="2035" from-port="2" to-layer="2036" to-port="0" />
		<edge from-layer="2036" from-port="2" to-layer="2038" to-port="0" />
		<edge from-layer="2037" from-port="0" to-layer="2038" to-port="1" />
		<edge from-layer="2038" from-port="2" to-layer="2039" to-port="0" />
		<edge from-layer="2039" from-port="2" to-layer="2051" to-port="0" />
		<edge from-layer="2040" from-port="0" to-layer="2041" to-port="0" />
		<edge from-layer="2041" from-port="1" to-layer="2042" to-port="1" />
		<edge from-layer="2042" from-port="2" to-layer="2043" to-port="0" />
		<edge from-layer="2043" from-port="2" to-layer="2045" to-port="0" />
		<edge from-layer="2044" from-port="0" to-layer="2045" to-port="1" />
		<edge from-layer="2045" from-port="2" to-layer="2046" to-port="0" />
		<edge from-layer="2046" from-port="2" to-layer="2048" to-port="0" />
		<edge from-layer="2047" from-port="0" to-layer="2048" to-port="1" />
		<edge from-layer="2048" from-port="2" to-layer="2049" to-port="0" />
		<edge from-layer="2049" from-port="2" to-layer="2050" to-port="0" />
		<edge from-layer="2050" from-port="2" to-layer="2051" to-port="1" />
		<edge from-layer="2051" from-port="2" to-layer="2052" to-port="0" />
		<edge from-layer="2052" from-port="1" to-layer="2062" to-port="0" />
		<edge from-layer="2053" from-port="0" to-layer="2054" to-port="0" />
		<edge from-layer="2054" from-port="1" to-layer="2055" to-port="1" />
		<edge from-layer="2055" from-port="2" to-layer="2058" to-port="0" />
		<edge from-layer="2056" from-port="0" to-layer="2057" to-port="0" />
		<edge from-layer="2057" from-port="1" to-layer="2058" to-port="1" />
		<edge from-layer="2058" from-port="2" to-layer="2059" to-port="0" />
		<edge from-layer="2059" from-port="2" to-layer="2061" to-port="0" />
		<edge from-layer="2060" from-port="0" to-layer="2061" to-port="1" />
		<edge from-layer="2061" from-port="2" to-layer="2062" to-port="1" />
		<edge from-layer="2062" from-port="2" to-layer="2064" to-port="0" />
		<edge from-layer="2063" from-port="0" to-layer="2064" to-port="1" />
		<edge from-layer="2064" from-port="2" to-layer="2065" to-port="0" />
		<edge from-layer="2065" from-port="2" to-layer="2068" to-port="0" />
		<edge from-layer="2066" from-port="0" to-layer="2067" to-port="0" />
		<edge from-layer="2067" from-port="1" to-layer="2068" to-port="1" />
		<edge from-layer="2068" from-port="2" to-layer="2071" to-port="0" />
		<edge from-layer="2069" from-port="0" to-layer="2070" to-port="0" />
		<edge from-layer="2070" from-port="1" to-layer="2071" to-port="1" />
		<edge from-layer="2071" from-port="2" to-layer="2072" to-port="1" />
		<edge from-layer="2072" from-port="2" to-layer="2077" to-port="0" />
		<edge from-layer="2072" from-port="2" to-layer="2097" to-port="0" />
		<edge from-layer="2073" from-port="0" to-layer="2076" to-port="0" />
		<edge from-layer="2074" from-port="0" to-layer="2076" to-port="1" />
		<edge from-layer="2075" from-port="0" to-layer="2076" to-port="2" />
		<edge from-layer="2076" from-port="3" to-layer="2077" to-port="1" />
		<edge from-layer="2077" from-port="2" to-layer="2080" to-port="0" />
		<edge from-layer="2078" from-port="0" to-layer="2079" to-port="0" />
		<edge from-layer="2079" from-port="1" to-layer="2080" to-port="1" />
		<edge from-layer="2080" from-port="2" to-layer="2083" to-port="0" />
		<edge from-layer="2081" from-port="0" to-layer="2082" to-port="0" />
		<edge from-layer="2082" from-port="1" to-layer="2083" to-port="1" />
		<edge from-layer="2083" from-port="2" to-layer="2086" to-port="0" />
		<edge from-layer="2084" from-port="0" to-layer="2085" to-port="0" />
		<edge from-layer="2085" from-port="1" to-layer="2086" to-port="1" />
		<edge from-layer="2086" from-port="2" to-layer="2089" to-port="0" />
		<edge from-layer="2087" from-port="0" to-layer="2088" to-port="0" />
		<edge from-layer="2088" from-port="1" to-layer="2089" to-port="1" />
		<edge from-layer="2089" from-port="2" to-layer="2090" to-port="0" />
		<edge from-layer="2090" from-port="1" to-layer="2093" to-port="0" />
		<edge from-layer="2091" from-port="0" to-layer="2092" to-port="0" />
		<edge from-layer="2092" from-port="1" to-layer="2093" to-port="1" />
		<edge from-layer="2093" from-port="2" to-layer="2096" to-port="0" />
		<edge from-layer="2094" from-port="0" to-layer="2095" to-port="0" />
		<edge from-layer="2095" from-port="1" to-layer="2096" to-port="1" />
		<edge from-layer="2096" from-port="2" to-layer="2097" to-port="1" />
		<edge from-layer="2097" from-port="2" to-layer="2102" to-port="0" />
		<edge from-layer="2097" from-port="2" to-layer="2151" to-port="0" />
		<edge from-layer="2098" from-port="0" to-layer="2101" to-port="0" />
		<edge from-layer="2099" from-port="0" to-layer="2101" to-port="1" />
		<edge from-layer="2100" from-port="0" to-layer="2101" to-port="2" />
		<edge from-layer="2101" from-port="3" to-layer="2102" to-port="1" />
		<edge from-layer="2102" from-port="2" to-layer="2105" to-port="0" />
		<edge from-layer="2103" from-port="0" to-layer="2104" to-port="0" />
		<edge from-layer="2104" from-port="1" to-layer="2105" to-port="1" />
		<edge from-layer="2105" from-port="2" to-layer="2108" to-port="0" />
		<edge from-layer="2106" from-port="0" to-layer="2107" to-port="0" />
		<edge from-layer="2107" from-port="1" to-layer="2108" to-port="1" />
		<edge from-layer="2108" from-port="2" to-layer="2134" to-port="0" />
		<edge from-layer="2108" from-port="2" to-layer="2121" to-port="0" />
		<edge from-layer="2108" from-port="2" to-layer="2111" to-port="0" />
		<edge from-layer="2109" from-port="0" to-layer="2110" to-port="0" />
		<edge from-layer="2110" from-port="1" to-layer="2111" to-port="1" />
		<edge from-layer="2111" from-port="2" to-layer="2114" to-port="0" />
		<edge from-layer="2112" from-port="0" to-layer="2113" to-port="0" />
		<edge from-layer="2113" from-port="1" to-layer="2114" to-port="1" />
		<edge from-layer="2114" from-port="2" to-layer="2115" to-port="0" />
		<edge from-layer="2115" from-port="2" to-layer="2117" to-port="0" />
		<edge from-layer="2116" from-port="0" to-layer="2117" to-port="1" />
		<edge from-layer="2117" from-port="2" to-layer="2118" to-port="0" />
		<edge from-layer="2118" from-port="2" to-layer="2130" to-port="0" />
		<edge from-layer="2119" from-port="0" to-layer="2120" to-port="0" />
		<edge from-layer="2120" from-port="1" to-layer="2121" to-port="1" />
		<edge from-layer="2121" from-port="2" to-layer="2122" to-port="0" />
		<edge from-layer="2122" from-port="2" to-layer="2124" to-port="0" />
		<edge from-layer="2123" from-port="0" to-layer="2124" to-port="1" />
		<edge from-layer="2124" from-port="2" to-layer="2125" to-port="0" />
		<edge from-layer="2125" from-port="2" to-layer="2127" to-port="0" />
		<edge from-layer="2126" from-port="0" to-layer="2127" to-port="1" />
		<edge from-layer="2127" from-port="2" to-layer="2128" to-port="0" />
		<edge from-layer="2128" from-port="2" to-layer="2129" to-port="0" />
		<edge from-layer="2129" from-port="2" to-layer="2130" to-port="1" />
		<edge from-layer="2130" from-port="2" to-layer="2131" to-port="0" />
		<edge from-layer="2131" from-port="1" to-layer="2141" to-port="0" />
		<edge from-layer="2132" from-port="0" to-layer="2133" to-port="0" />
		<edge from-layer="2133" from-port="1" to-layer="2134" to-port="1" />
		<edge from-layer="2134" from-port="2" to-layer="2137" to-port="0" />
		<edge from-layer="2135" from-port="0" to-layer="2136" to-port="0" />
		<edge from-layer="2136" from-port="1" to-layer="2137" to-port="1" />
		<edge from-layer="2137" from-port="2" to-layer="2138" to-port="0" />
		<edge from-layer="2138" from-port="2" to-layer="2140" to-port="0" />
		<edge from-layer="2139" from-port="0" to-layer="2140" to-port="1" />
		<edge from-layer="2140" from-port="2" to-layer="2141" to-port="1" />
		<edge from-layer="2141" from-port="2" to-layer="2143" to-port="0" />
		<edge from-layer="2142" from-port="0" to-layer="2143" to-port="1" />
		<edge from-layer="2143" from-port="2" to-layer="2144" to-port="0" />
		<edge from-layer="2144" from-port="2" to-layer="2147" to-port="0" />
		<edge from-layer="2145" from-port="0" to-layer="2146" to-port="0" />
		<edge from-layer="2146" from-port="1" to-layer="2147" to-port="1" />
		<edge from-layer="2147" from-port="2" to-layer="2150" to-port="0" />
		<edge from-layer="2148" from-port="0" to-layer="2149" to-port="0" />
		<edge from-layer="2149" from-port="1" to-layer="2150" to-port="1" />
		<edge from-layer="2150" from-port="2" to-layer="2151" to-port="1" />
		<edge from-layer="2151" from-port="2" to-layer="2156" to-port="0" />
		<edge from-layer="2151" from-port="2" to-layer="2176" to-port="0" />
		<edge from-layer="2152" from-port="0" to-layer="2155" to-port="0" />
		<edge from-layer="2153" from-port="0" to-layer="2155" to-port="1" />
		<edge from-layer="2154" from-port="0" to-layer="2155" to-port="2" />
		<edge from-layer="2155" from-port="3" to-layer="2156" to-port="1" />
		<edge from-layer="2156" from-port="2" to-layer="2159" to-port="0" />
		<edge from-layer="2157" from-port="0" to-layer="2158" to-port="0" />
		<edge from-layer="2158" from-port="1" to-layer="2159" to-port="1" />
		<edge from-layer="2159" from-port="2" to-layer="2162" to-port="0" />
		<edge from-layer="2160" from-port="0" to-layer="2161" to-port="0" />
		<edge from-layer="2161" from-port="1" to-layer="2162" to-port="1" />
		<edge from-layer="2162" from-port="2" to-layer="2165" to-port="0" />
		<edge from-layer="2163" from-port="0" to-layer="2164" to-port="0" />
		<edge from-layer="2164" from-port="1" to-layer="2165" to-port="1" />
		<edge from-layer="2165" from-port="2" to-layer="2168" to-port="0" />
		<edge from-layer="2166" from-port="0" to-layer="2167" to-port="0" />
		<edge from-layer="2167" from-port="1" to-layer="2168" to-port="1" />
		<edge from-layer="2168" from-port="2" to-layer="2169" to-port="0" />
		<edge from-layer="2169" from-port="1" to-layer="2172" to-port="0" />
		<edge from-layer="2170" from-port="0" to-layer="2171" to-port="0" />
		<edge from-layer="2171" from-port="1" to-layer="2172" to-port="1" />
		<edge from-layer="2172" from-port="2" to-layer="2175" to-port="0" />
		<edge from-layer="2173" from-port="0" to-layer="2174" to-port="0" />
		<edge from-layer="2174" from-port="1" to-layer="2175" to-port="1" />
		<edge from-layer="2175" from-port="2" to-layer="2176" to-port="1" />
		<edge from-layer="2176" from-port="2" to-layer="2230" to-port="0" />
		<edge from-layer="2176" from-port="2" to-layer="2181" to-port="0" />
		<edge from-layer="2177" from-port="0" to-layer="2180" to-port="0" />
		<edge from-layer="2178" from-port="0" to-layer="2180" to-port="1" />
		<edge from-layer="2179" from-port="0" to-layer="2180" to-port="2" />
		<edge from-layer="2180" from-port="3" to-layer="2181" to-port="1" />
		<edge from-layer="2181" from-port="2" to-layer="2184" to-port="0" />
		<edge from-layer="2182" from-port="0" to-layer="2183" to-port="0" />
		<edge from-layer="2183" from-port="1" to-layer="2184" to-port="1" />
		<edge from-layer="2184" from-port="2" to-layer="2187" to-port="0" />
		<edge from-layer="2185" from-port="0" to-layer="2186" to-port="0" />
		<edge from-layer="2186" from-port="1" to-layer="2187" to-port="1" />
		<edge from-layer="2187" from-port="2" to-layer="2190" to-port="0" />
		<edge from-layer="2187" from-port="2" to-layer="2200" to-port="0" />
		<edge from-layer="2187" from-port="2" to-layer="2213" to-port="0" />
		<edge from-layer="2188" from-port="0" to-layer="2189" to-port="0" />
		<edge from-layer="2189" from-port="1" to-layer="2190" to-port="1" />
		<edge from-layer="2190" from-port="2" to-layer="2193" to-port="0" />
		<edge from-layer="2191" from-port="0" to-layer="2192" to-port="0" />
		<edge from-layer="2192" from-port="1" to-layer="2193" to-port="1" />
		<edge from-layer="2193" from-port="2" to-layer="2194" to-port="0" />
		<edge from-layer="2194" from-port="2" to-layer="2196" to-port="0" />
		<edge from-layer="2195" from-port="0" to-layer="2196" to-port="1" />
		<edge from-layer="2196" from-port="2" to-layer="2197" to-port="0" />
		<edge from-layer="2197" from-port="2" to-layer="2209" to-port="0" />
		<edge from-layer="2198" from-port="0" to-layer="2199" to-port="0" />
		<edge from-layer="2199" from-port="1" to-layer="2200" to-port="1" />
		<edge from-layer="2200" from-port="2" to-layer="2201" to-port="0" />
		<edge from-layer="2201" from-port="2" to-layer="2203" to-port="0" />
		<edge from-layer="2202" from-port="0" to-layer="2203" to-port="1" />
		<edge from-layer="2203" from-port="2" to-layer="2204" to-port="0" />
		<edge from-layer="2204" from-port="2" to-layer="2206" to-port="0" />
		<edge from-layer="2205" from-port="0" to-layer="2206" to-port="1" />
		<edge from-layer="2206" from-port="2" to-layer="2207" to-port="0" />
		<edge from-layer="2207" from-port="2" to-layer="2208" to-port="0" />
		<edge from-layer="2208" from-port="2" to-layer="2209" to-port="1" />
		<edge from-layer="2209" from-port="2" to-layer="2210" to-port="0" />
		<edge from-layer="2210" from-port="1" to-layer="2220" to-port="0" />
		<edge from-layer="2211" from-port="0" to-layer="2212" to-port="0" />
		<edge from-layer="2212" from-port="1" to-layer="2213" to-port="1" />
		<edge from-layer="2213" from-port="2" to-layer="2216" to-port="0" />
		<edge from-layer="2214" from-port="0" to-layer="2215" to-port="0" />
		<edge from-layer="2215" from-port="1" to-layer="2216" to-port="1" />
		<edge from-layer="2216" from-port="2" to-layer="2217" to-port="0" />
		<edge from-layer="2217" from-port="2" to-layer="2219" to-port="0" />
		<edge from-layer="2218" from-port="0" to-layer="2219" to-port="1" />
		<edge from-layer="2219" from-port="2" to-layer="2220" to-port="1" />
		<edge from-layer="2220" from-port="2" to-layer="2222" to-port="0" />
		<edge from-layer="2221" from-port="0" to-layer="2222" to-port="1" />
		<edge from-layer="2222" from-port="2" to-layer="2223" to-port="0" />
		<edge from-layer="2223" from-port="2" to-layer="2226" to-port="0" />
		<edge from-layer="2224" from-port="0" to-layer="2225" to-port="0" />
		<edge from-layer="2225" from-port="1" to-layer="2226" to-port="1" />
		<edge from-layer="2226" from-port="2" to-layer="2229" to-port="0" />
		<edge from-layer="2227" from-port="0" to-layer="2228" to-port="0" />
		<edge from-layer="2228" from-port="1" to-layer="2229" to-port="1" />
		<edge from-layer="2229" from-port="2" to-layer="2230" to-port="1" />
		<edge from-layer="2230" from-port="2" to-layer="2235" to-port="0" />
		<edge from-layer="2230" from-port="2" to-layer="2255" to-port="0" />
		<edge from-layer="2231" from-port="0" to-layer="2234" to-port="0" />
		<edge from-layer="2232" from-port="0" to-layer="2234" to-port="1" />
		<edge from-layer="2233" from-port="0" to-layer="2234" to-port="2" />
		<edge from-layer="2234" from-port="3" to-layer="2235" to-port="1" />
		<edge from-layer="2235" from-port="2" to-layer="2238" to-port="0" />
		<edge from-layer="2236" from-port="0" to-layer="2237" to-port="0" />
		<edge from-layer="2237" from-port="1" to-layer="2238" to-port="1" />
		<edge from-layer="2238" from-port="2" to-layer="2241" to-port="0" />
		<edge from-layer="2239" from-port="0" to-layer="2240" to-port="0" />
		<edge from-layer="2240" from-port="1" to-layer="2241" to-port="1" />
		<edge from-layer="2241" from-port="2" to-layer="2244" to-port="0" />
		<edge from-layer="2242" from-port="0" to-layer="2243" to-port="0" />
		<edge from-layer="2243" from-port="1" to-layer="2244" to-port="1" />
		<edge from-layer="2244" from-port="2" to-layer="2247" to-port="0" />
		<edge from-layer="2245" from-port="0" to-layer="2246" to-port="0" />
		<edge from-layer="2246" from-port="1" to-layer="2247" to-port="1" />
		<edge from-layer="2247" from-port="2" to-layer="2248" to-port="0" />
		<edge from-layer="2248" from-port="1" to-layer="2251" to-port="0" />
		<edge from-layer="2249" from-port="0" to-layer="2250" to-port="0" />
		<edge from-layer="2250" from-port="1" to-layer="2251" to-port="1" />
		<edge from-layer="2251" from-port="2" to-layer="2254" to-port="0" />
		<edge from-layer="2252" from-port="0" to-layer="2253" to-port="0" />
		<edge from-layer="2253" from-port="1" to-layer="2254" to-port="1" />
		<edge from-layer="2254" from-port="2" to-layer="2255" to-port="1" />
		<edge from-layer="2255" from-port="2" to-layer="2260" to-port="0" />
		<edge from-layer="2255" from-port="2" to-layer="2309" to-port="0" />
		<edge from-layer="2256" from-port="0" to-layer="2259" to-port="0" />
		<edge from-layer="2257" from-port="0" to-layer="2259" to-port="1" />
		<edge from-layer="2258" from-port="0" to-layer="2259" to-port="2" />
		<edge from-layer="2259" from-port="3" to-layer="2260" to-port="1" />
		<edge from-layer="2260" from-port="2" to-layer="2263" to-port="0" />
		<edge from-layer="2261" from-port="0" to-layer="2262" to-port="0" />
		<edge from-layer="2262" from-port="1" to-layer="2263" to-port="1" />
		<edge from-layer="2263" from-port="2" to-layer="2266" to-port="0" />
		<edge from-layer="2264" from-port="0" to-layer="2265" to-port="0" />
		<edge from-layer="2265" from-port="1" to-layer="2266" to-port="1" />
		<edge from-layer="2266" from-port="2" to-layer="2292" to-port="0" />
		<edge from-layer="2266" from-port="2" to-layer="2269" to-port="0" />
		<edge from-layer="2266" from-port="2" to-layer="2279" to-port="0" />
		<edge from-layer="2267" from-port="0" to-layer="2268" to-port="0" />
		<edge from-layer="2268" from-port="1" to-layer="2269" to-port="1" />
		<edge from-layer="2269" from-port="2" to-layer="2272" to-port="0" />
		<edge from-layer="2270" from-port="0" to-layer="2271" to-port="0" />
		<edge from-layer="2271" from-port="1" to-layer="2272" to-port="1" />
		<edge from-layer="2272" from-port="2" to-layer="2273" to-port="0" />
		<edge from-layer="2273" from-port="2" to-layer="2275" to-port="0" />
		<edge from-layer="2274" from-port="0" to-layer="2275" to-port="1" />
		<edge from-layer="2275" from-port="2" to-layer="2276" to-port="0" />
		<edge from-layer="2276" from-port="2" to-layer="2288" to-port="0" />
		<edge from-layer="2277" from-port="0" to-layer="2278" to-port="0" />
		<edge from-layer="2278" from-port="1" to-layer="2279" to-port="1" />
		<edge from-layer="2279" from-port="2" to-layer="2280" to-port="0" />
		<edge from-layer="2280" from-port="2" to-layer="2282" to-port="0" />
		<edge from-layer="2281" from-port="0" to-layer="2282" to-port="1" />
		<edge from-layer="2282" from-port="2" to-layer="2283" to-port="0" />
		<edge from-layer="2283" from-port="2" to-layer="2285" to-port="0" />
		<edge from-layer="2284" from-port="0" to-layer="2285" to-port="1" />
		<edge from-layer="2285" from-port="2" to-layer="2286" to-port="0" />
		<edge from-layer="2286" from-port="2" to-layer="2287" to-port="0" />
		<edge from-layer="2287" from-port="2" to-layer="2288" to-port="1" />
		<edge from-layer="2288" from-port="2" to-layer="2289" to-port="0" />
		<edge from-layer="2289" from-port="1" to-layer="2299" to-port="0" />
		<edge from-layer="2290" from-port="0" to-layer="2291" to-port="0" />
		<edge from-layer="2291" from-port="1" to-layer="2292" to-port="1" />
		<edge from-layer="2292" from-port="2" to-layer="2295" to-port="0" />
		<edge from-layer="2293" from-port="0" to-layer="2294" to-port="0" />
		<edge from-layer="2294" from-port="1" to-layer="2295" to-port="1" />
		<edge from-layer="2295" from-port="2" to-layer="2296" to-port="0" />
		<edge from-layer="2296" from-port="2" to-layer="2298" to-port="0" />
		<edge from-layer="2297" from-port="0" to-layer="2298" to-port="1" />
		<edge from-layer="2298" from-port="2" to-layer="2299" to-port="1" />
		<edge from-layer="2299" from-port="2" to-layer="2301" to-port="0" />
		<edge from-layer="2300" from-port="0" to-layer="2301" to-port="1" />
		<edge from-layer="2301" from-port="2" to-layer="2302" to-port="0" />
		<edge from-layer="2302" from-port="2" to-layer="2305" to-port="0" />
		<edge from-layer="2303" from-port="0" to-layer="2304" to-port="0" />
		<edge from-layer="2304" from-port="1" to-layer="2305" to-port="1" />
		<edge from-layer="2305" from-port="2" to-layer="2308" to-port="0" />
		<edge from-layer="2306" from-port="0" to-layer="2307" to-port="0" />
		<edge from-layer="2307" from-port="1" to-layer="2308" to-port="1" />
		<edge from-layer="2308" from-port="2" to-layer="2309" to-port="1" />
		<edge from-layer="2309" from-port="2" to-layer="2314" to-port="0" />
		<edge from-layer="2309" from-port="2" to-layer="2334" to-port="0" />
		<edge from-layer="2310" from-port="0" to-layer="2313" to-port="0" />
		<edge from-layer="2311" from-port="0" to-layer="2313" to-port="1" />
		<edge from-layer="2312" from-port="0" to-layer="2313" to-port="2" />
		<edge from-layer="2313" from-port="3" to-layer="2314" to-port="1" />
		<edge from-layer="2314" from-port="2" to-layer="2317" to-port="0" />
		<edge from-layer="2315" from-port="0" to-layer="2316" to-port="0" />
		<edge from-layer="2316" from-port="1" to-layer="2317" to-port="1" />
		<edge from-layer="2317" from-port="2" to-layer="2320" to-port="0" />
		<edge from-layer="2318" from-port="0" to-layer="2319" to-port="0" />
		<edge from-layer="2319" from-port="1" to-layer="2320" to-port="1" />
		<edge from-layer="2320" from-port="2" to-layer="2323" to-port="0" />
		<edge from-layer="2321" from-port="0" to-layer="2322" to-port="0" />
		<edge from-layer="2322" from-port="1" to-layer="2323" to-port="1" />
		<edge from-layer="2323" from-port="2" to-layer="2326" to-port="0" />
		<edge from-layer="2324" from-port="0" to-layer="2325" to-port="0" />
		<edge from-layer="2325" from-port="1" to-layer="2326" to-port="1" />
		<edge from-layer="2326" from-port="2" to-layer="2327" to-port="0" />
		<edge from-layer="2327" from-port="1" to-layer="2330" to-port="0" />
		<edge from-layer="2328" from-port="0" to-layer="2329" to-port="0" />
		<edge from-layer="2329" from-port="1" to-layer="2330" to-port="1" />
		<edge from-layer="2330" from-port="2" to-layer="2333" to-port="0" />
		<edge from-layer="2331" from-port="0" to-layer="2332" to-port="0" />
		<edge from-layer="2332" from-port="1" to-layer="2333" to-port="1" />
		<edge from-layer="2333" from-port="2" to-layer="2334" to-port="1" />
		<edge from-layer="2334" from-port="2" to-layer="2339" to-port="0" />
		<edge from-layer="2334" from-port="2" to-layer="2388" to-port="0" />
		<edge from-layer="2335" from-port="0" to-layer="2338" to-port="0" />
		<edge from-layer="2336" from-port="0" to-layer="2338" to-port="1" />
		<edge from-layer="2337" from-port="0" to-layer="2338" to-port="2" />
		<edge from-layer="2338" from-port="3" to-layer="2339" to-port="1" />
		<edge from-layer="2339" from-port="2" to-layer="2342" to-port="0" />
		<edge from-layer="2340" from-port="0" to-layer="2341" to-port="0" />
		<edge from-layer="2341" from-port="1" to-layer="2342" to-port="1" />
		<edge from-layer="2342" from-port="2" to-layer="2345" to-port="0" />
		<edge from-layer="2343" from-port="0" to-layer="2344" to-port="0" />
		<edge from-layer="2344" from-port="1" to-layer="2345" to-port="1" />
		<edge from-layer="2345" from-port="2" to-layer="2348" to-port="0" />
		<edge from-layer="2345" from-port="2" to-layer="2358" to-port="0" />
		<edge from-layer="2345" from-port="2" to-layer="2371" to-port="0" />
		<edge from-layer="2346" from-port="0" to-layer="2347" to-port="0" />
		<edge from-layer="2347" from-port="1" to-layer="2348" to-port="1" />
		<edge from-layer="2348" from-port="2" to-layer="2351" to-port="0" />
		<edge from-layer="2349" from-port="0" to-layer="2350" to-port="0" />
		<edge from-layer="2350" from-port="1" to-layer="2351" to-port="1" />
		<edge from-layer="2351" from-port="2" to-layer="2352" to-port="0" />
		<edge from-layer="2352" from-port="2" to-layer="2354" to-port="0" />
		<edge from-layer="2353" from-port="0" to-layer="2354" to-port="1" />
		<edge from-layer="2354" from-port="2" to-layer="2355" to-port="0" />
		<edge from-layer="2355" from-port="2" to-layer="2367" to-port="0" />
		<edge from-layer="2356" from-port="0" to-layer="2357" to-port="0" />
		<edge from-layer="2357" from-port="1" to-layer="2358" to-port="1" />
		<edge from-layer="2358" from-port="2" to-layer="2359" to-port="0" />
		<edge from-layer="2359" from-port="2" to-layer="2361" to-port="0" />
		<edge from-layer="2360" from-port="0" to-layer="2361" to-port="1" />
		<edge from-layer="2361" from-port="2" to-layer="2362" to-port="0" />
		<edge from-layer="2362" from-port="2" to-layer="2364" to-port="0" />
		<edge from-layer="2363" from-port="0" to-layer="2364" to-port="1" />
		<edge from-layer="2364" from-port="2" to-layer="2365" to-port="0" />
		<edge from-layer="2365" from-port="2" to-layer="2366" to-port="0" />
		<edge from-layer="2366" from-port="2" to-layer="2367" to-port="1" />
		<edge from-layer="2367" from-port="2" to-layer="2368" to-port="0" />
		<edge from-layer="2368" from-port="1" to-layer="2378" to-port="0" />
		<edge from-layer="2369" from-port="0" to-layer="2370" to-port="0" />
		<edge from-layer="2370" from-port="1" to-layer="2371" to-port="1" />
		<edge from-layer="2371" from-port="2" to-layer="2374" to-port="0" />
		<edge from-layer="2372" from-port="0" to-layer="2373" to-port="0" />
		<edge from-layer="2373" from-port="1" to-layer="2374" to-port="1" />
		<edge from-layer="2374" from-port="2" to-layer="2375" to-port="0" />
		<edge from-layer="2375" from-port="2" to-layer="2377" to-port="0" />
		<edge from-layer="2376" from-port="0" to-layer="2377" to-port="1" />
		<edge from-layer="2377" from-port="2" to-layer="2378" to-port="1" />
		<edge from-layer="2378" from-port="2" to-layer="2380" to-port="0" />
		<edge from-layer="2379" from-port="0" to-layer="2380" to-port="1" />
		<edge from-layer="2380" from-port="2" to-layer="2381" to-port="0" />
		<edge from-layer="2381" from-port="2" to-layer="2384" to-port="0" />
		<edge from-layer="2382" from-port="0" to-layer="2383" to-port="0" />
		<edge from-layer="2383" from-port="1" to-layer="2384" to-port="1" />
		<edge from-layer="2384" from-port="2" to-layer="2387" to-port="0" />
		<edge from-layer="2385" from-port="0" to-layer="2386" to-port="0" />
		<edge from-layer="2386" from-port="1" to-layer="2387" to-port="1" />
		<edge from-layer="2387" from-port="2" to-layer="2388" to-port="1" />
		<edge from-layer="2388" from-port="2" to-layer="2413" to-port="0" />
		<edge from-layer="2388" from-port="2" to-layer="2393" to-port="0" />
		<edge from-layer="2389" from-port="0" to-layer="2392" to-port="0" />
		<edge from-layer="2390" from-port="0" to-layer="2392" to-port="1" />
		<edge from-layer="2391" from-port="0" to-layer="2392" to-port="2" />
		<edge from-layer="2392" from-port="3" to-layer="2393" to-port="1" />
		<edge from-layer="2393" from-port="2" to-layer="2396" to-port="0" />
		<edge from-layer="2394" from-port="0" to-layer="2395" to-port="0" />
		<edge from-layer="2395" from-port="1" to-layer="2396" to-port="1" />
		<edge from-layer="2396" from-port="2" to-layer="2399" to-port="0" />
		<edge from-layer="2397" from-port="0" to-layer="2398" to-port="0" />
		<edge from-layer="2398" from-port="1" to-layer="2399" to-port="1" />
		<edge from-layer="2399" from-port="2" to-layer="2402" to-port="0" />
		<edge from-layer="2400" from-port="0" to-layer="2401" to-port="0" />
		<edge from-layer="2401" from-port="1" to-layer="2402" to-port="1" />
		<edge from-layer="2402" from-port="2" to-layer="2405" to-port="0" />
		<edge from-layer="2403" from-port="0" to-layer="2404" to-port="0" />
		<edge from-layer="2404" from-port="1" to-layer="2405" to-port="1" />
		<edge from-layer="2405" from-port="2" to-layer="2406" to-port="0" />
		<edge from-layer="2406" from-port="1" to-layer="2409" to-port="0" />
		<edge from-layer="2407" from-port="0" to-layer="2408" to-port="0" />
		<edge from-layer="2408" from-port="1" to-layer="2409" to-port="1" />
		<edge from-layer="2409" from-port="2" to-layer="2412" to-port="0" />
		<edge from-layer="2410" from-port="0" to-layer="2411" to-port="0" />
		<edge from-layer="2411" from-port="1" to-layer="2412" to-port="1" />
		<edge from-layer="2412" from-port="2" to-layer="2413" to-port="1" />
		<edge from-layer="2413" from-port="2" to-layer="2418" to-port="0" />
		<edge from-layer="2413" from-port="2" to-layer="2467" to-port="0" />
		<edge from-layer="2414" from-port="0" to-layer="2417" to-port="0" />
		<edge from-layer="2415" from-port="0" to-layer="2417" to-port="1" />
		<edge from-layer="2416" from-port="0" to-layer="2417" to-port="2" />
		<edge from-layer="2417" from-port="3" to-layer="2418" to-port="1" />
		<edge from-layer="2418" from-port="2" to-layer="2421" to-port="0" />
		<edge from-layer="2419" from-port="0" to-layer="2420" to-port="0" />
		<edge from-layer="2420" from-port="1" to-layer="2421" to-port="1" />
		<edge from-layer="2421" from-port="2" to-layer="2424" to-port="0" />
		<edge from-layer="2422" from-port="0" to-layer="2423" to-port="0" />
		<edge from-layer="2423" from-port="1" to-layer="2424" to-port="1" />
		<edge from-layer="2424" from-port="2" to-layer="2437" to-port="0" />
		<edge from-layer="2424" from-port="2" to-layer="2427" to-port="0" />
		<edge from-layer="2424" from-port="2" to-layer="2450" to-port="0" />
		<edge from-layer="2425" from-port="0" to-layer="2426" to-port="0" />
		<edge from-layer="2426" from-port="1" to-layer="2427" to-port="1" />
		<edge from-layer="2427" from-port="2" to-layer="2430" to-port="0" />
		<edge from-layer="2428" from-port="0" to-layer="2429" to-port="0" />
		<edge from-layer="2429" from-port="1" to-layer="2430" to-port="1" />
		<edge from-layer="2430" from-port="2" to-layer="2431" to-port="0" />
		<edge from-layer="2431" from-port="2" to-layer="2433" to-port="0" />
		<edge from-layer="2432" from-port="0" to-layer="2433" to-port="1" />
		<edge from-layer="2433" from-port="2" to-layer="2434" to-port="0" />
		<edge from-layer="2434" from-port="2" to-layer="2446" to-port="0" />
		<edge from-layer="2435" from-port="0" to-layer="2436" to-port="0" />
		<edge from-layer="2436" from-port="1" to-layer="2437" to-port="1" />
		<edge from-layer="2437" from-port="2" to-layer="2438" to-port="0" />
		<edge from-layer="2438" from-port="2" to-layer="2440" to-port="0" />
		<edge from-layer="2439" from-port="0" to-layer="2440" to-port="1" />
		<edge from-layer="2440" from-port="2" to-layer="2441" to-port="0" />
		<edge from-layer="2441" from-port="2" to-layer="2443" to-port="0" />
		<edge from-layer="2442" from-port="0" to-layer="2443" to-port="1" />
		<edge from-layer="2443" from-port="2" to-layer="2444" to-port="0" />
		<edge from-layer="2444" from-port="2" to-layer="2445" to-port="0" />
		<edge from-layer="2445" from-port="2" to-layer="2446" to-port="1" />
		<edge from-layer="2446" from-port="2" to-layer="2447" to-port="0" />
		<edge from-layer="2447" from-port="1" to-layer="2457" to-port="0" />
		<edge from-layer="2448" from-port="0" to-layer="2449" to-port="0" />
		<edge from-layer="2449" from-port="1" to-layer="2450" to-port="1" />
		<edge from-layer="2450" from-port="2" to-layer="2453" to-port="0" />
		<edge from-layer="2451" from-port="0" to-layer="2452" to-port="0" />
		<edge from-layer="2452" from-port="1" to-layer="2453" to-port="1" />
		<edge from-layer="2453" from-port="2" to-layer="2454" to-port="0" />
		<edge from-layer="2454" from-port="2" to-layer="2456" to-port="0" />
		<edge from-layer="2455" from-port="0" to-layer="2456" to-port="1" />
		<edge from-layer="2456" from-port="2" to-layer="2457" to-port="1" />
		<edge from-layer="2457" from-port="2" to-layer="2459" to-port="0" />
		<edge from-layer="2458" from-port="0" to-layer="2459" to-port="1" />
		<edge from-layer="2459" from-port="2" to-layer="2460" to-port="0" />
		<edge from-layer="2460" from-port="2" to-layer="2463" to-port="0" />
		<edge from-layer="2461" from-port="0" to-layer="2462" to-port="0" />
		<edge from-layer="2462" from-port="1" to-layer="2463" to-port="1" />
		<edge from-layer="2463" from-port="2" to-layer="2466" to-port="0" />
		<edge from-layer="2464" from-port="0" to-layer="2465" to-port="0" />
		<edge from-layer="2465" from-port="1" to-layer="2466" to-port="1" />
		<edge from-layer="2466" from-port="2" to-layer="2467" to-port="1" />
		<edge from-layer="2467" from-port="2" to-layer="2472" to-port="0" />
		<edge from-layer="2467" from-port="2" to-layer="2492" to-port="0" />
		<edge from-layer="2468" from-port="0" to-layer="2471" to-port="0" />
		<edge from-layer="2469" from-port="0" to-layer="2471" to-port="1" />
		<edge from-layer="2470" from-port="0" to-layer="2471" to-port="2" />
		<edge from-layer="2471" from-port="3" to-layer="2472" to-port="1" />
		<edge from-layer="2472" from-port="2" to-layer="2475" to-port="0" />
		<edge from-layer="2473" from-port="0" to-layer="2474" to-port="0" />
		<edge from-layer="2474" from-port="1" to-layer="2475" to-port="1" />
		<edge from-layer="2475" from-port="2" to-layer="2478" to-port="0" />
		<edge from-layer="2476" from-port="0" to-layer="2477" to-port="0" />
		<edge from-layer="2477" from-port="1" to-layer="2478" to-port="1" />
		<edge from-layer="2478" from-port="2" to-layer="2481" to-port="0" />
		<edge from-layer="2479" from-port="0" to-layer="2480" to-port="0" />
		<edge from-layer="2480" from-port="1" to-layer="2481" to-port="1" />
		<edge from-layer="2481" from-port="2" to-layer="2484" to-port="0" />
		<edge from-layer="2482" from-port="0" to-layer="2483" to-port="0" />
		<edge from-layer="2483" from-port="1" to-layer="2484" to-port="1" />
		<edge from-layer="2484" from-port="2" to-layer="2485" to-port="0" />
		<edge from-layer="2485" from-port="1" to-layer="2488" to-port="0" />
		<edge from-layer="2486" from-port="0" to-layer="2487" to-port="0" />
		<edge from-layer="2487" from-port="1" to-layer="2488" to-port="1" />
		<edge from-layer="2488" from-port="2" to-layer="2491" to-port="0" />
		<edge from-layer="2489" from-port="0" to-layer="2490" to-port="0" />
		<edge from-layer="2490" from-port="1" to-layer="2491" to-port="1" />
		<edge from-layer="2491" from-port="2" to-layer="2492" to-port="1" />
		<edge from-layer="2492" from-port="2" to-layer="2497" to-port="0" />
		<edge from-layer="2492" from-port="2" to-layer="2546" to-port="0" />
		<edge from-layer="2493" from-port="0" to-layer="2496" to-port="0" />
		<edge from-layer="2494" from-port="0" to-layer="2496" to-port="1" />
		<edge from-layer="2495" from-port="0" to-layer="2496" to-port="2" />
		<edge from-layer="2496" from-port="3" to-layer="2497" to-port="1" />
		<edge from-layer="2497" from-port="2" to-layer="2500" to-port="0" />
		<edge from-layer="2498" from-port="0" to-layer="2499" to-port="0" />
		<edge from-layer="2499" from-port="1" to-layer="2500" to-port="1" />
		<edge from-layer="2500" from-port="2" to-layer="2503" to-port="0" />
		<edge from-layer="2501" from-port="0" to-layer="2502" to-port="0" />
		<edge from-layer="2502" from-port="1" to-layer="2503" to-port="1" />
		<edge from-layer="2503" from-port="2" to-layer="2506" to-port="0" />
		<edge from-layer="2503" from-port="2" to-layer="2516" to-port="0" />
		<edge from-layer="2503" from-port="2" to-layer="2529" to-port="0" />
		<edge from-layer="2504" from-port="0" to-layer="2505" to-port="0" />
		<edge from-layer="2505" from-port="1" to-layer="2506" to-port="1" />
		<edge from-layer="2506" from-port="2" to-layer="2509" to-port="0" />
		<edge from-layer="2507" from-port="0" to-layer="2508" to-port="0" />
		<edge from-layer="2508" from-port="1" to-layer="2509" to-port="1" />
		<edge from-layer="2509" from-port="2" to-layer="2510" to-port="0" />
		<edge from-layer="2510" from-port="2" to-layer="2512" to-port="0" />
		<edge from-layer="2511" from-port="0" to-layer="2512" to-port="1" />
		<edge from-layer="2512" from-port="2" to-layer="2513" to-port="0" />
		<edge from-layer="2513" from-port="2" to-layer="2525" to-port="0" />
		<edge from-layer="2514" from-port="0" to-layer="2515" to-port="0" />
		<edge from-layer="2515" from-port="1" to-layer="2516" to-port="1" />
		<edge from-layer="2516" from-port="2" to-layer="2517" to-port="0" />
		<edge from-layer="2517" from-port="2" to-layer="2519" to-port="0" />
		<edge from-layer="2518" from-port="0" to-layer="2519" to-port="1" />
		<edge from-layer="2519" from-port="2" to-layer="2520" to-port="0" />
		<edge from-layer="2520" from-port="2" to-layer="2522" to-port="0" />
		<edge from-layer="2521" from-port="0" to-layer="2522" to-port="1" />
		<edge from-layer="2522" from-port="2" to-layer="2523" to-port="0" />
		<edge from-layer="2523" from-port="2" to-layer="2524" to-port="0" />
		<edge from-layer="2524" from-port="2" to-layer="2525" to-port="1" />
		<edge from-layer="2525" from-port="2" to-layer="2526" to-port="0" />
		<edge from-layer="2526" from-port="1" to-layer="2536" to-port="0" />
		<edge from-layer="2527" from-port="0" to-layer="2528" to-port="0" />
		<edge from-layer="2528" from-port="1" to-layer="2529" to-port="1" />
		<edge from-layer="2529" from-port="2" to-layer="2532" to-port="0" />
		<edge from-layer="2530" from-port="0" to-layer="2531" to-port="0" />
		<edge from-layer="2531" from-port="1" to-layer="2532" to-port="1" />
		<edge from-layer="2532" from-port="2" to-layer="2533" to-port="0" />
		<edge from-layer="2533" from-port="2" to-layer="2535" to-port="0" />
		<edge from-layer="2534" from-port="0" to-layer="2535" to-port="1" />
		<edge from-layer="2535" from-port="2" to-layer="2536" to-port="1" />
		<edge from-layer="2536" from-port="2" to-layer="2538" to-port="0" />
		<edge from-layer="2537" from-port="0" to-layer="2538" to-port="1" />
		<edge from-layer="2538" from-port="2" to-layer="2539" to-port="0" />
		<edge from-layer="2539" from-port="2" to-layer="2542" to-port="0" />
		<edge from-layer="2540" from-port="0" to-layer="2541" to-port="0" />
		<edge from-layer="2541" from-port="1" to-layer="2542" to-port="1" />
		<edge from-layer="2542" from-port="2" to-layer="2545" to-port="0" />
		<edge from-layer="2543" from-port="0" to-layer="2544" to-port="0" />
		<edge from-layer="2544" from-port="1" to-layer="2545" to-port="1" />
		<edge from-layer="2545" from-port="2" to-layer="2546" to-port="1" />
		<edge from-layer="2546" from-port="2" to-layer="2551" to-port="0" />
		<edge from-layer="2546" from-port="2" to-layer="2571" to-port="0" />
		<edge from-layer="2547" from-port="0" to-layer="2550" to-port="0" />
		<edge from-layer="2548" from-port="0" to-layer="2550" to-port="1" />
		<edge from-layer="2549" from-port="0" to-layer="2550" to-port="2" />
		<edge from-layer="2550" from-port="3" to-layer="2551" to-port="1" />
		<edge from-layer="2551" from-port="2" to-layer="2554" to-port="0" />
		<edge from-layer="2552" from-port="0" to-layer="2553" to-port="0" />
		<edge from-layer="2553" from-port="1" to-layer="2554" to-port="1" />
		<edge from-layer="2554" from-port="2" to-layer="2557" to-port="0" />
		<edge from-layer="2555" from-port="0" to-layer="2556" to-port="0" />
		<edge from-layer="2556" from-port="1" to-layer="2557" to-port="1" />
		<edge from-layer="2557" from-port="2" to-layer="2560" to-port="0" />
		<edge from-layer="2558" from-port="0" to-layer="2559" to-port="0" />
		<edge from-layer="2559" from-port="1" to-layer="2560" to-port="1" />
		<edge from-layer="2560" from-port="2" to-layer="2563" to-port="0" />
		<edge from-layer="2561" from-port="0" to-layer="2562" to-port="0" />
		<edge from-layer="2562" from-port="1" to-layer="2563" to-port="1" />
		<edge from-layer="2563" from-port="2" to-layer="2564" to-port="0" />
		<edge from-layer="2564" from-port="1" to-layer="2567" to-port="0" />
		<edge from-layer="2565" from-port="0" to-layer="2566" to-port="0" />
		<edge from-layer="2566" from-port="1" to-layer="2567" to-port="1" />
		<edge from-layer="2567" from-port="2" to-layer="2570" to-port="0" />
		<edge from-layer="2568" from-port="0" to-layer="2569" to-port="0" />
		<edge from-layer="2569" from-port="1" to-layer="2570" to-port="1" />
		<edge from-layer="2570" from-port="2" to-layer="2571" to-port="1" />
		<edge from-layer="2571" from-port="2" to-layer="2576" to-port="0" />
		<edge from-layer="2572" from-port="0" to-layer="2575" to-port="0" />
		<edge from-layer="2573" from-port="0" to-layer="2575" to-port="1" />
		<edge from-layer="2574" from-port="0" to-layer="2575" to-port="2" />
		<edge from-layer="2575" from-port="3" to-layer="2576" to-port="1" />
		<edge from-layer="2576" from-port="2" to-layer="2579" to-port="0" />
		<edge from-layer="2577" from-port="0" to-layer="2578" to-port="0" />
		<edge from-layer="2578" from-port="1" to-layer="2579" to-port="1" />
		<edge from-layer="2579" from-port="2" to-layer="2582" to-port="0" />
		<edge from-layer="2580" from-port="0" to-layer="2581" to-port="0" />
		<edge from-layer="2581" from-port="1" to-layer="2582" to-port="1" />
		<edge from-layer="2582" from-port="2" to-layer="2583" to-port="0" />
	</edges>
	<rt_info />
</net>
